ESRGAN loaded!
weights exported!
graph(%input1 : Float(1, 3, 256, 256),
      %conv_first.weight : Float(64, 3, 3, 3),
      %conv_first.bias : Float(64),
      %RRDB_trunk.0.RDB1.conv1.weight : Float(32, 64, 3, 3),
      %RRDB_trunk.0.RDB1.conv1.bias : Float(32),
      %RRDB_trunk.0.RDB1.conv2.weight : Float(32, 96, 3, 3),
      %RRDB_trunk.0.RDB1.conv2.bias : Float(32),
      %RRDB_trunk.0.RDB1.conv3.weight : Float(32, 128, 3, 3),
      %RRDB_trunk.0.RDB1.conv3.bias : Float(32),
      %RRDB_trunk.0.RDB1.conv4.weight : Float(32, 160, 3, 3),
      %RRDB_trunk.0.RDB1.conv4.bias : Float(32),
      %RRDB_trunk.0.RDB1.conv5.weight : Float(64, 192, 3, 3),
      %RRDB_trunk.0.RDB1.conv5.bias : Float(64),
      %RRDB_trunk.0.RDB2.conv1.weight : Float(32, 64, 3, 3),
      %RRDB_trunk.0.RDB2.conv1.bias : Float(32),
      %RRDB_trunk.0.RDB2.conv2.weight : Float(32, 96, 3, 3),
      %RRDB_trunk.0.RDB2.conv2.bias : Float(32),
      %RRDB_trunk.0.RDB2.conv3.weight : Float(32, 128, 3, 3),
      %RRDB_trunk.0.RDB2.conv3.bias : Float(32),
      %RRDB_trunk.0.RDB2.conv4.weight : Float(32, 160, 3, 3),
      %RRDB_trunk.0.RDB2.conv4.bias : Float(32),
      %RRDB_trunk.0.RDB2.conv5.weight : Float(64, 192, 3, 3),
      %RRDB_trunk.0.RDB2.conv5.bias : Float(64),
      %RRDB_trunk.0.RDB3.conv1.weight : Float(32, 64, 3, 3),
      %RRDB_trunk.0.RDB3.conv1.bias : Float(32),
      %RRDB_trunk.0.RDB3.conv2.weight : Float(32, 96, 3, 3),
      %RRDB_trunk.0.RDB3.conv2.bias : Float(32),
      %RRDB_trunk.0.RDB3.conv3.weight : Float(32, 128, 3, 3),
      %RRDB_trunk.0.RDB3.conv3.bias : Float(32),
      %RRDB_trunk.0.RDB3.conv4.weight : Float(32, 160, 3, 3),
      %RRDB_trunk.0.RDB3.conv4.bias : Float(32),
      %RRDB_trunk.0.RDB3.conv5.weight : Float(64, 192, 3, 3),
      %RRDB_trunk.0.RDB3.conv5.bias : Float(64),
      %RRDB_trunk.1.RDB1.conv1.weight : Float(32, 64, 3, 3),
      %RRDB_trunk.1.RDB1.conv1.bias : Float(32),
      %RRDB_trunk.1.RDB1.conv2.weight : Float(32, 96, 3, 3),
      %RRDB_trunk.1.RDB1.conv2.bias : Float(32),
      %RRDB_trunk.1.RDB1.conv3.weight : Float(32, 128, 3, 3),
      %RRDB_trunk.1.RDB1.conv3.bias : Float(32),
      %RRDB_trunk.1.RDB1.conv4.weight : Float(32, 160, 3, 3),
      %RRDB_trunk.1.RDB1.conv4.bias : Float(32),
      %RRDB_trunk.1.RDB1.conv5.weight : Float(64, 192, 3, 3),
      %RRDB_trunk.1.RDB1.conv5.bias : Float(64),
      %RRDB_trunk.1.RDB2.conv1.weight : Float(32, 64, 3, 3),
      %RRDB_trunk.1.RDB2.conv1.bias : Float(32),
      %RRDB_trunk.1.RDB2.conv2.weight : Float(32, 96, 3, 3),
      %RRDB_trunk.1.RDB2.conv2.bias : Float(32),
      %RRDB_trunk.1.RDB2.conv3.weight : Float(32, 128, 3, 3),
      %RRDB_trunk.1.RDB2.conv3.bias : Float(32),
      %RRDB_trunk.1.RDB2.conv4.weight : Float(32, 160, 3, 3),
      %RRDB_trunk.1.RDB2.conv4.bias : Float(32),
      %RRDB_trunk.1.RDB2.conv5.weight : Float(64, 192, 3, 3),
      %RRDB_trunk.1.RDB2.conv5.bias : Float(64),
      %RRDB_trunk.1.RDB3.conv1.weight : Float(32, 64, 3, 3),
      %RRDB_trunk.1.RDB3.conv1.bias : Float(32),
      %RRDB_trunk.1.RDB3.conv2.weight : Float(32, 96, 3, 3),
      %RRDB_trunk.1.RDB3.conv2.bias : Float(32),
      %RRDB_trunk.1.RDB3.conv3.weight : Float(32, 128, 3, 3),
      %RRDB_trunk.1.RDB3.conv3.bias : Float(32),
      %RRDB_trunk.1.RDB3.conv4.weight : Float(32, 160, 3, 3),
      %RRDB_trunk.1.RDB3.conv4.bias : Float(32),
      %RRDB_trunk.1.RDB3.conv5.weight : Float(64, 192, 3, 3),
      %RRDB_trunk.1.RDB3.conv5.bias : Float(64),
      %RRDB_trunk.2.RDB1.conv1.weight : Float(32, 64, 3, 3),
      %RRDB_trunk.2.RDB1.conv1.bias : Float(32),
      %RRDB_trunk.2.RDB1.conv2.weight : Float(32, 96, 3, 3),
      %RRDB_trunk.2.RDB1.conv2.bias : Float(32),
      %RRDB_trunk.2.RDB1.conv3.weight : Float(32, 128, 3, 3),
      %RRDB_trunk.2.RDB1.conv3.bias : Float(32),
      %RRDB_trunk.2.RDB1.conv4.weight : Float(32, 160, 3, 3),
      %RRDB_trunk.2.RDB1.conv4.bias : Float(32),
      %RRDB_trunk.2.RDB1.conv5.weight : Float(64, 192, 3, 3),
      %RRDB_trunk.2.RDB1.conv5.bias : Float(64),
      %RRDB_trunk.2.RDB2.conv1.weight : Float(32, 64, 3, 3),
      %RRDB_trunk.2.RDB2.conv1.bias : Float(32),
      %RRDB_trunk.2.RDB2.conv2.weight : Float(32, 96, 3, 3),
      %RRDB_trunk.2.RDB2.conv2.bias : Float(32),
      %RRDB_trunk.2.RDB2.conv3.weight : Float(32, 128, 3, 3),
      %RRDB_trunk.2.RDB2.conv3.bias : Float(32),
      %RRDB_trunk.2.RDB2.conv4.weight : Float(32, 160, 3, 3),
      %RRDB_trunk.2.RDB2.conv4.bias : Float(32),
      %RRDB_trunk.2.RDB2.conv5.weight : Float(64, 192, 3, 3),
      %RRDB_trunk.2.RDB2.conv5.bias : Float(64),
      %RRDB_trunk.2.RDB3.conv1.weight : Float(32, 64, 3, 3),
      %RRDB_trunk.2.RDB3.conv1.bias : Float(32),
      %RRDB_trunk.2.RDB3.conv2.weight : Float(32, 96, 3, 3),
      %RRDB_trunk.2.RDB3.conv2.bias : Float(32),
      %RRDB_trunk.2.RDB3.conv3.weight : Float(32, 128, 3, 3),
      %RRDB_trunk.2.RDB3.conv3.bias : Float(32),
      %RRDB_trunk.2.RDB3.conv4.weight : Float(32, 160, 3, 3),
      %RRDB_trunk.2.RDB3.conv4.bias : Float(32),
      %RRDB_trunk.2.RDB3.conv5.weight : Float(64, 192, 3, 3),
      %RRDB_trunk.2.RDB3.conv5.bias : Float(64),
      %RRDB_trunk.3.RDB1.conv1.weight : Float(32, 64, 3, 3),
      %RRDB_trunk.3.RDB1.conv1.bias : Float(32),
      %RRDB_trunk.3.RDB1.conv2.weight : Float(32, 96, 3, 3),
      %RRDB_trunk.3.RDB1.conv2.bias : Float(32),
      %RRDB_trunk.3.RDB1.conv3.weight : Float(32, 128, 3, 3),
      %RRDB_trunk.3.RDB1.conv3.bias : Float(32),
      %RRDB_trunk.3.RDB1.conv4.weight : Float(32, 160, 3, 3),
      %RRDB_trunk.3.RDB1.conv4.bias : Float(32),
      %RRDB_trunk.3.RDB1.conv5.weight : Float(64, 192, 3, 3),
      %RRDB_trunk.3.RDB1.conv5.bias : Float(64),
      %RRDB_trunk.3.RDB2.conv1.weight : Float(32, 64, 3, 3),
      %RRDB_trunk.3.RDB2.conv1.bias : Float(32),
      %RRDB_trunk.3.RDB2.conv2.weight : Float(32, 96, 3, 3),
      %RRDB_trunk.3.RDB2.conv2.bias : Float(32),
      %RRDB_trunk.3.RDB2.conv3.weight : Float(32, 128, 3, 3),
      %RRDB_trunk.3.RDB2.conv3.bias : Float(32),
      %RRDB_trunk.3.RDB2.conv4.weight : Float(32, 160, 3, 3),
      %RRDB_trunk.3.RDB2.conv4.bias : Float(32),
      %RRDB_trunk.3.RDB2.conv5.weight : Float(64, 192, 3, 3),
      %RRDB_trunk.3.RDB2.conv5.bias : Float(64),
      %RRDB_trunk.3.RDB3.conv1.weight : Float(32, 64, 3, 3),
      %RRDB_trunk.3.RDB3.conv1.bias : Float(32),
      %RRDB_trunk.3.RDB3.conv2.weight : Float(32, 96, 3, 3),
      %RRDB_trunk.3.RDB3.conv2.bias : Float(32),
      %RRDB_trunk.3.RDB3.conv3.weight : Float(32, 128, 3, 3),
      %RRDB_trunk.3.RDB3.conv3.bias : Float(32),
      %RRDB_trunk.3.RDB3.conv4.weight : Float(32, 160, 3, 3),
      %RRDB_trunk.3.RDB3.conv4.bias : Float(32),
      %RRDB_trunk.3.RDB3.conv5.weight : Float(64, 192, 3, 3),
      %RRDB_trunk.3.RDB3.conv5.bias : Float(64),
      %RRDB_trunk.4.RDB1.conv1.weight : Float(32, 64, 3, 3),
      %RRDB_trunk.4.RDB1.conv1.bias : Float(32),
      %RRDB_trunk.4.RDB1.conv2.weight : Float(32, 96, 3, 3),
      %RRDB_trunk.4.RDB1.conv2.bias : Float(32),
      %RRDB_trunk.4.RDB1.conv3.weight : Float(32, 128, 3, 3),
      %RRDB_trunk.4.RDB1.conv3.bias : Float(32),
      %RRDB_trunk.4.RDB1.conv4.weight : Float(32, 160, 3, 3),
      %RRDB_trunk.4.RDB1.conv4.bias : Float(32),
      %RRDB_trunk.4.RDB1.conv5.weight : Float(64, 192, 3, 3),
      %RRDB_trunk.4.RDB1.conv5.bias : Float(64),
      %RRDB_trunk.4.RDB2.conv1.weight : Float(32, 64, 3, 3),
      %RRDB_trunk.4.RDB2.conv1.bias : Float(32),
      %RRDB_trunk.4.RDB2.conv2.weight : Float(32, 96, 3, 3),
      %RRDB_trunk.4.RDB2.conv2.bias : Float(32),
      %RRDB_trunk.4.RDB2.conv3.weight : Float(32, 128, 3, 3),
      %RRDB_trunk.4.RDB2.conv3.bias : Float(32),
      %RRDB_trunk.4.RDB2.conv4.weight : Float(32, 160, 3, 3),
      %RRDB_trunk.4.RDB2.conv4.bias : Float(32),
      %RRDB_trunk.4.RDB2.conv5.weight : Float(64, 192, 3, 3),
      %RRDB_trunk.4.RDB2.conv5.bias : Float(64),
      %RRDB_trunk.4.RDB3.conv1.weight : Float(32, 64, 3, 3),
      %RRDB_trunk.4.RDB3.conv1.bias : Float(32),
      %RRDB_trunk.4.RDB3.conv2.weight : Float(32, 96, 3, 3),
      %RRDB_trunk.4.RDB3.conv2.bias : Float(32),
      %RRDB_trunk.4.RDB3.conv3.weight : Float(32, 128, 3, 3),
      %RRDB_trunk.4.RDB3.conv3.bias : Float(32),
      %RRDB_trunk.4.RDB3.conv4.weight : Float(32, 160, 3, 3),
      %RRDB_trunk.4.RDB3.conv4.bias : Float(32),
      %RRDB_trunk.4.RDB3.conv5.weight : Float(64, 192, 3, 3),
      %RRDB_trunk.4.RDB3.conv5.bias : Float(64),
      %RRDB_trunk.5.RDB1.conv1.weight : Float(32, 64, 3, 3),
      %RRDB_trunk.5.RDB1.conv1.bias : Float(32),
      %RRDB_trunk.5.RDB1.conv2.weight : Float(32, 96, 3, 3),
      %RRDB_trunk.5.RDB1.conv2.bias : Float(32),
      %RRDB_trunk.5.RDB1.conv3.weight : Float(32, 128, 3, 3),
      %RRDB_trunk.5.RDB1.conv3.bias : Float(32),
      %RRDB_trunk.5.RDB1.conv4.weight : Float(32, 160, 3, 3),
      %RRDB_trunk.5.RDB1.conv4.bias : Float(32),
      %RRDB_trunk.5.RDB1.conv5.weight : Float(64, 192, 3, 3),
      %RRDB_trunk.5.RDB1.conv5.bias : Float(64),
      %RRDB_trunk.5.RDB2.conv1.weight : Float(32, 64, 3, 3),
      %RRDB_trunk.5.RDB2.conv1.bias : Float(32),
      %RRDB_trunk.5.RDB2.conv2.weight : Float(32, 96, 3, 3),
      %RRDB_trunk.5.RDB2.conv2.bias : Float(32),
      %RRDB_trunk.5.RDB2.conv3.weight : Float(32, 128, 3, 3),
      %RRDB_trunk.5.RDB2.conv3.bias : Float(32),
      %RRDB_trunk.5.RDB2.conv4.weight : Float(32, 160, 3, 3),
      %RRDB_trunk.5.RDB2.conv4.bias : Float(32),
      %RRDB_trunk.5.RDB2.conv5.weight : Float(64, 192, 3, 3),
      %RRDB_trunk.5.RDB2.conv5.bias : Float(64),
      %RRDB_trunk.5.RDB3.conv1.weight : Float(32, 64, 3, 3),
      %RRDB_trunk.5.RDB3.conv1.bias : Float(32),
      %RRDB_trunk.5.RDB3.conv2.weight : Float(32, 96, 3, 3),
      %RRDB_trunk.5.RDB3.conv2.bias : Float(32),
      %RRDB_trunk.5.RDB3.conv3.weight : Float(32, 128, 3, 3),
      %RRDB_trunk.5.RDB3.conv3.bias : Float(32),
      %RRDB_trunk.5.RDB3.conv4.weight : Float(32, 160, 3, 3),
      %RRDB_trunk.5.RDB3.conv4.bias : Float(32),
      %RRDB_trunk.5.RDB3.conv5.weight : Float(64, 192, 3, 3),
      %RRDB_trunk.5.RDB3.conv5.bias : Float(64),
      %RRDB_trunk.6.RDB1.conv1.weight : Float(32, 64, 3, 3),
      %RRDB_trunk.6.RDB1.conv1.bias : Float(32),
      %RRDB_trunk.6.RDB1.conv2.weight : Float(32, 96, 3, 3),
      %RRDB_trunk.6.RDB1.conv2.bias : Float(32),
      %RRDB_trunk.6.RDB1.conv3.weight : Float(32, 128, 3, 3),
      %RRDB_trunk.6.RDB1.conv3.bias : Float(32),
      %RRDB_trunk.6.RDB1.conv4.weight : Float(32, 160, 3, 3),
      %RRDB_trunk.6.RDB1.conv4.bias : Float(32),
      %RRDB_trunk.6.RDB1.conv5.weight : Float(64, 192, 3, 3),
      %RRDB_trunk.6.RDB1.conv5.bias : Float(64),
      %RRDB_trunk.6.RDB2.conv1.weight : Float(32, 64, 3, 3),
      %RRDB_trunk.6.RDB2.conv1.bias : Float(32),
      %RRDB_trunk.6.RDB2.conv2.weight : Float(32, 96, 3, 3),
      %RRDB_trunk.6.RDB2.conv2.bias : Float(32),
      %RRDB_trunk.6.RDB2.conv3.weight : Float(32, 128, 3, 3),
      %RRDB_trunk.6.RDB2.conv3.bias : Float(32),
      %RRDB_trunk.6.RDB2.conv4.weight : Float(32, 160, 3, 3),
      %RRDB_trunk.6.RDB2.conv4.bias : Float(32),
      %RRDB_trunk.6.RDB2.conv5.weight : Float(64, 192, 3, 3),
      %RRDB_trunk.6.RDB2.conv5.bias : Float(64),
      %RRDB_trunk.6.RDB3.conv1.weight : Float(32, 64, 3, 3),
      %RRDB_trunk.6.RDB3.conv1.bias : Float(32),
      %RRDB_trunk.6.RDB3.conv2.weight : Float(32, 96, 3, 3),
      %RRDB_trunk.6.RDB3.conv2.bias : Float(32),
      %RRDB_trunk.6.RDB3.conv3.weight : Float(32, 128, 3, 3),
      %RRDB_trunk.6.RDB3.conv3.bias : Float(32),
      %RRDB_trunk.6.RDB3.conv4.weight : Float(32, 160, 3, 3),
      %RRDB_trunk.6.RDB3.conv4.bias : Float(32),
      %RRDB_trunk.6.RDB3.conv5.weight : Float(64, 192, 3, 3),
      %RRDB_trunk.6.RDB3.conv5.bias : Float(64),
      %RRDB_trunk.7.RDB1.conv1.weight : Float(32, 64, 3, 3),
      %RRDB_trunk.7.RDB1.conv1.bias : Float(32),
      %RRDB_trunk.7.RDB1.conv2.weight : Float(32, 96, 3, 3),
      %RRDB_trunk.7.RDB1.conv2.bias : Float(32),
      %RRDB_trunk.7.RDB1.conv3.weight : Float(32, 128, 3, 3),
      %RRDB_trunk.7.RDB1.conv3.bias : Float(32),
      %RRDB_trunk.7.RDB1.conv4.weight : Float(32, 160, 3, 3),
      %RRDB_trunk.7.RDB1.conv4.bias : Float(32),
      %RRDB_trunk.7.RDB1.conv5.weight : Float(64, 192, 3, 3),
      %RRDB_trunk.7.RDB1.conv5.bias : Float(64),
      %RRDB_trunk.7.RDB2.conv1.weight : Float(32, 64, 3, 3),
      %RRDB_trunk.7.RDB2.conv1.bias : Float(32),
      %RRDB_trunk.7.RDB2.conv2.weight : Float(32, 96, 3, 3),
      %RRDB_trunk.7.RDB2.conv2.bias : Float(32),
      %RRDB_trunk.7.RDB2.conv3.weight : Float(32, 128, 3, 3),
      %RRDB_trunk.7.RDB2.conv3.bias : Float(32),
      %RRDB_trunk.7.RDB2.conv4.weight : Float(32, 160, 3, 3),
      %RRDB_trunk.7.RDB2.conv4.bias : Float(32),
      %RRDB_trunk.7.RDB2.conv5.weight : Float(64, 192, 3, 3),
      %RRDB_trunk.7.RDB2.conv5.bias : Float(64),
      %RRDB_trunk.7.RDB3.conv1.weight : Float(32, 64, 3, 3),
      %RRDB_trunk.7.RDB3.conv1.bias : Float(32),
      %RRDB_trunk.7.RDB3.conv2.weight : Float(32, 96, 3, 3),
      %RRDB_trunk.7.RDB3.conv2.bias : Float(32),
      %RRDB_trunk.7.RDB3.conv3.weight : Float(32, 128, 3, 3),
      %RRDB_trunk.7.RDB3.conv3.bias : Float(32),
      %RRDB_trunk.7.RDB3.conv4.weight : Float(32, 160, 3, 3),
      %RRDB_trunk.7.RDB3.conv4.bias : Float(32),
      %RRDB_trunk.7.RDB3.conv5.weight : Float(64, 192, 3, 3),
      %RRDB_trunk.7.RDB3.conv5.bias : Float(64),
      %RRDB_trunk.8.RDB1.conv1.weight : Float(32, 64, 3, 3),
      %RRDB_trunk.8.RDB1.conv1.bias : Float(32),
      %RRDB_trunk.8.RDB1.conv2.weight : Float(32, 96, 3, 3),
      %RRDB_trunk.8.RDB1.conv2.bias : Float(32),
      %RRDB_trunk.8.RDB1.conv3.weight : Float(32, 128, 3, 3),
      %RRDB_trunk.8.RDB1.conv3.bias : Float(32),
      %RRDB_trunk.8.RDB1.conv4.weight : Float(32, 160, 3, 3),
      %RRDB_trunk.8.RDB1.conv4.bias : Float(32),
      %RRDB_trunk.8.RDB1.conv5.weight : Float(64, 192, 3, 3),
      %RRDB_trunk.8.RDB1.conv5.bias : Float(64),
      %RRDB_trunk.8.RDB2.conv1.weight : Float(32, 64, 3, 3),
      %RRDB_trunk.8.RDB2.conv1.bias : Float(32),
      %RRDB_trunk.8.RDB2.conv2.weight : Float(32, 96, 3, 3),
      %RRDB_trunk.8.RDB2.conv2.bias : Float(32),
      %RRDB_trunk.8.RDB2.conv3.weight : Float(32, 128, 3, 3),
      %RRDB_trunk.8.RDB2.conv3.bias : Float(32),
      %RRDB_trunk.8.RDB2.conv4.weight : Float(32, 160, 3, 3),
      %RRDB_trunk.8.RDB2.conv4.bias : Float(32),
      %RRDB_trunk.8.RDB2.conv5.weight : Float(64, 192, 3, 3),
      %RRDB_trunk.8.RDB2.conv5.bias : Float(64),
      %RRDB_trunk.8.RDB3.conv1.weight : Float(32, 64, 3, 3),
      %RRDB_trunk.8.RDB3.conv1.bias : Float(32),
      %RRDB_trunk.8.RDB3.conv2.weight : Float(32, 96, 3, 3),
      %RRDB_trunk.8.RDB3.conv2.bias : Float(32),
      %RRDB_trunk.8.RDB3.conv3.weight : Float(32, 128, 3, 3),
      %RRDB_trunk.8.RDB3.conv3.bias : Float(32),
      %RRDB_trunk.8.RDB3.conv4.weight : Float(32, 160, 3, 3),
      %RRDB_trunk.8.RDB3.conv4.bias : Float(32),
      %RRDB_trunk.8.RDB3.conv5.weight : Float(64, 192, 3, 3),
      %RRDB_trunk.8.RDB3.conv5.bias : Float(64),
      %RRDB_trunk.9.RDB1.conv1.weight : Float(32, 64, 3, 3),
      %RRDB_trunk.9.RDB1.conv1.bias : Float(32),
      %RRDB_trunk.9.RDB1.conv2.weight : Float(32, 96, 3, 3),
      %RRDB_trunk.9.RDB1.conv2.bias : Float(32),
      %RRDB_trunk.9.RDB1.conv3.weight : Float(32, 128, 3, 3),
      %RRDB_trunk.9.RDB1.conv3.bias : Float(32),
      %RRDB_trunk.9.RDB1.conv4.weight : Float(32, 160, 3, 3),
      %RRDB_trunk.9.RDB1.conv4.bias : Float(32),
      %RRDB_trunk.9.RDB1.conv5.weight : Float(64, 192, 3, 3),
      %RRDB_trunk.9.RDB1.conv5.bias : Float(64),
      %RRDB_trunk.9.RDB2.conv1.weight : Float(32, 64, 3, 3),
      %RRDB_trunk.9.RDB2.conv1.bias : Float(32),
      %RRDB_trunk.9.RDB2.conv2.weight : Float(32, 96, 3, 3),
      %RRDB_trunk.9.RDB2.conv2.bias : Float(32),
      %RRDB_trunk.9.RDB2.conv3.weight : Float(32, 128, 3, 3),
      %RRDB_trunk.9.RDB2.conv3.bias : Float(32),
      %RRDB_trunk.9.RDB2.conv4.weight : Float(32, 160, 3, 3),
      %RRDB_trunk.9.RDB2.conv4.bias : Float(32),
      %RRDB_trunk.9.RDB2.conv5.weight : Float(64, 192, 3, 3),
      %RRDB_trunk.9.RDB2.conv5.bias : Float(64),
      %RRDB_trunk.9.RDB3.conv1.weight : Float(32, 64, 3, 3),
      %RRDB_trunk.9.RDB3.conv1.bias : Float(32),
      %RRDB_trunk.9.RDB3.conv2.weight : Float(32, 96, 3, 3),
      %RRDB_trunk.9.RDB3.conv2.bias : Float(32),
      %RRDB_trunk.9.RDB3.conv3.weight : Float(32, 128, 3, 3),
      %RRDB_trunk.9.RDB3.conv3.bias : Float(32),
      %RRDB_trunk.9.RDB3.conv4.weight : Float(32, 160, 3, 3),
      %RRDB_trunk.9.RDB3.conv4.bias : Float(32),
      %RRDB_trunk.9.RDB3.conv5.weight : Float(64, 192, 3, 3),
      %RRDB_trunk.9.RDB3.conv5.bias : Float(64),
      %RRDB_trunk.10.RDB1.conv1.weight : Float(32, 64, 3, 3),
      %RRDB_trunk.10.RDB1.conv1.bias : Float(32),
      %RRDB_trunk.10.RDB1.conv2.weight : Float(32, 96, 3, 3),
      %RRDB_trunk.10.RDB1.conv2.bias : Float(32),
      %RRDB_trunk.10.RDB1.conv3.weight : Float(32, 128, 3, 3),
      %RRDB_trunk.10.RDB1.conv3.bias : Float(32),
      %RRDB_trunk.10.RDB1.conv4.weight : Float(32, 160, 3, 3),
      %RRDB_trunk.10.RDB1.conv4.bias : Float(32),
      %RRDB_trunk.10.RDB1.conv5.weight : Float(64, 192, 3, 3),
      %RRDB_trunk.10.RDB1.conv5.bias : Float(64),
      %RRDB_trunk.10.RDB2.conv1.weight : Float(32, 64, 3, 3),
      %RRDB_trunk.10.RDB2.conv1.bias : Float(32),
      %RRDB_trunk.10.RDB2.conv2.weight : Float(32, 96, 3, 3),
      %RRDB_trunk.10.RDB2.conv2.bias : Float(32),
      %RRDB_trunk.10.RDB2.conv3.weight : Float(32, 128, 3, 3),
      %RRDB_trunk.10.RDB2.conv3.bias : Float(32),
      %RRDB_trunk.10.RDB2.conv4.weight : Float(32, 160, 3, 3),
      %RRDB_trunk.10.RDB2.conv4.bias : Float(32),
      %RRDB_trunk.10.RDB2.conv5.weight : Float(64, 192, 3, 3),
      %RRDB_trunk.10.RDB2.conv5.bias : Float(64),
      %RRDB_trunk.10.RDB3.conv1.weight : Float(32, 64, 3, 3),
      %RRDB_trunk.10.RDB3.conv1.bias : Float(32),
      %RRDB_trunk.10.RDB3.conv2.weight : Float(32, 96, 3, 3),
      %RRDB_trunk.10.RDB3.conv2.bias : Float(32),
      %RRDB_trunk.10.RDB3.conv3.weight : Float(32, 128, 3, 3),
      %RRDB_trunk.10.RDB3.conv3.bias : Float(32),
      %RRDB_trunk.10.RDB3.conv4.weight : Float(32, 160, 3, 3),
      %RRDB_trunk.10.RDB3.conv4.bias : Float(32),
      %RRDB_trunk.10.RDB3.conv5.weight : Float(64, 192, 3, 3),
      %RRDB_trunk.10.RDB3.conv5.bias : Float(64),
      %RRDB_trunk.11.RDB1.conv1.weight : Float(32, 64, 3, 3),
      %RRDB_trunk.11.RDB1.conv1.bias : Float(32),
      %RRDB_trunk.11.RDB1.conv2.weight : Float(32, 96, 3, 3),
      %RRDB_trunk.11.RDB1.conv2.bias : Float(32),
      %RRDB_trunk.11.RDB1.conv3.weight : Float(32, 128, 3, 3),
      %RRDB_trunk.11.RDB1.conv3.bias : Float(32),
      %RRDB_trunk.11.RDB1.conv4.weight : Float(32, 160, 3, 3),
      %RRDB_trunk.11.RDB1.conv4.bias : Float(32),
      %RRDB_trunk.11.RDB1.conv5.weight : Float(64, 192, 3, 3),
      %RRDB_trunk.11.RDB1.conv5.bias : Float(64),
      %RRDB_trunk.11.RDB2.conv1.weight : Float(32, 64, 3, 3),
      %RRDB_trunk.11.RDB2.conv1.bias : Float(32),
      %RRDB_trunk.11.RDB2.conv2.weight : Float(32, 96, 3, 3),
      %RRDB_trunk.11.RDB2.conv2.bias : Float(32),
      %RRDB_trunk.11.RDB2.conv3.weight : Float(32, 128, 3, 3),
      %RRDB_trunk.11.RDB2.conv3.bias : Float(32),
      %RRDB_trunk.11.RDB2.conv4.weight : Float(32, 160, 3, 3),
      %RRDB_trunk.11.RDB2.conv4.bias : Float(32),
      %RRDB_trunk.11.RDB2.conv5.weight : Float(64, 192, 3, 3),
      %RRDB_trunk.11.RDB2.conv5.bias : Float(64),
      %RRDB_trunk.11.RDB3.conv1.weight : Float(32, 64, 3, 3),
      %RRDB_trunk.11.RDB3.conv1.bias : Float(32),
      %RRDB_trunk.11.RDB3.conv2.weight : Float(32, 96, 3, 3),
      %RRDB_trunk.11.RDB3.conv2.bias : Float(32),
      %RRDB_trunk.11.RDB3.conv3.weight : Float(32, 128, 3, 3),
      %RRDB_trunk.11.RDB3.conv3.bias : Float(32),
      %RRDB_trunk.11.RDB3.conv4.weight : Float(32, 160, 3, 3),
      %RRDB_trunk.11.RDB3.conv4.bias : Float(32),
      %RRDB_trunk.11.RDB3.conv5.weight : Float(64, 192, 3, 3),
      %RRDB_trunk.11.RDB3.conv5.bias : Float(64),
      %RRDB_trunk.12.RDB1.conv1.weight : Float(32, 64, 3, 3),
      %RRDB_trunk.12.RDB1.conv1.bias : Float(32),
      %RRDB_trunk.12.RDB1.conv2.weight : Float(32, 96, 3, 3),
      %RRDB_trunk.12.RDB1.conv2.bias : Float(32),
      %RRDB_trunk.12.RDB1.conv3.weight : Float(32, 128, 3, 3),
      %RRDB_trunk.12.RDB1.conv3.bias : Float(32),
      %RRDB_trunk.12.RDB1.conv4.weight : Float(32, 160, 3, 3),
      %RRDB_trunk.12.RDB1.conv4.bias : Float(32),
      %RRDB_trunk.12.RDB1.conv5.weight : Float(64, 192, 3, 3),
      %RRDB_trunk.12.RDB1.conv5.bias : Float(64),
      %RRDB_trunk.12.RDB2.conv1.weight : Float(32, 64, 3, 3),
      %RRDB_trunk.12.RDB2.conv1.bias : Float(32),
      %RRDB_trunk.12.RDB2.conv2.weight : Float(32, 96, 3, 3),
      %RRDB_trunk.12.RDB2.conv2.bias : Float(32),
      %RRDB_trunk.12.RDB2.conv3.weight : Float(32, 128, 3, 3),
      %RRDB_trunk.12.RDB2.conv3.bias : Float(32),
      %RRDB_trunk.12.RDB2.conv4.weight : Float(32, 160, 3, 3),
      %RRDB_trunk.12.RDB2.conv4.bias : Float(32),
      %RRDB_trunk.12.RDB2.conv5.weight : Float(64, 192, 3, 3),
      %RRDB_trunk.12.RDB2.conv5.bias : Float(64),
      %RRDB_trunk.12.RDB3.conv1.weight : Float(32, 64, 3, 3),
      %RRDB_trunk.12.RDB3.conv1.bias : Float(32),
      %RRDB_trunk.12.RDB3.conv2.weight : Float(32, 96, 3, 3),
      %RRDB_trunk.12.RDB3.conv2.bias : Float(32),
      %RRDB_trunk.12.RDB3.conv3.weight : Float(32, 128, 3, 3),
      %RRDB_trunk.12.RDB3.conv3.bias : Float(32),
      %RRDB_trunk.12.RDB3.conv4.weight : Float(32, 160, 3, 3),
      %RRDB_trunk.12.RDB3.conv4.bias : Float(32),
      %RRDB_trunk.12.RDB3.conv5.weight : Float(64, 192, 3, 3),
      %RRDB_trunk.12.RDB3.conv5.bias : Float(64),
      %RRDB_trunk.13.RDB1.conv1.weight : Float(32, 64, 3, 3),
      %RRDB_trunk.13.RDB1.conv1.bias : Float(32),
      %RRDB_trunk.13.RDB1.conv2.weight : Float(32, 96, 3, 3),
      %RRDB_trunk.13.RDB1.conv2.bias : Float(32),
      %RRDB_trunk.13.RDB1.conv3.weight : Float(32, 128, 3, 3),
      %RRDB_trunk.13.RDB1.conv3.bias : Float(32),
      %RRDB_trunk.13.RDB1.conv4.weight : Float(32, 160, 3, 3),
      %RRDB_trunk.13.RDB1.conv4.bias : Float(32),
      %RRDB_trunk.13.RDB1.conv5.weight : Float(64, 192, 3, 3),
      %RRDB_trunk.13.RDB1.conv5.bias : Float(64),
      %RRDB_trunk.13.RDB2.conv1.weight : Float(32, 64, 3, 3),
      %RRDB_trunk.13.RDB2.conv1.bias : Float(32),
      %RRDB_trunk.13.RDB2.conv2.weight : Float(32, 96, 3, 3),
      %RRDB_trunk.13.RDB2.conv2.bias : Float(32),
      %RRDB_trunk.13.RDB2.conv3.weight : Float(32, 128, 3, 3),
      %RRDB_trunk.13.RDB2.conv3.bias : Float(32),
      %RRDB_trunk.13.RDB2.conv4.weight : Float(32, 160, 3, 3),
      %RRDB_trunk.13.RDB2.conv4.bias : Float(32),
      %RRDB_trunk.13.RDB2.conv5.weight : Float(64, 192, 3, 3),
      %RRDB_trunk.13.RDB2.conv5.bias : Float(64),
      %RRDB_trunk.13.RDB3.conv1.weight : Float(32, 64, 3, 3),
      %RRDB_trunk.13.RDB3.conv1.bias : Float(32),
      %RRDB_trunk.13.RDB3.conv2.weight : Float(32, 96, 3, 3),
      %RRDB_trunk.13.RDB3.conv2.bias : Float(32),
      %RRDB_trunk.13.RDB3.conv3.weight : Float(32, 128, 3, 3),
      %RRDB_trunk.13.RDB3.conv3.bias : Float(32),
      %RRDB_trunk.13.RDB3.conv4.weight : Float(32, 160, 3, 3),
      %RRDB_trunk.13.RDB3.conv4.bias : Float(32),
      %RRDB_trunk.13.RDB3.conv5.weight : Float(64, 192, 3, 3),
      %RRDB_trunk.13.RDB3.conv5.bias : Float(64),
      %RRDB_trunk.14.RDB1.conv1.weight : Float(32, 64, 3, 3),
      %RRDB_trunk.14.RDB1.conv1.bias : Float(32),
      %RRDB_trunk.14.RDB1.conv2.weight : Float(32, 96, 3, 3),
      %RRDB_trunk.14.RDB1.conv2.bias : Float(32),
      %RRDB_trunk.14.RDB1.conv3.weight : Float(32, 128, 3, 3),
      %RRDB_trunk.14.RDB1.conv3.bias : Float(32),
      %RRDB_trunk.14.RDB1.conv4.weight : Float(32, 160, 3, 3),
      %RRDB_trunk.14.RDB1.conv4.bias : Float(32),
      %RRDB_trunk.14.RDB1.conv5.weight : Float(64, 192, 3, 3),
      %RRDB_trunk.14.RDB1.conv5.bias : Float(64),
      %RRDB_trunk.14.RDB2.conv1.weight : Float(32, 64, 3, 3),
      %RRDB_trunk.14.RDB2.conv1.bias : Float(32),
      %RRDB_trunk.14.RDB2.conv2.weight : Float(32, 96, 3, 3),
      %RRDB_trunk.14.RDB2.conv2.bias : Float(32),
      %RRDB_trunk.14.RDB2.conv3.weight : Float(32, 128, 3, 3),
      %RRDB_trunk.14.RDB2.conv3.bias : Float(32),
      %RRDB_trunk.14.RDB2.conv4.weight : Float(32, 160, 3, 3),
      %RRDB_trunk.14.RDB2.conv4.bias : Float(32),
      %RRDB_trunk.14.RDB2.conv5.weight : Float(64, 192, 3, 3),
      %RRDB_trunk.14.RDB2.conv5.bias : Float(64),
      %RRDB_trunk.14.RDB3.conv1.weight : Float(32, 64, 3, 3),
      %RRDB_trunk.14.RDB3.conv1.bias : Float(32),
      %RRDB_trunk.14.RDB3.conv2.weight : Float(32, 96, 3, 3),
      %RRDB_trunk.14.RDB3.conv2.bias : Float(32),
      %RRDB_trunk.14.RDB3.conv3.weight : Float(32, 128, 3, 3),
      %RRDB_trunk.14.RDB3.conv3.bias : Float(32),
      %RRDB_trunk.14.RDB3.conv4.weight : Float(32, 160, 3, 3),
      %RRDB_trunk.14.RDB3.conv4.bias : Float(32),
      %RRDB_trunk.14.RDB3.conv5.weight : Float(64, 192, 3, 3),
      %RRDB_trunk.14.RDB3.conv5.bias : Float(64),
      %RRDB_trunk.15.RDB1.conv1.weight : Float(32, 64, 3, 3),
      %RRDB_trunk.15.RDB1.conv1.bias : Float(32),
      %RRDB_trunk.15.RDB1.conv2.weight : Float(32, 96, 3, 3),
      %RRDB_trunk.15.RDB1.conv2.bias : Float(32),
      %RRDB_trunk.15.RDB1.conv3.weight : Float(32, 128, 3, 3),
      %RRDB_trunk.15.RDB1.conv3.bias : Float(32),
      %RRDB_trunk.15.RDB1.conv4.weight : Float(32, 160, 3, 3),
      %RRDB_trunk.15.RDB1.conv4.bias : Float(32),
      %RRDB_trunk.15.RDB1.conv5.weight : Float(64, 192, 3, 3),
      %RRDB_trunk.15.RDB1.conv5.bias : Float(64),
      %RRDB_trunk.15.RDB2.conv1.weight : Float(32, 64, 3, 3),
      %RRDB_trunk.15.RDB2.conv1.bias : Float(32),
      %RRDB_trunk.15.RDB2.conv2.weight : Float(32, 96, 3, 3),
      %RRDB_trunk.15.RDB2.conv2.bias : Float(32),
      %RRDB_trunk.15.RDB2.conv3.weight : Float(32, 128, 3, 3),
      %RRDB_trunk.15.RDB2.conv3.bias : Float(32),
      %RRDB_trunk.15.RDB2.conv4.weight : Float(32, 160, 3, 3),
      %RRDB_trunk.15.RDB2.conv4.bias : Float(32),
      %RRDB_trunk.15.RDB2.conv5.weight : Float(64, 192, 3, 3),
      %RRDB_trunk.15.RDB2.conv5.bias : Float(64),
      %RRDB_trunk.15.RDB3.conv1.weight : Float(32, 64, 3, 3),
      %RRDB_trunk.15.RDB3.conv1.bias : Float(32),
      %RRDB_trunk.15.RDB3.conv2.weight : Float(32, 96, 3, 3),
      %RRDB_trunk.15.RDB3.conv2.bias : Float(32),
      %RRDB_trunk.15.RDB3.conv3.weight : Float(32, 128, 3, 3),
      %RRDB_trunk.15.RDB3.conv3.bias : Float(32),
      %RRDB_trunk.15.RDB3.conv4.weight : Float(32, 160, 3, 3),
      %RRDB_trunk.15.RDB3.conv4.bias : Float(32),
      %RRDB_trunk.15.RDB3.conv5.weight : Float(64, 192, 3, 3),
      %RRDB_trunk.15.RDB3.conv5.bias : Float(64),
      %RRDB_trunk.16.RDB1.conv1.weight : Float(32, 64, 3, 3),
      %RRDB_trunk.16.RDB1.conv1.bias : Float(32),
      %RRDB_trunk.16.RDB1.conv2.weight : Float(32, 96, 3, 3),
      %RRDB_trunk.16.RDB1.conv2.bias : Float(32),
      %RRDB_trunk.16.RDB1.conv3.weight : Float(32, 128, 3, 3),
      %RRDB_trunk.16.RDB1.conv3.bias : Float(32),
      %RRDB_trunk.16.RDB1.conv4.weight : Float(32, 160, 3, 3),
      %RRDB_trunk.16.RDB1.conv4.bias : Float(32),
      %RRDB_trunk.16.RDB1.conv5.weight : Float(64, 192, 3, 3),
      %RRDB_trunk.16.RDB1.conv5.bias : Float(64),
      %RRDB_trunk.16.RDB2.conv1.weight : Float(32, 64, 3, 3),
      %RRDB_trunk.16.RDB2.conv1.bias : Float(32),
      %RRDB_trunk.16.RDB2.conv2.weight : Float(32, 96, 3, 3),
      %RRDB_trunk.16.RDB2.conv2.bias : Float(32),
      %RRDB_trunk.16.RDB2.conv3.weight : Float(32, 128, 3, 3),
      %RRDB_trunk.16.RDB2.conv3.bias : Float(32),
      %RRDB_trunk.16.RDB2.conv4.weight : Float(32, 160, 3, 3),
      %RRDB_trunk.16.RDB2.conv4.bias : Float(32),
      %RRDB_trunk.16.RDB2.conv5.weight : Float(64, 192, 3, 3),
      %RRDB_trunk.16.RDB2.conv5.bias : Float(64),
      %RRDB_trunk.16.RDB3.conv1.weight : Float(32, 64, 3, 3),
      %RRDB_trunk.16.RDB3.conv1.bias : Float(32),
      %RRDB_trunk.16.RDB3.conv2.weight : Float(32, 96, 3, 3),
      %RRDB_trunk.16.RDB3.conv2.bias : Float(32),
      %RRDB_trunk.16.RDB3.conv3.weight : Float(32, 128, 3, 3),
      %RRDB_trunk.16.RDB3.conv3.bias : Float(32),
      %RRDB_trunk.16.RDB3.conv4.weight : Float(32, 160, 3, 3),
      %RRDB_trunk.16.RDB3.conv4.bias : Float(32),
      %RRDB_trunk.16.RDB3.conv5.weight : Float(64, 192, 3, 3),
      %RRDB_trunk.16.RDB3.conv5.bias : Float(64),
      %RRDB_trunk.17.RDB1.conv1.weight : Float(32, 64, 3, 3),
      %RRDB_trunk.17.RDB1.conv1.bias : Float(32),
      %RRDB_trunk.17.RDB1.conv2.weight : Float(32, 96, 3, 3),
      %RRDB_trunk.17.RDB1.conv2.bias : Float(32),
      %RRDB_trunk.17.RDB1.conv3.weight : Float(32, 128, 3, 3),
      %RRDB_trunk.17.RDB1.conv3.bias : Float(32),
      %RRDB_trunk.17.RDB1.conv4.weight : Float(32, 160, 3, 3),
      %RRDB_trunk.17.RDB1.conv4.bias : Float(32),
      %RRDB_trunk.17.RDB1.conv5.weight : Float(64, 192, 3, 3),
      %RRDB_trunk.17.RDB1.conv5.bias : Float(64),
      %RRDB_trunk.17.RDB2.conv1.weight : Float(32, 64, 3, 3),
      %RRDB_trunk.17.RDB2.conv1.bias : Float(32),
      %RRDB_trunk.17.RDB2.conv2.weight : Float(32, 96, 3, 3),
      %RRDB_trunk.17.RDB2.conv2.bias : Float(32),
      %RRDB_trunk.17.RDB2.conv3.weight : Float(32, 128, 3, 3),
      %RRDB_trunk.17.RDB2.conv3.bias : Float(32),
      %RRDB_trunk.17.RDB2.conv4.weight : Float(32, 160, 3, 3),
      %RRDB_trunk.17.RDB2.conv4.bias : Float(32),
      %RRDB_trunk.17.RDB2.conv5.weight : Float(64, 192, 3, 3),
      %RRDB_trunk.17.RDB2.conv5.bias : Float(64),
      %RRDB_trunk.17.RDB3.conv1.weight : Float(32, 64, 3, 3),
      %RRDB_trunk.17.RDB3.conv1.bias : Float(32),
      %RRDB_trunk.17.RDB3.conv2.weight : Float(32, 96, 3, 3),
      %RRDB_trunk.17.RDB3.conv2.bias : Float(32),
      %RRDB_trunk.17.RDB3.conv3.weight : Float(32, 128, 3, 3),
      %RRDB_trunk.17.RDB3.conv3.bias : Float(32),
      %RRDB_trunk.17.RDB3.conv4.weight : Float(32, 160, 3, 3),
      %RRDB_trunk.17.RDB3.conv4.bias : Float(32),
      %RRDB_trunk.17.RDB3.conv5.weight : Float(64, 192, 3, 3),
      %RRDB_trunk.17.RDB3.conv5.bias : Float(64),
      %RRDB_trunk.18.RDB1.conv1.weight : Float(32, 64, 3, 3),
      %RRDB_trunk.18.RDB1.conv1.bias : Float(32),
      %RRDB_trunk.18.RDB1.conv2.weight : Float(32, 96, 3, 3),
      %RRDB_trunk.18.RDB1.conv2.bias : Float(32),
      %RRDB_trunk.18.RDB1.conv3.weight : Float(32, 128, 3, 3),
      %RRDB_trunk.18.RDB1.conv3.bias : Float(32),
      %RRDB_trunk.18.RDB1.conv4.weight : Float(32, 160, 3, 3),
      %RRDB_trunk.18.RDB1.conv4.bias : Float(32),
      %RRDB_trunk.18.RDB1.conv5.weight : Float(64, 192, 3, 3),
      %RRDB_trunk.18.RDB1.conv5.bias : Float(64),
      %RRDB_trunk.18.RDB2.conv1.weight : Float(32, 64, 3, 3),
      %RRDB_trunk.18.RDB2.conv1.bias : Float(32),
      %RRDB_trunk.18.RDB2.conv2.weight : Float(32, 96, 3, 3),
      %RRDB_trunk.18.RDB2.conv2.bias : Float(32),
      %RRDB_trunk.18.RDB2.conv3.weight : Float(32, 128, 3, 3),
      %RRDB_trunk.18.RDB2.conv3.bias : Float(32),
      %RRDB_trunk.18.RDB2.conv4.weight : Float(32, 160, 3, 3),
      %RRDB_trunk.18.RDB2.conv4.bias : Float(32),
      %RRDB_trunk.18.RDB2.conv5.weight : Float(64, 192, 3, 3),
      %RRDB_trunk.18.RDB2.conv5.bias : Float(64),
      %RRDB_trunk.18.RDB3.conv1.weight : Float(32, 64, 3, 3),
      %RRDB_trunk.18.RDB3.conv1.bias : Float(32),
      %RRDB_trunk.18.RDB3.conv2.weight : Float(32, 96, 3, 3),
      %RRDB_trunk.18.RDB3.conv2.bias : Float(32),
      %RRDB_trunk.18.RDB3.conv3.weight : Float(32, 128, 3, 3),
      %RRDB_trunk.18.RDB3.conv3.bias : Float(32),
      %RRDB_trunk.18.RDB3.conv4.weight : Float(32, 160, 3, 3),
      %RRDB_trunk.18.RDB3.conv4.bias : Float(32),
      %RRDB_trunk.18.RDB3.conv5.weight : Float(64, 192, 3, 3),
      %RRDB_trunk.18.RDB3.conv5.bias : Float(64),
      %RRDB_trunk.19.RDB1.conv1.weight : Float(32, 64, 3, 3),
      %RRDB_trunk.19.RDB1.conv1.bias : Float(32),
      %RRDB_trunk.19.RDB1.conv2.weight : Float(32, 96, 3, 3),
      %RRDB_trunk.19.RDB1.conv2.bias : Float(32),
      %RRDB_trunk.19.RDB1.conv3.weight : Float(32, 128, 3, 3),
      %RRDB_trunk.19.RDB1.conv3.bias : Float(32),
      %RRDB_trunk.19.RDB1.conv4.weight : Float(32, 160, 3, 3),
      %RRDB_trunk.19.RDB1.conv4.bias : Float(32),
      %RRDB_trunk.19.RDB1.conv5.weight : Float(64, 192, 3, 3),
      %RRDB_trunk.19.RDB1.conv5.bias : Float(64),
      %RRDB_trunk.19.RDB2.conv1.weight : Float(32, 64, 3, 3),
      %RRDB_trunk.19.RDB2.conv1.bias : Float(32),
      %RRDB_trunk.19.RDB2.conv2.weight : Float(32, 96, 3, 3),
      %RRDB_trunk.19.RDB2.conv2.bias : Float(32),
      %RRDB_trunk.19.RDB2.conv3.weight : Float(32, 128, 3, 3),
      %RRDB_trunk.19.RDB2.conv3.bias : Float(32),
      %RRDB_trunk.19.RDB2.conv4.weight : Float(32, 160, 3, 3),
      %RRDB_trunk.19.RDB2.conv4.bias : Float(32),
      %RRDB_trunk.19.RDB2.conv5.weight : Float(64, 192, 3, 3),
      %RRDB_trunk.19.RDB2.conv5.bias : Float(64),
      %RRDB_trunk.19.RDB3.conv1.weight : Float(32, 64, 3, 3),
      %RRDB_trunk.19.RDB3.conv1.bias : Float(32),
      %RRDB_trunk.19.RDB3.conv2.weight : Float(32, 96, 3, 3),
      %RRDB_trunk.19.RDB3.conv2.bias : Float(32),
      %RRDB_trunk.19.RDB3.conv3.weight : Float(32, 128, 3, 3),
      %RRDB_trunk.19.RDB3.conv3.bias : Float(32),
      %RRDB_trunk.19.RDB3.conv4.weight : Float(32, 160, 3, 3),
      %RRDB_trunk.19.RDB3.conv4.bias : Float(32),
      %RRDB_trunk.19.RDB3.conv5.weight : Float(64, 192, 3, 3),
      %RRDB_trunk.19.RDB3.conv5.bias : Float(64),
      %RRDB_trunk.20.RDB1.conv1.weight : Float(32, 64, 3, 3),
      %RRDB_trunk.20.RDB1.conv1.bias : Float(32),
      %RRDB_trunk.20.RDB1.conv2.weight : Float(32, 96, 3, 3),
      %RRDB_trunk.20.RDB1.conv2.bias : Float(32),
      %RRDB_trunk.20.RDB1.conv3.weight : Float(32, 128, 3, 3),
      %RRDB_trunk.20.RDB1.conv3.bias : Float(32),
      %RRDB_trunk.20.RDB1.conv4.weight : Float(32, 160, 3, 3),
      %RRDB_trunk.20.RDB1.conv4.bias : Float(32),
      %RRDB_trunk.20.RDB1.conv5.weight : Float(64, 192, 3, 3),
      %RRDB_trunk.20.RDB1.conv5.bias : Float(64),
      %RRDB_trunk.20.RDB2.conv1.weight : Float(32, 64, 3, 3),
      %RRDB_trunk.20.RDB2.conv1.bias : Float(32),
      %RRDB_trunk.20.RDB2.conv2.weight : Float(32, 96, 3, 3),
      %RRDB_trunk.20.RDB2.conv2.bias : Float(32),
      %RRDB_trunk.20.RDB2.conv3.weight : Float(32, 128, 3, 3),
      %RRDB_trunk.20.RDB2.conv3.bias : Float(32),
      %RRDB_trunk.20.RDB2.conv4.weight : Float(32, 160, 3, 3),
      %RRDB_trunk.20.RDB2.conv4.bias : Float(32),
      %RRDB_trunk.20.RDB2.conv5.weight : Float(64, 192, 3, 3),
      %RRDB_trunk.20.RDB2.conv5.bias : Float(64),
      %RRDB_trunk.20.RDB3.conv1.weight : Float(32, 64, 3, 3),
      %RRDB_trunk.20.RDB3.conv1.bias : Float(32),
      %RRDB_trunk.20.RDB3.conv2.weight : Float(32, 96, 3, 3),
      %RRDB_trunk.20.RDB3.conv2.bias : Float(32),
      %RRDB_trunk.20.RDB3.conv3.weight : Float(32, 128, 3, 3),
      %RRDB_trunk.20.RDB3.conv3.bias : Float(32),
      %RRDB_trunk.20.RDB3.conv4.weight : Float(32, 160, 3, 3),
      %RRDB_trunk.20.RDB3.conv4.bias : Float(32),
      %RRDB_trunk.20.RDB3.conv5.weight : Float(64, 192, 3, 3),
      %RRDB_trunk.20.RDB3.conv5.bias : Float(64),
      %RRDB_trunk.21.RDB1.conv1.weight : Float(32, 64, 3, 3),
      %RRDB_trunk.21.RDB1.conv1.bias : Float(32),
      %RRDB_trunk.21.RDB1.conv2.weight : Float(32, 96, 3, 3),
      %RRDB_trunk.21.RDB1.conv2.bias : Float(32),
      %RRDB_trunk.21.RDB1.conv3.weight : Float(32, 128, 3, 3),
      %RRDB_trunk.21.RDB1.conv3.bias : Float(32),
      %RRDB_trunk.21.RDB1.conv4.weight : Float(32, 160, 3, 3),
      %RRDB_trunk.21.RDB1.conv4.bias : Float(32),
      %RRDB_trunk.21.RDB1.conv5.weight : Float(64, 192, 3, 3),
      %RRDB_trunk.21.RDB1.conv5.bias : Float(64),
      %RRDB_trunk.21.RDB2.conv1.weight : Float(32, 64, 3, 3),
      %RRDB_trunk.21.RDB2.conv1.bias : Float(32),
      %RRDB_trunk.21.RDB2.conv2.weight : Float(32, 96, 3, 3),
      %RRDB_trunk.21.RDB2.conv2.bias : Float(32),
      %RRDB_trunk.21.RDB2.conv3.weight : Float(32, 128, 3, 3),
      %RRDB_trunk.21.RDB2.conv3.bias : Float(32),
      %RRDB_trunk.21.RDB2.conv4.weight : Float(32, 160, 3, 3),
      %RRDB_trunk.21.RDB2.conv4.bias : Float(32),
      %RRDB_trunk.21.RDB2.conv5.weight : Float(64, 192, 3, 3),
      %RRDB_trunk.21.RDB2.conv5.bias : Float(64),
      %RRDB_trunk.21.RDB3.conv1.weight : Float(32, 64, 3, 3),
      %RRDB_trunk.21.RDB3.conv1.bias : Float(32),
      %RRDB_trunk.21.RDB3.conv2.weight : Float(32, 96, 3, 3),
      %RRDB_trunk.21.RDB3.conv2.bias : Float(32),
      %RRDB_trunk.21.RDB3.conv3.weight : Float(32, 128, 3, 3),
      %RRDB_trunk.21.RDB3.conv3.bias : Float(32),
      %RRDB_trunk.21.RDB3.conv4.weight : Float(32, 160, 3, 3),
      %RRDB_trunk.21.RDB3.conv4.bias : Float(32),
      %RRDB_trunk.21.RDB3.conv5.weight : Float(64, 192, 3, 3),
      %RRDB_trunk.21.RDB3.conv5.bias : Float(64),
      %RRDB_trunk.22.RDB1.conv1.weight : Float(32, 64, 3, 3),
      %RRDB_trunk.22.RDB1.conv1.bias : Float(32),
      %RRDB_trunk.22.RDB1.conv2.weight : Float(32, 96, 3, 3),
      %RRDB_trunk.22.RDB1.conv2.bias : Float(32),
      %RRDB_trunk.22.RDB1.conv3.weight : Float(32, 128, 3, 3),
      %RRDB_trunk.22.RDB1.conv3.bias : Float(32),
      %RRDB_trunk.22.RDB1.conv4.weight : Float(32, 160, 3, 3),
      %RRDB_trunk.22.RDB1.conv4.bias : Float(32),
      %RRDB_trunk.22.RDB1.conv5.weight : Float(64, 192, 3, 3),
      %RRDB_trunk.22.RDB1.conv5.bias : Float(64),
      %RRDB_trunk.22.RDB2.conv1.weight : Float(32, 64, 3, 3),
      %RRDB_trunk.22.RDB2.conv1.bias : Float(32),
      %RRDB_trunk.22.RDB2.conv2.weight : Float(32, 96, 3, 3),
      %RRDB_trunk.22.RDB2.conv2.bias : Float(32),
      %RRDB_trunk.22.RDB2.conv3.weight : Float(32, 128, 3, 3),
      %RRDB_trunk.22.RDB2.conv3.bias : Float(32),
      %RRDB_trunk.22.RDB2.conv4.weight : Float(32, 160, 3, 3),
      %RRDB_trunk.22.RDB2.conv4.bias : Float(32),
      %RRDB_trunk.22.RDB2.conv5.weight : Float(64, 192, 3, 3),
      %RRDB_trunk.22.RDB2.conv5.bias : Float(64),
      %RRDB_trunk.22.RDB3.conv1.weight : Float(32, 64, 3, 3),
      %RRDB_trunk.22.RDB3.conv1.bias : Float(32),
      %RRDB_trunk.22.RDB3.conv2.weight : Float(32, 96, 3, 3),
      %RRDB_trunk.22.RDB3.conv2.bias : Float(32),
      %RRDB_trunk.22.RDB3.conv3.weight : Float(32, 128, 3, 3),
      %RRDB_trunk.22.RDB3.conv3.bias : Float(32),
      %RRDB_trunk.22.RDB3.conv4.weight : Float(32, 160, 3, 3),
      %RRDB_trunk.22.RDB3.conv4.bias : Float(32),
      %RRDB_trunk.22.RDB3.conv5.weight : Float(64, 192, 3, 3),
      %RRDB_trunk.22.RDB3.conv5.bias : Float(64),
      %trunk_conv.weight : Float(64, 64, 3, 3),
      %trunk_conv.bias : Float(64),
      %upconv1.weight : Float(64, 64, 3, 3),
      %upconv1.bias : Float(64),
      %upconv2.weight : Float(64, 64, 3, 3),
      %upconv2.bias : Float(64),
      %HRconv.weight : Float(64, 64, 3, 3),
      %HRconv.bias : Float(64),
      %conv_last.weight : Float(3, 64, 3, 3),
      %conv_last.bias : Float(3)):
  %703 : Float(1, 64, 256, 256) = onnx::Conv[dilations=[1, 1], group=1, kernel_shape=[3, 3], pads=[1, 1, 1, 1], strides=[1, 1]](%input1, %conv_first.weight, %conv_first.bias), scope: RRDBNet/Conv2d[conv_first]
  %704 : Float(1, 32, 256, 256) = onnx::Conv[dilations=[1, 1], group=1, kernel_shape=[3, 3], pads=[1, 1, 1, 1], strides=[1, 1]](%703, %RRDB_trunk.0.RDB1.conv1.weight, %RRDB_trunk.0.RDB1.conv1.bias), scope: RRDBNet/Sequential[RRDB_trunk]/RRDB[0]/ResidualDenseBlock_5C[RDB1]/Conv2d[conv1]
  %705 : Float(1, 32, 256, 256) = onnx::LeakyRelu[alpha=0.2](%704), scope: RRDBNet/Sequential[RRDB_trunk]/RRDB[0]/ResidualDenseBlock_5C[RDB1]/LeakyReLU[lrelu]
  %706 : Float(1, 96, 256, 256) = onnx::Concat[axis=1](%703, %705), scope: RRDBNet/Sequential[RRDB_trunk]/RRDB[0]/ResidualDenseBlock_5C[RDB1]
  %707 : Float(1, 32, 256, 256) = onnx::Conv[dilations=[1, 1], group=1, kernel_shape=[3, 3], pads=[1, 1, 1, 1], strides=[1, 1]](%706, %RRDB_trunk.0.RDB1.conv2.weight, %RRDB_trunk.0.RDB1.conv2.bias), scope: RRDBNet/Sequential[RRDB_trunk]/RRDB[0]/ResidualDenseBlock_5C[RDB1]/Conv2d[conv2]
  %708 : Float(1, 32, 256, 256) = onnx::LeakyRelu[alpha=0.2](%707), scope: RRDBNet/Sequential[RRDB_trunk]/RRDB[0]/ResidualDenseBlock_5C[RDB1]/LeakyReLU[lrelu]
  %709 : Float(1, 128, 256, 256) = onnx::Concat[axis=1](%703, %705, %708), scope: RRDBNet/Sequential[RRDB_trunk]/RRDB[0]/ResidualDenseBlock_5C[RDB1]
  %710 : Float(1, 32, 256, 256) = onnx::Conv[dilations=[1, 1], group=1, kernel_shape=[3, 3], pads=[1, 1, 1, 1], strides=[1, 1]](%709, %RRDB_trunk.0.RDB1.conv3.weight, %RRDB_trunk.0.RDB1.conv3.bias), scope: RRDBNet/Sequential[RRDB_trunk]/RRDB[0]/ResidualDenseBlock_5C[RDB1]/Conv2d[conv3]
  %711 : Float(1, 32, 256, 256) = onnx::LeakyRelu[alpha=0.2](%710), scope: RRDBNet/Sequential[RRDB_trunk]/RRDB[0]/ResidualDenseBlock_5C[RDB1]/LeakyReLU[lrelu]
  %712 : Float(1, 160, 256, 256) = onnx::Concat[axis=1](%703, %705, %708, %711), scope: RRDBNet/Sequential[RRDB_trunk]/RRDB[0]/ResidualDenseBlock_5C[RDB1]
  %713 : Float(1, 32, 256, 256) = onnx::Conv[dilations=[1, 1], group=1, kernel_shape=[3, 3], pads=[1, 1, 1, 1], strides=[1, 1]](%712, %RRDB_trunk.0.RDB1.conv4.weight, %RRDB_trunk.0.RDB1.conv4.bias), scope: RRDBNet/Sequential[RRDB_trunk]/RRDB[0]/ResidualDenseBlock_5C[RDB1]/Conv2d[conv4]
  %714 : Float(1, 32, 256, 256) = onnx::LeakyRelu[alpha=0.2](%713), scope: RRDBNet/Sequential[RRDB_trunk]/RRDB[0]/ResidualDenseBlock_5C[RDB1]/LeakyReLU[lrelu]
  %715 : Float(1, 192, 256, 256) = onnx::Concat[axis=1](%703, %705, %708, %711, %714), scope: RRDBNet/Sequential[RRDB_trunk]/RRDB[0]/ResidualDenseBlock_5C[RDB1]
  %716 : Float(1, 64, 256, 256) = onnx::Conv[dilations=[1, 1], group=1, kernel_shape=[3, 3], pads=[1, 1, 1, 1], strides=[1, 1]](%715, %RRDB_trunk.0.RDB1.conv5.weight, %RRDB_trunk.0.RDB1.conv5.bias), scope: RRDBNet/Sequential[RRDB_trunk]/RRDB[0]/ResidualDenseBlock_5C[RDB1]/Conv2d[conv5]
  %717 : Tensor = onnx::Constant[value={0.2}]()
  %718 : Tensor = onnx::Mul(%716, %717)
  %719 : Float(1, 64, 256, 256) = onnx::Add(%718, %703), scope: RRDBNet/Sequential[RRDB_trunk]/RRDB[0]/ResidualDenseBlock_5C[RDB1]
  %720 : Float(1, 32, 256, 256) = onnx::Conv[dilations=[1, 1], group=1, kernel_shape=[3, 3], pads=[1, 1, 1, 1], strides=[1, 1]](%719, %RRDB_trunk.0.RDB2.conv1.weight, %RRDB_trunk.0.RDB2.conv1.bias), scope: RRDBNet/Sequential[RRDB_trunk]/RRDB[0]/ResidualDenseBlock_5C[RDB2]/Conv2d[conv1]
  %721 : Float(1, 32, 256, 256) = onnx::LeakyRelu[alpha=0.2](%720), scope: RRDBNet/Sequential[RRDB_trunk]/RRDB[0]/ResidualDenseBlock_5C[RDB2]/LeakyReLU[lrelu]
  %722 : Float(1, 96, 256, 256) = onnx::Concat[axis=1](%719, %721), scope: RRDBNet/Sequential[RRDB_trunk]/RRDB[0]/ResidualDenseBlock_5C[RDB2]
  %723 : Float(1, 32, 256, 256) = onnx::Conv[dilations=[1, 1], group=1, kernel_shape=[3, 3], pads=[1, 1, 1, 1], strides=[1, 1]](%722, %RRDB_trunk.0.RDB2.conv2.weight, %RRDB_trunk.0.RDB2.conv2.bias), scope: RRDBNet/Sequential[RRDB_trunk]/RRDB[0]/ResidualDenseBlock_5C[RDB2]/Conv2d[conv2]
  %724 : Float(1, 32, 256, 256) = onnx::LeakyRelu[alpha=0.2](%723), scope: RRDBNet/Sequential[RRDB_trunk]/RRDB[0]/ResidualDenseBlock_5C[RDB2]/LeakyReLU[lrelu]
  %725 : Float(1, 128, 256, 256) = onnx::Concat[axis=1](%719, %721, %724), scope: RRDBNet/Sequential[RRDB_trunk]/RRDB[0]/ResidualDenseBlock_5C[RDB2]
  %726 : Float(1, 32, 256, 256) = onnx::Conv[dilations=[1, 1], group=1, kernel_shape=[3, 3], pads=[1, 1, 1, 1], strides=[1, 1]](%725, %RRDB_trunk.0.RDB2.conv3.weight, %RRDB_trunk.0.RDB2.conv3.bias), scope: RRDBNet/Sequential[RRDB_trunk]/RRDB[0]/ResidualDenseBlock_5C[RDB2]/Conv2d[conv3]
  %727 : Float(1, 32, 256, 256) = onnx::LeakyRelu[alpha=0.2](%726), scope: RRDBNet/Sequential[RRDB_trunk]/RRDB[0]/ResidualDenseBlock_5C[RDB2]/LeakyReLU[lrelu]
  %728 : Float(1, 160, 256, 256) = onnx::Concat[axis=1](%719, %721, %724, %727), scope: RRDBNet/Sequential[RRDB_trunk]/RRDB[0]/ResidualDenseBlock_5C[RDB2]
  %729 : Float(1, 32, 256, 256) = onnx::Conv[dilations=[1, 1], group=1, kernel_shape=[3, 3], pads=[1, 1, 1, 1], strides=[1, 1]](%728, %RRDB_trunk.0.RDB2.conv4.weight, %RRDB_trunk.0.RDB2.conv4.bias), scope: RRDBNet/Sequential[RRDB_trunk]/RRDB[0]/ResidualDenseBlock_5C[RDB2]/Conv2d[conv4]
  %730 : Float(1, 32, 256, 256) = onnx::LeakyRelu[alpha=0.2](%729), scope: RRDBNet/Sequential[RRDB_trunk]/RRDB[0]/ResidualDenseBlock_5C[RDB2]/LeakyReLU[lrelu]
  %731 : Float(1, 192, 256, 256) = onnx::Concat[axis=1](%719, %721, %724, %727, %730), scope: RRDBNet/Sequential[RRDB_trunk]/RRDB[0]/ResidualDenseBlock_5C[RDB2]
  %732 : Float(1, 64, 256, 256) = onnx::Conv[dilations=[1, 1], group=1, kernel_shape=[3, 3], pads=[1, 1, 1, 1], strides=[1, 1]](%731, %RRDB_trunk.0.RDB2.conv5.weight, %RRDB_trunk.0.RDB2.conv5.bias), scope: RRDBNet/Sequential[RRDB_trunk]/RRDB[0]/ResidualDenseBlock_5C[RDB2]/Conv2d[conv5]
  %733 : Tensor = onnx::Constant[value={0.2}]()
  %734 : Tensor = onnx::Mul(%732, %733)
  %735 : Float(1, 64, 256, 256) = onnx::Add(%734, %719), scope: RRDBNet/Sequential[RRDB_trunk]/RRDB[0]/ResidualDenseBlock_5C[RDB2]
  %736 : Float(1, 32, 256, 256) = onnx::Conv[dilations=[1, 1], group=1, kernel_shape=[3, 3], pads=[1, 1, 1, 1], strides=[1, 1]](%735, %RRDB_trunk.0.RDB3.conv1.weight, %RRDB_trunk.0.RDB3.conv1.bias), scope: RRDBNet/Sequential[RRDB_trunk]/RRDB[0]/ResidualDenseBlock_5C[RDB3]/Conv2d[conv1]
  %737 : Float(1, 32, 256, 256) = onnx::LeakyRelu[alpha=0.2](%736), scope: RRDBNet/Sequential[RRDB_trunk]/RRDB[0]/ResidualDenseBlock_5C[RDB3]/LeakyReLU[lrelu]
  %738 : Float(1, 96, 256, 256) = onnx::Concat[axis=1](%735, %737), scope: RRDBNet/Sequential[RRDB_trunk]/RRDB[0]/ResidualDenseBlock_5C[RDB3]
  %739 : Float(1, 32, 256, 256) = onnx::Conv[dilations=[1, 1], group=1, kernel_shape=[3, 3], pads=[1, 1, 1, 1], strides=[1, 1]](%738, %RRDB_trunk.0.RDB3.conv2.weight, %RRDB_trunk.0.RDB3.conv2.bias), scope: RRDBNet/Sequential[RRDB_trunk]/RRDB[0]/ResidualDenseBlock_5C[RDB3]/Conv2d[conv2]
  %740 : Float(1, 32, 256, 256) = onnx::LeakyRelu[alpha=0.2](%739), scope: RRDBNet/Sequential[RRDB_trunk]/RRDB[0]/ResidualDenseBlock_5C[RDB3]/LeakyReLU[lrelu]
  %741 : Float(1, 128, 256, 256) = onnx::Concat[axis=1](%735, %737, %740), scope: RRDBNet/Sequential[RRDB_trunk]/RRDB[0]/ResidualDenseBlock_5C[RDB3]
  %742 : Float(1, 32, 256, 256) = onnx::Conv[dilations=[1, 1], group=1, kernel_shape=[3, 3], pads=[1, 1, 1, 1], strides=[1, 1]](%741, %RRDB_trunk.0.RDB3.conv3.weight, %RRDB_trunk.0.RDB3.conv3.bias), scope: RRDBNet/Sequential[RRDB_trunk]/RRDB[0]/ResidualDenseBlock_5C[RDB3]/Conv2d[conv3]
  %743 : Float(1, 32, 256, 256) = onnx::LeakyRelu[alpha=0.2](%742), scope: RRDBNet/Sequential[RRDB_trunk]/RRDB[0]/ResidualDenseBlock_5C[RDB3]/LeakyReLU[lrelu]
  %744 : Float(1, 160, 256, 256) = onnx::Concat[axis=1](%735, %737, %740, %743), scope: RRDBNet/Sequential[RRDB_trunk]/RRDB[0]/ResidualDenseBlock_5C[RDB3]
  %745 : Float(1, 32, 256, 256) = onnx::Conv[dilations=[1, 1], group=1, kernel_shape=[3, 3], pads=[1, 1, 1, 1], strides=[1, 1]](%744, %RRDB_trunk.0.RDB3.conv4.weight, %RRDB_trunk.0.RDB3.conv4.bias), scope: RRDBNet/Sequential[RRDB_trunk]/RRDB[0]/ResidualDenseBlock_5C[RDB3]/Conv2d[conv4]
  %746 : Float(1, 32, 256, 256) = onnx::LeakyRelu[alpha=0.2](%745), scope: RRDBNet/Sequential[RRDB_trunk]/RRDB[0]/ResidualDenseBlock_5C[RDB3]/LeakyReLU[lrelu]
  %747 : Float(1, 192, 256, 256) = onnx::Concat[axis=1](%735, %737, %740, %743, %746), scope: RRDBNet/Sequential[RRDB_trunk]/RRDB[0]/ResidualDenseBlock_5C[RDB3]
  %748 : Float(1, 64, 256, 256) = onnx::Conv[dilations=[1, 1], group=1, kernel_shape=[3, 3], pads=[1, 1, 1, 1], strides=[1, 1]](%747, %RRDB_trunk.0.RDB3.conv5.weight, %RRDB_trunk.0.RDB3.conv5.bias), scope: RRDBNet/Sequential[RRDB_trunk]/RRDB[0]/ResidualDenseBlock_5C[RDB3]/Conv2d[conv5]
  %749 : Tensor = onnx::Constant[value={0.2}]()
  %750 : Tensor = onnx::Mul(%748, %749)
  %751 : Float(1, 64, 256, 256) = onnx::Add(%750, %735), scope: RRDBNet/Sequential[RRDB_trunk]/RRDB[0]/ResidualDenseBlock_5C[RDB3]
  %752 : Tensor = onnx::Constant[value={0.2}]()
  %753 : Tensor = onnx::Mul(%751, %752)
  %754 : Float(1, 64, 256, 256) = onnx::Add(%753, %703), scope: RRDBNet/Sequential[RRDB_trunk]/RRDB[0]
  %755 : Float(1, 32, 256, 256) = onnx::Conv[dilations=[1, 1], group=1, kernel_shape=[3, 3], pads=[1, 1, 1, 1], strides=[1, 1]](%754, %RRDB_trunk.1.RDB1.conv1.weight, %RRDB_trunk.1.RDB1.conv1.bias), scope: RRDBNet/Sequential[RRDB_trunk]/RRDB[1]/ResidualDenseBlock_5C[RDB1]/Conv2d[conv1]
  %756 : Float(1, 32, 256, 256) = onnx::LeakyRelu[alpha=0.2](%755), scope: RRDBNet/Sequential[RRDB_trunk]/RRDB[1]/ResidualDenseBlock_5C[RDB1]/LeakyReLU[lrelu]
  %757 : Float(1, 96, 256, 256) = onnx::Concat[axis=1](%754, %756), scope: RRDBNet/Sequential[RRDB_trunk]/RRDB[1]/ResidualDenseBlock_5C[RDB1]
  %758 : Float(1, 32, 256, 256) = onnx::Conv[dilations=[1, 1], group=1, kernel_shape=[3, 3], pads=[1, 1, 1, 1], strides=[1, 1]](%757, %RRDB_trunk.1.RDB1.conv2.weight, %RRDB_trunk.1.RDB1.conv2.bias), scope: RRDBNet/Sequential[RRDB_trunk]/RRDB[1]/ResidualDenseBlock_5C[RDB1]/Conv2d[conv2]
  %759 : Float(1, 32, 256, 256) = onnx::LeakyRelu[alpha=0.2](%758), scope: RRDBNet/Sequential[RRDB_trunk]/RRDB[1]/ResidualDenseBlock_5C[RDB1]/LeakyReLU[lrelu]
  %760 : Float(1, 128, 256, 256) = onnx::Concat[axis=1](%754, %756, %759), scope: RRDBNet/Sequential[RRDB_trunk]/RRDB[1]/ResidualDenseBlock_5C[RDB1]
  %761 : Float(1, 32, 256, 256) = onnx::Conv[dilations=[1, 1], group=1, kernel_shape=[3, 3], pads=[1, 1, 1, 1], strides=[1, 1]](%760, %RRDB_trunk.1.RDB1.conv3.weight, %RRDB_trunk.1.RDB1.conv3.bias), scope: RRDBNet/Sequential[RRDB_trunk]/RRDB[1]/ResidualDenseBlock_5C[RDB1]/Conv2d[conv3]
  %762 : Float(1, 32, 256, 256) = onnx::LeakyRelu[alpha=0.2](%761), scope: RRDBNet/Sequential[RRDB_trunk]/RRDB[1]/ResidualDenseBlock_5C[RDB1]/LeakyReLU[lrelu]
  %763 : Float(1, 160, 256, 256) = onnx::Concat[axis=1](%754, %756, %759, %762), scope: RRDBNet/Sequential[RRDB_trunk]/RRDB[1]/ResidualDenseBlock_5C[RDB1]
  %764 : Float(1, 32, 256, 256) = onnx::Conv[dilations=[1, 1], group=1, kernel_shape=[3, 3], pads=[1, 1, 1, 1], strides=[1, 1]](%763, %RRDB_trunk.1.RDB1.conv4.weight, %RRDB_trunk.1.RDB1.conv4.bias), scope: RRDBNet/Sequential[RRDB_trunk]/RRDB[1]/ResidualDenseBlock_5C[RDB1]/Conv2d[conv4]
  %765 : Float(1, 32, 256, 256) = onnx::LeakyRelu[alpha=0.2](%764), scope: RRDBNet/Sequential[RRDB_trunk]/RRDB[1]/ResidualDenseBlock_5C[RDB1]/LeakyReLU[lrelu]
  %766 : Float(1, 192, 256, 256) = onnx::Concat[axis=1](%754, %756, %759, %762, %765), scope: RRDBNet/Sequential[RRDB_trunk]/RRDB[1]/ResidualDenseBlock_5C[RDB1]
  %767 : Float(1, 64, 256, 256) = onnx::Conv[dilations=[1, 1], group=1, kernel_shape=[3, 3], pads=[1, 1, 1, 1], strides=[1, 1]](%766, %RRDB_trunk.1.RDB1.conv5.weight, %RRDB_trunk.1.RDB1.conv5.bias), scope: RRDBNet/Sequential[RRDB_trunk]/RRDB[1]/ResidualDenseBlock_5C[RDB1]/Conv2d[conv5]
  %768 : Tensor = onnx::Constant[value={0.2}]()
  %769 : Tensor = onnx::Mul(%767, %768)
  %770 : Float(1, 64, 256, 256) = onnx::Add(%769, %754), scope: RRDBNet/Sequential[RRDB_trunk]/RRDB[1]/ResidualDenseBlock_5C[RDB1]
  %771 : Float(1, 32, 256, 256) = onnx::Conv[dilations=[1, 1], group=1, kernel_shape=[3, 3], pads=[1, 1, 1, 1], strides=[1, 1]](%770, %RRDB_trunk.1.RDB2.conv1.weight, %RRDB_trunk.1.RDB2.conv1.bias), scope: RRDBNet/Sequential[RRDB_trunk]/RRDB[1]/ResidualDenseBlock_5C[RDB2]/Conv2d[conv1]
  %772 : Float(1, 32, 256, 256) = onnx::LeakyRelu[alpha=0.2](%771), scope: RRDBNet/Sequential[RRDB_trunk]/RRDB[1]/ResidualDenseBlock_5C[RDB2]/LeakyReLU[lrelu]
  %773 : Float(1, 96, 256, 256) = onnx::Concat[axis=1](%770, %772), scope: RRDBNet/Sequential[RRDB_trunk]/RRDB[1]/ResidualDenseBlock_5C[RDB2]
  %774 : Float(1, 32, 256, 256) = onnx::Conv[dilations=[1, 1], group=1, kernel_shape=[3, 3], pads=[1, 1, 1, 1], strides=[1, 1]](%773, %RRDB_trunk.1.RDB2.conv2.weight, %RRDB_trunk.1.RDB2.conv2.bias), scope: RRDBNet/Sequential[RRDB_trunk]/RRDB[1]/ResidualDenseBlock_5C[RDB2]/Conv2d[conv2]
  %775 : Float(1, 32, 256, 256) = onnx::LeakyRelu[alpha=0.2](%774), scope: RRDBNet/Sequential[RRDB_trunk]/RRDB[1]/ResidualDenseBlock_5C[RDB2]/LeakyReLU[lrelu]
  %776 : Float(1, 128, 256, 256) = onnx::Concat[axis=1](%770, %772, %775), scope: RRDBNet/Sequential[RRDB_trunk]/RRDB[1]/ResidualDenseBlock_5C[RDB2]
  %777 : Float(1, 32, 256, 256) = onnx::Conv[dilations=[1, 1], group=1, kernel_shape=[3, 3], pads=[1, 1, 1, 1], strides=[1, 1]](%776, %RRDB_trunk.1.RDB2.conv3.weight, %RRDB_trunk.1.RDB2.conv3.bias), scope: RRDBNet/Sequential[RRDB_trunk]/RRDB[1]/ResidualDenseBlock_5C[RDB2]/Conv2d[conv3]
  %778 : Float(1, 32, 256, 256) = onnx::LeakyRelu[alpha=0.2](%777), scope: RRDBNet/Sequential[RRDB_trunk]/RRDB[1]/ResidualDenseBlock_5C[RDB2]/LeakyReLU[lrelu]
  %779 : Float(1, 160, 256, 256) = onnx::Concat[axis=1](%770, %772, %775, %778), scope: RRDBNet/Sequential[RRDB_trunk]/RRDB[1]/ResidualDenseBlock_5C[RDB2]
  %780 : Float(1, 32, 256, 256) = onnx::Conv[dilations=[1, 1], group=1, kernel_shape=[3, 3], pads=[1, 1, 1, 1], strides=[1, 1]](%779, %RRDB_trunk.1.RDB2.conv4.weight, %RRDB_trunk.1.RDB2.conv4.bias), scope: RRDBNet/Sequential[RRDB_trunk]/RRDB[1]/ResidualDenseBlock_5C[RDB2]/Conv2d[conv4]
  %781 : Float(1, 32, 256, 256) = onnx::LeakyRelu[alpha=0.2](%780), scope: RRDBNet/Sequential[RRDB_trunk]/RRDB[1]/ResidualDenseBlock_5C[RDB2]/LeakyReLU[lrelu]
  %782 : Float(1, 192, 256, 256) = onnx::Concat[axis=1](%770, %772, %775, %778, %781), scope: RRDBNet/Sequential[RRDB_trunk]/RRDB[1]/ResidualDenseBlock_5C[RDB2]
  %783 : Float(1, 64, 256, 256) = onnx::Conv[dilations=[1, 1], group=1, kernel_shape=[3, 3], pads=[1, 1, 1, 1], strides=[1, 1]](%782, %RRDB_trunk.1.RDB2.conv5.weight, %RRDB_trunk.1.RDB2.conv5.bias), scope: RRDBNet/Sequential[RRDB_trunk]/RRDB[1]/ResidualDenseBlock_5C[RDB2]/Conv2d[conv5]
  %784 : Tensor = onnx::Constant[value={0.2}]()
  %785 : Tensor = onnx::Mul(%783, %784)
  %786 : Float(1, 64, 256, 256) = onnx::Add(%785, %770), scope: RRDBNet/Sequential[RRDB_trunk]/RRDB[1]/ResidualDenseBlock_5C[RDB2]
  %787 : Float(1, 32, 256, 256) = onnx::Conv[dilations=[1, 1], group=1, kernel_shape=[3, 3], pads=[1, 1, 1, 1], strides=[1, 1]](%786, %RRDB_trunk.1.RDB3.conv1.weight, %RRDB_trunk.1.RDB3.conv1.bias), scope: RRDBNet/Sequential[RRDB_trunk]/RRDB[1]/ResidualDenseBlock_5C[RDB3]/Conv2d[conv1]
  %788 : Float(1, 32, 256, 256) = onnx::LeakyRelu[alpha=0.2](%787), scope: RRDBNet/Sequential[RRDB_trunk]/RRDB[1]/ResidualDenseBlock_5C[RDB3]/LeakyReLU[lrelu]
  %789 : Float(1, 96, 256, 256) = onnx::Concat[axis=1](%786, %788), scope: RRDBNet/Sequential[RRDB_trunk]/RRDB[1]/ResidualDenseBlock_5C[RDB3]
  %790 : Float(1, 32, 256, 256) = onnx::Conv[dilations=[1, 1], group=1, kernel_shape=[3, 3], pads=[1, 1, 1, 1], strides=[1, 1]](%789, %RRDB_trunk.1.RDB3.conv2.weight, %RRDB_trunk.1.RDB3.conv2.bias), scope: RRDBNet/Sequential[RRDB_trunk]/RRDB[1]/ResidualDenseBlock_5C[RDB3]/Conv2d[conv2]
  %791 : Float(1, 32, 256, 256) = onnx::LeakyRelu[alpha=0.2](%790), scope: RRDBNet/Sequential[RRDB_trunk]/RRDB[1]/ResidualDenseBlock_5C[RDB3]/LeakyReLU[lrelu]
  %792 : Float(1, 128, 256, 256) = onnx::Concat[axis=1](%786, %788, %791), scope: RRDBNet/Sequential[RRDB_trunk]/RRDB[1]/ResidualDenseBlock_5C[RDB3]
  %793 : Float(1, 32, 256, 256) = onnx::Conv[dilations=[1, 1], group=1, kernel_shape=[3, 3], pads=[1, 1, 1, 1], strides=[1, 1]](%792, %RRDB_trunk.1.RDB3.conv3.weight, %RRDB_trunk.1.RDB3.conv3.bias), scope: RRDBNet/Sequential[RRDB_trunk]/RRDB[1]/ResidualDenseBlock_5C[RDB3]/Conv2d[conv3]
  %794 : Float(1, 32, 256, 256) = onnx::LeakyRelu[alpha=0.2](%793), scope: RRDBNet/Sequential[RRDB_trunk]/RRDB[1]/ResidualDenseBlock_5C[RDB3]/LeakyReLU[lrelu]
  %795 : Float(1, 160, 256, 256) = onnx::Concat[axis=1](%786, %788, %791, %794), scope: RRDBNet/Sequential[RRDB_trunk]/RRDB[1]/ResidualDenseBlock_5C[RDB3]
  %796 : Float(1, 32, 256, 256) = onnx::Conv[dilations=[1, 1], group=1, kernel_shape=[3, 3], pads=[1, 1, 1, 1], strides=[1, 1]](%795, %RRDB_trunk.1.RDB3.conv4.weight, %RRDB_trunk.1.RDB3.conv4.bias), scope: RRDBNet/Sequential[RRDB_trunk]/RRDB[1]/ResidualDenseBlock_5C[RDB3]/Conv2d[conv4]
  %797 : Float(1, 32, 256, 256) = onnx::LeakyRelu[alpha=0.2](%796), scope: RRDBNet/Sequential[RRDB_trunk]/RRDB[1]/ResidualDenseBlock_5C[RDB3]/LeakyReLU[lrelu]
  %798 : Float(1, 192, 256, 256) = onnx::Concat[axis=1](%786, %788, %791, %794, %797), scope: RRDBNet/Sequential[RRDB_trunk]/RRDB[1]/ResidualDenseBlock_5C[RDB3]
  %799 : Float(1, 64, 256, 256) = onnx::Conv[dilations=[1, 1], group=1, kernel_shape=[3, 3], pads=[1, 1, 1, 1], strides=[1, 1]](%798, %RRDB_trunk.1.RDB3.conv5.weight, %RRDB_trunk.1.RDB3.conv5.bias), scope: RRDBNet/Sequential[RRDB_trunk]/RRDB[1]/ResidualDenseBlock_5C[RDB3]/Conv2d[conv5]
  %800 : Tensor = onnx::Constant[value={0.2}]()
  %801 : Tensor = onnx::Mul(%799, %800)
  %802 : Float(1, 64, 256, 256) = onnx::Add(%801, %786), scope: RRDBNet/Sequential[RRDB_trunk]/RRDB[1]/ResidualDenseBlock_5C[RDB3]
  %803 : Tensor = onnx::Constant[value={0.2}]()
  %804 : Tensor = onnx::Mul(%802, %803)
  %805 : Float(1, 64, 256, 256) = onnx::Add(%804, %754), scope: RRDBNet/Sequential[RRDB_trunk]/RRDB[1]
  %806 : Float(1, 32, 256, 256) = onnx::Conv[dilations=[1, 1], group=1, kernel_shape=[3, 3], pads=[1, 1, 1, 1], strides=[1, 1]](%805, %RRDB_trunk.2.RDB1.conv1.weight, %RRDB_trunk.2.RDB1.conv1.bias), scope: RRDBNet/Sequential[RRDB_trunk]/RRDB[2]/ResidualDenseBlock_5C[RDB1]/Conv2d[conv1]
  %807 : Float(1, 32, 256, 256) = onnx::LeakyRelu[alpha=0.2](%806), scope: RRDBNet/Sequential[RRDB_trunk]/RRDB[2]/ResidualDenseBlock_5C[RDB1]/LeakyReLU[lrelu]
  %808 : Float(1, 96, 256, 256) = onnx::Concat[axis=1](%805, %807), scope: RRDBNet/Sequential[RRDB_trunk]/RRDB[2]/ResidualDenseBlock_5C[RDB1]
  %809 : Float(1, 32, 256, 256) = onnx::Conv[dilations=[1, 1], group=1, kernel_shape=[3, 3], pads=[1, 1, 1, 1], strides=[1, 1]](%808, %RRDB_trunk.2.RDB1.conv2.weight, %RRDB_trunk.2.RDB1.conv2.bias), scope: RRDBNet/Sequential[RRDB_trunk]/RRDB[2]/ResidualDenseBlock_5C[RDB1]/Conv2d[conv2]
  %810 : Float(1, 32, 256, 256) = onnx::LeakyRelu[alpha=0.2](%809), scope: RRDBNet/Sequential[RRDB_trunk]/RRDB[2]/ResidualDenseBlock_5C[RDB1]/LeakyReLU[lrelu]
  %811 : Float(1, 128, 256, 256) = onnx::Concat[axis=1](%805, %807, %810), scope: RRDBNet/Sequential[RRDB_trunk]/RRDB[2]/ResidualDenseBlock_5C[RDB1]
  %812 : Float(1, 32, 256, 256) = onnx::Conv[dilations=[1, 1], group=1, kernel_shape=[3, 3], pads=[1, 1, 1, 1], strides=[1, 1]](%811, %RRDB_trunk.2.RDB1.conv3.weight, %RRDB_trunk.2.RDB1.conv3.bias), scope: RRDBNet/Sequential[RRDB_trunk]/RRDB[2]/ResidualDenseBlock_5C[RDB1]/Conv2d[conv3]
  %813 : Float(1, 32, 256, 256) = onnx::LeakyRelu[alpha=0.2](%812), scope: RRDBNet/Sequential[RRDB_trunk]/RRDB[2]/ResidualDenseBlock_5C[RDB1]/LeakyReLU[lrelu]
  %814 : Float(1, 160, 256, 256) = onnx::Concat[axis=1](%805, %807, %810, %813), scope: RRDBNet/Sequential[RRDB_trunk]/RRDB[2]/ResidualDenseBlock_5C[RDB1]
  %815 : Float(1, 32, 256, 256) = onnx::Conv[dilations=[1, 1], group=1, kernel_shape=[3, 3], pads=[1, 1, 1, 1], strides=[1, 1]](%814, %RRDB_trunk.2.RDB1.conv4.weight, %RRDB_trunk.2.RDB1.conv4.bias), scope: RRDBNet/Sequential[RRDB_trunk]/RRDB[2]/ResidualDenseBlock_5C[RDB1]/Conv2d[conv4]
  %816 : Float(1, 32, 256, 256) = onnx::LeakyRelu[alpha=0.2](%815), scope: RRDBNet/Sequential[RRDB_trunk]/RRDB[2]/ResidualDenseBlock_5C[RDB1]/LeakyReLU[lrelu]
  %817 : Float(1, 192, 256, 256) = onnx::Concat[axis=1](%805, %807, %810, %813, %816), scope: RRDBNet/Sequential[RRDB_trunk]/RRDB[2]/ResidualDenseBlock_5C[RDB1]
  %818 : Float(1, 64, 256, 256) = onnx::Conv[dilations=[1, 1], group=1, kernel_shape=[3, 3], pads=[1, 1, 1, 1], strides=[1, 1]](%817, %RRDB_trunk.2.RDB1.conv5.weight, %RRDB_trunk.2.RDB1.conv5.bias), scope: RRDBNet/Sequential[RRDB_trunk]/RRDB[2]/ResidualDenseBlock_5C[RDB1]/Conv2d[conv5]
  %819 : Tensor = onnx::Constant[value={0.2}]()
  %820 : Tensor = onnx::Mul(%818, %819)
  %821 : Float(1, 64, 256, 256) = onnx::Add(%820, %805), scope: RRDBNet/Sequential[RRDB_trunk]/RRDB[2]/ResidualDenseBlock_5C[RDB1]
  %822 : Float(1, 32, 256, 256) = onnx::Conv[dilations=[1, 1], group=1, kernel_shape=[3, 3], pads=[1, 1, 1, 1], strides=[1, 1]](%821, %RRDB_trunk.2.RDB2.conv1.weight, %RRDB_trunk.2.RDB2.conv1.bias), scope: RRDBNet/Sequential[RRDB_trunk]/RRDB[2]/ResidualDenseBlock_5C[RDB2]/Conv2d[conv1]
  %823 : Float(1, 32, 256, 256) = onnx::LeakyRelu[alpha=0.2](%822), scope: RRDBNet/Sequential[RRDB_trunk]/RRDB[2]/ResidualDenseBlock_5C[RDB2]/LeakyReLU[lrelu]
  %824 : Float(1, 96, 256, 256) = onnx::Concat[axis=1](%821, %823), scope: RRDBNet/Sequential[RRDB_trunk]/RRDB[2]/ResidualDenseBlock_5C[RDB2]
  %825 : Float(1, 32, 256, 256) = onnx::Conv[dilations=[1, 1], group=1, kernel_shape=[3, 3], pads=[1, 1, 1, 1], strides=[1, 1]](%824, %RRDB_trunk.2.RDB2.conv2.weight, %RRDB_trunk.2.RDB2.conv2.bias), scope: RRDBNet/Sequential[RRDB_trunk]/RRDB[2]/ResidualDenseBlock_5C[RDB2]/Conv2d[conv2]
  %826 : Float(1, 32, 256, 256) = onnx::LeakyRelu[alpha=0.2](%825), scope: RRDBNet/Sequential[RRDB_trunk]/RRDB[2]/ResidualDenseBlock_5C[RDB2]/LeakyReLU[lrelu]
  %827 : Float(1, 128, 256, 256) = onnx::Concat[axis=1](%821, %823, %826), scope: RRDBNet/Sequential[RRDB_trunk]/RRDB[2]/ResidualDenseBlock_5C[RDB2]
  %828 : Float(1, 32, 256, 256) = onnx::Conv[dilations=[1, 1], group=1, kernel_shape=[3, 3], pads=[1, 1, 1, 1], strides=[1, 1]](%827, %RRDB_trunk.2.RDB2.conv3.weight, %RRDB_trunk.2.RDB2.conv3.bias), scope: RRDBNet/Sequential[RRDB_trunk]/RRDB[2]/ResidualDenseBlock_5C[RDB2]/Conv2d[conv3]
  %829 : Float(1, 32, 256, 256) = onnx::LeakyRelu[alpha=0.2](%828), scope: RRDBNet/Sequential[RRDB_trunk]/RRDB[2]/ResidualDenseBlock_5C[RDB2]/LeakyReLU[lrelu]
  %830 : Float(1, 160, 256, 256) = onnx::Concat[axis=1](%821, %823, %826, %829), scope: RRDBNet/Sequential[RRDB_trunk]/RRDB[2]/ResidualDenseBlock_5C[RDB2]
  %831 : Float(1, 32, 256, 256) = onnx::Conv[dilations=[1, 1], group=1, kernel_shape=[3, 3], pads=[1, 1, 1, 1], strides=[1, 1]](%830, %RRDB_trunk.2.RDB2.conv4.weight, %RRDB_trunk.2.RDB2.conv4.bias), scope: RRDBNet/Sequential[RRDB_trunk]/RRDB[2]/ResidualDenseBlock_5C[RDB2]/Conv2d[conv4]
  %832 : Float(1, 32, 256, 256) = onnx::LeakyRelu[alpha=0.2](%831), scope: RRDBNet/Sequential[RRDB_trunk]/RRDB[2]/ResidualDenseBlock_5C[RDB2]/LeakyReLU[lrelu]
  %833 : Float(1, 192, 256, 256) = onnx::Concat[axis=1](%821, %823, %826, %829, %832), scope: RRDBNet/Sequential[RRDB_trunk]/RRDB[2]/ResidualDenseBlock_5C[RDB2]
  %834 : Float(1, 64, 256, 256) = onnx::Conv[dilations=[1, 1], group=1, kernel_shape=[3, 3], pads=[1, 1, 1, 1], strides=[1, 1]](%833, %RRDB_trunk.2.RDB2.conv5.weight, %RRDB_trunk.2.RDB2.conv5.bias), scope: RRDBNet/Sequential[RRDB_trunk]/RRDB[2]/ResidualDenseBlock_5C[RDB2]/Conv2d[conv5]
  %835 : Tensor = onnx::Constant[value={0.2}]()
  %836 : Tensor = onnx::Mul(%834, %835)
  %837 : Float(1, 64, 256, 256) = onnx::Add(%836, %821), scope: RRDBNet/Sequential[RRDB_trunk]/RRDB[2]/ResidualDenseBlock_5C[RDB2]
  %838 : Float(1, 32, 256, 256) = onnx::Conv[dilations=[1, 1], group=1, kernel_shape=[3, 3], pads=[1, 1, 1, 1], strides=[1, 1]](%837, %RRDB_trunk.2.RDB3.conv1.weight, %RRDB_trunk.2.RDB3.conv1.bias), scope: RRDBNet/Sequential[RRDB_trunk]/RRDB[2]/ResidualDenseBlock_5C[RDB3]/Conv2d[conv1]
  %839 : Float(1, 32, 256, 256) = onnx::LeakyRelu[alpha=0.2](%838), scope: RRDBNet/Sequential[RRDB_trunk]/RRDB[2]/ResidualDenseBlock_5C[RDB3]/LeakyReLU[lrelu]
  %840 : Float(1, 96, 256, 256) = onnx::Concat[axis=1](%837, %839), scope: RRDBNet/Sequential[RRDB_trunk]/RRDB[2]/ResidualDenseBlock_5C[RDB3]
  %841 : Float(1, 32, 256, 256) = onnx::Conv[dilations=[1, 1], group=1, kernel_shape=[3, 3], pads=[1, 1, 1, 1], strides=[1, 1]](%840, %RRDB_trunk.2.RDB3.conv2.weight, %RRDB_trunk.2.RDB3.conv2.bias), scope: RRDBNet/Sequential[RRDB_trunk]/RRDB[2]/ResidualDenseBlock_5C[RDB3]/Conv2d[conv2]
  %842 : Float(1, 32, 256, 256) = onnx::LeakyRelu[alpha=0.2](%841), scope: RRDBNet/Sequential[RRDB_trunk]/RRDB[2]/ResidualDenseBlock_5C[RDB3]/LeakyReLU[lrelu]
  %843 : Float(1, 128, 256, 256) = onnx::Concat[axis=1](%837, %839, %842), scope: RRDBNet/Sequential[RRDB_trunk]/RRDB[2]/ResidualDenseBlock_5C[RDB3]
  %844 : Float(1, 32, 256, 256) = onnx::Conv[dilations=[1, 1], group=1, kernel_shape=[3, 3], pads=[1, 1, 1, 1], strides=[1, 1]](%843, %RRDB_trunk.2.RDB3.conv3.weight, %RRDB_trunk.2.RDB3.conv3.bias), scope: RRDBNet/Sequential[RRDB_trunk]/RRDB[2]/ResidualDenseBlock_5C[RDB3]/Conv2d[conv3]
  %845 : Float(1, 32, 256, 256) = onnx::LeakyRelu[alpha=0.2](%844), scope: RRDBNet/Sequential[RRDB_trunk]/RRDB[2]/ResidualDenseBlock_5C[RDB3]/LeakyReLU[lrelu]
  %846 : Float(1, 160, 256, 256) = onnx::Concat[axis=1](%837, %839, %842, %845), scope: RRDBNet/Sequential[RRDB_trunk]/RRDB[2]/ResidualDenseBlock_5C[RDB3]
  %847 : Float(1, 32, 256, 256) = onnx::Conv[dilations=[1, 1], group=1, kernel_shape=[3, 3], pads=[1, 1, 1, 1], strides=[1, 1]](%846, %RRDB_trunk.2.RDB3.conv4.weight, %RRDB_trunk.2.RDB3.conv4.bias), scope: RRDBNet/Sequential[RRDB_trunk]/RRDB[2]/ResidualDenseBlock_5C[RDB3]/Conv2d[conv4]
  %848 : Float(1, 32, 256, 256) = onnx::LeakyRelu[alpha=0.2](%847), scope: RRDBNet/Sequential[RRDB_trunk]/RRDB[2]/ResidualDenseBlock_5C[RDB3]/LeakyReLU[lrelu]
  %849 : Float(1, 192, 256, 256) = onnx::Concat[axis=1](%837, %839, %842, %845, %848), scope: RRDBNet/Sequential[RRDB_trunk]/RRDB[2]/ResidualDenseBlock_5C[RDB3]
  %850 : Float(1, 64, 256, 256) = onnx::Conv[dilations=[1, 1], group=1, kernel_shape=[3, 3], pads=[1, 1, 1, 1], strides=[1, 1]](%849, %RRDB_trunk.2.RDB3.conv5.weight, %RRDB_trunk.2.RDB3.conv5.bias), scope: RRDBNet/Sequential[RRDB_trunk]/RRDB[2]/ResidualDenseBlock_5C[RDB3]/Conv2d[conv5]
  %851 : Tensor = onnx::Constant[value={0.2}]()
  %852 : Tensor = onnx::Mul(%850, %851)
  %853 : Float(1, 64, 256, 256) = onnx::Add(%852, %837), scope: RRDBNet/Sequential[RRDB_trunk]/RRDB[2]/ResidualDenseBlock_5C[RDB3]
  %854 : Tensor = onnx::Constant[value={0.2}]()
  %855 : Tensor = onnx::Mul(%853, %854)
  %856 : Float(1, 64, 256, 256) = onnx::Add(%855, %805), scope: RRDBNet/Sequential[RRDB_trunk]/RRDB[2]
  %857 : Float(1, 32, 256, 256) = onnx::Conv[dilations=[1, 1], group=1, kernel_shape=[3, 3], pads=[1, 1, 1, 1], strides=[1, 1]](%856, %RRDB_trunk.3.RDB1.conv1.weight, %RRDB_trunk.3.RDB1.conv1.bias), scope: RRDBNet/Sequential[RRDB_trunk]/RRDB[3]/ResidualDenseBlock_5C[RDB1]/Conv2d[conv1]
  %858 : Float(1, 32, 256, 256) = onnx::LeakyRelu[alpha=0.2](%857), scope: RRDBNet/Sequential[RRDB_trunk]/RRDB[3]/ResidualDenseBlock_5C[RDB1]/LeakyReLU[lrelu]
  %859 : Float(1, 96, 256, 256) = onnx::Concat[axis=1](%856, %858), scope: RRDBNet/Sequential[RRDB_trunk]/RRDB[3]/ResidualDenseBlock_5C[RDB1]
  %860 : Float(1, 32, 256, 256) = onnx::Conv[dilations=[1, 1], group=1, kernel_shape=[3, 3], pads=[1, 1, 1, 1], strides=[1, 1]](%859, %RRDB_trunk.3.RDB1.conv2.weight, %RRDB_trunk.3.RDB1.conv2.bias), scope: RRDBNet/Sequential[RRDB_trunk]/RRDB[3]/ResidualDenseBlock_5C[RDB1]/Conv2d[conv2]
  %861 : Float(1, 32, 256, 256) = onnx::LeakyRelu[alpha=0.2](%860), scope: RRDBNet/Sequential[RRDB_trunk]/RRDB[3]/ResidualDenseBlock_5C[RDB1]/LeakyReLU[lrelu]
  %862 : Float(1, 128, 256, 256) = onnx::Concat[axis=1](%856, %858, %861), scope: RRDBNet/Sequential[RRDB_trunk]/RRDB[3]/ResidualDenseBlock_5C[RDB1]
  %863 : Float(1, 32, 256, 256) = onnx::Conv[dilations=[1, 1], group=1, kernel_shape=[3, 3], pads=[1, 1, 1, 1], strides=[1, 1]](%862, %RRDB_trunk.3.RDB1.conv3.weight, %RRDB_trunk.3.RDB1.conv3.bias), scope: RRDBNet/Sequential[RRDB_trunk]/RRDB[3]/ResidualDenseBlock_5C[RDB1]/Conv2d[conv3]
  %864 : Float(1, 32, 256, 256) = onnx::LeakyRelu[alpha=0.2](%863), scope: RRDBNet/Sequential[RRDB_trunk]/RRDB[3]/ResidualDenseBlock_5C[RDB1]/LeakyReLU[lrelu]
  %865 : Float(1, 160, 256, 256) = onnx::Concat[axis=1](%856, %858, %861, %864), scope: RRDBNet/Sequential[RRDB_trunk]/RRDB[3]/ResidualDenseBlock_5C[RDB1]
  %866 : Float(1, 32, 256, 256) = onnx::Conv[dilations=[1, 1], group=1, kernel_shape=[3, 3], pads=[1, 1, 1, 1], strides=[1, 1]](%865, %RRDB_trunk.3.RDB1.conv4.weight, %RRDB_trunk.3.RDB1.conv4.bias), scope: RRDBNet/Sequential[RRDB_trunk]/RRDB[3]/ResidualDenseBlock_5C[RDB1]/Conv2d[conv4]
  %867 : Float(1, 32, 256, 256) = onnx::LeakyRelu[alpha=0.2](%866), scope: RRDBNet/Sequential[RRDB_trunk]/RRDB[3]/ResidualDenseBlock_5C[RDB1]/LeakyReLU[lrelu]
  %868 : Float(1, 192, 256, 256) = onnx::Concat[axis=1](%856, %858, %861, %864, %867), scope: RRDBNet/Sequential[RRDB_trunk]/RRDB[3]/ResidualDenseBlock_5C[RDB1]
  %869 : Float(1, 64, 256, 256) = onnx::Conv[dilations=[1, 1], group=1, kernel_shape=[3, 3], pads=[1, 1, 1, 1], strides=[1, 1]](%868, %RRDB_trunk.3.RDB1.conv5.weight, %RRDB_trunk.3.RDB1.conv5.bias), scope: RRDBNet/Sequential[RRDB_trunk]/RRDB[3]/ResidualDenseBlock_5C[RDB1]/Conv2d[conv5]
  %870 : Tensor = onnx::Constant[value={0.2}]()
  %871 : Tensor = onnx::Mul(%869, %870)
  %872 : Float(1, 64, 256, 256) = onnx::Add(%871, %856), scope: RRDBNet/Sequential[RRDB_trunk]/RRDB[3]/ResidualDenseBlock_5C[RDB1]
  %873 : Float(1, 32, 256, 256) = onnx::Conv[dilations=[1, 1], group=1, kernel_shape=[3, 3], pads=[1, 1, 1, 1], strides=[1, 1]](%872, %RRDB_trunk.3.RDB2.conv1.weight, %RRDB_trunk.3.RDB2.conv1.bias), scope: RRDBNet/Sequential[RRDB_trunk]/RRDB[3]/ResidualDenseBlock_5C[RDB2]/Conv2d[conv1]
  %874 : Float(1, 32, 256, 256) = onnx::LeakyRelu[alpha=0.2](%873), scope: RRDBNet/Sequential[RRDB_trunk]/RRDB[3]/ResidualDenseBlock_5C[RDB2]/LeakyReLU[lrelu]
  %875 : Float(1, 96, 256, 256) = onnx::Concat[axis=1](%872, %874), scope: RRDBNet/Sequential[RRDB_trunk]/RRDB[3]/ResidualDenseBlock_5C[RDB2]
  %876 : Float(1, 32, 256, 256) = onnx::Conv[dilations=[1, 1], group=1, kernel_shape=[3, 3], pads=[1, 1, 1, 1], strides=[1, 1]](%875, %RRDB_trunk.3.RDB2.conv2.weight, %RRDB_trunk.3.RDB2.conv2.bias), scope: RRDBNet/Sequential[RRDB_trunk]/RRDB[3]/ResidualDenseBlock_5C[RDB2]/Conv2d[conv2]
  %877 : Float(1, 32, 256, 256) = onnx::LeakyRelu[alpha=0.2](%876), scope: RRDBNet/Sequential[RRDB_trunk]/RRDB[3]/ResidualDenseBlock_5C[RDB2]/LeakyReLU[lrelu]
  %878 : Float(1, 128, 256, 256) = onnx::Concat[axis=1](%872, %874, %877), scope: RRDBNet/Sequential[RRDB_trunk]/RRDB[3]/ResidualDenseBlock_5C[RDB2]
  %879 : Float(1, 32, 256, 256) = onnx::Conv[dilations=[1, 1], group=1, kernel_shape=[3, 3], pads=[1, 1, 1, 1], strides=[1, 1]](%878, %RRDB_trunk.3.RDB2.conv3.weight, %RRDB_trunk.3.RDB2.conv3.bias), scope: RRDBNet/Sequential[RRDB_trunk]/RRDB[3]/ResidualDenseBlock_5C[RDB2]/Conv2d[conv3]
  %880 : Float(1, 32, 256, 256) = onnx::LeakyRelu[alpha=0.2](%879), scope: RRDBNet/Sequential[RRDB_trunk]/RRDB[3]/ResidualDenseBlock_5C[RDB2]/LeakyReLU[lrelu]
  %881 : Float(1, 160, 256, 256) = onnx::Concat[axis=1](%872, %874, %877, %880), scope: RRDBNet/Sequential[RRDB_trunk]/RRDB[3]/ResidualDenseBlock_5C[RDB2]
  %882 : Float(1, 32, 256, 256) = onnx::Conv[dilations=[1, 1], group=1, kernel_shape=[3, 3], pads=[1, 1, 1, 1], strides=[1, 1]](%881, %RRDB_trunk.3.RDB2.conv4.weight, %RRDB_trunk.3.RDB2.conv4.bias), scope: RRDBNet/Sequential[RRDB_trunk]/RRDB[3]/ResidualDenseBlock_5C[RDB2]/Conv2d[conv4]
  %883 : Float(1, 32, 256, 256) = onnx::LeakyRelu[alpha=0.2](%882), scope: RRDBNet/Sequential[RRDB_trunk]/RRDB[3]/ResidualDenseBlock_5C[RDB2]/LeakyReLU[lrelu]
  %884 : Float(1, 192, 256, 256) = onnx::Concat[axis=1](%872, %874, %877, %880, %883), scope: RRDBNet/Sequential[RRDB_trunk]/RRDB[3]/ResidualDenseBlock_5C[RDB2]
  %885 : Float(1, 64, 256, 256) = onnx::Conv[dilations=[1, 1], group=1, kernel_shape=[3, 3], pads=[1, 1, 1, 1], strides=[1, 1]](%884, %RRDB_trunk.3.RDB2.conv5.weight, %RRDB_trunk.3.RDB2.conv5.bias), scope: RRDBNet/Sequential[RRDB_trunk]/RRDB[3]/ResidualDenseBlock_5C[RDB2]/Conv2d[conv5]
  %886 : Tensor = onnx::Constant[value={0.2}]()
  %887 : Tensor = onnx::Mul(%885, %886)
  %888 : Float(1, 64, 256, 256) = onnx::Add(%887, %872), scope: RRDBNet/Sequential[RRDB_trunk]/RRDB[3]/ResidualDenseBlock_5C[RDB2]
  %889 : Float(1, 32, 256, 256) = onnx::Conv[dilations=[1, 1], group=1, kernel_shape=[3, 3], pads=[1, 1, 1, 1], strides=[1, 1]](%888, %RRDB_trunk.3.RDB3.conv1.weight, %RRDB_trunk.3.RDB3.conv1.bias), scope: RRDBNet/Sequential[RRDB_trunk]/RRDB[3]/ResidualDenseBlock_5C[RDB3]/Conv2d[conv1]
  %890 : Float(1, 32, 256, 256) = onnx::LeakyRelu[alpha=0.2](%889), scope: RRDBNet/Sequential[RRDB_trunk]/RRDB[3]/ResidualDenseBlock_5C[RDB3]/LeakyReLU[lrelu]
  %891 : Float(1, 96, 256, 256) = onnx::Concat[axis=1](%888, %890), scope: RRDBNet/Sequential[RRDB_trunk]/RRDB[3]/ResidualDenseBlock_5C[RDB3]
  %892 : Float(1, 32, 256, 256) = onnx::Conv[dilations=[1, 1], group=1, kernel_shape=[3, 3], pads=[1, 1, 1, 1], strides=[1, 1]](%891, %RRDB_trunk.3.RDB3.conv2.weight, %RRDB_trunk.3.RDB3.conv2.bias), scope: RRDBNet/Sequential[RRDB_trunk]/RRDB[3]/ResidualDenseBlock_5C[RDB3]/Conv2d[conv2]
  %893 : Float(1, 32, 256, 256) = onnx::LeakyRelu[alpha=0.2](%892), scope: RRDBNet/Sequential[RRDB_trunk]/RRDB[3]/ResidualDenseBlock_5C[RDB3]/LeakyReLU[lrelu]
  %894 : Float(1, 128, 256, 256) = onnx::Concat[axis=1](%888, %890, %893), scope: RRDBNet/Sequential[RRDB_trunk]/RRDB[3]/ResidualDenseBlock_5C[RDB3]
  %895 : Float(1, 32, 256, 256) = onnx::Conv[dilations=[1, 1], group=1, kernel_shape=[3, 3], pads=[1, 1, 1, 1], strides=[1, 1]](%894, %RRDB_trunk.3.RDB3.conv3.weight, %RRDB_trunk.3.RDB3.conv3.bias), scope: RRDBNet/Sequential[RRDB_trunk]/RRDB[3]/ResidualDenseBlock_5C[RDB3]/Conv2d[conv3]
  %896 : Float(1, 32, 256, 256) = onnx::LeakyRelu[alpha=0.2](%895), scope: RRDBNet/Sequential[RRDB_trunk]/RRDB[3]/ResidualDenseBlock_5C[RDB3]/LeakyReLU[lrelu]
  %897 : Float(1, 160, 256, 256) = onnx::Concat[axis=1](%888, %890, %893, %896), scope: RRDBNet/Sequential[RRDB_trunk]/RRDB[3]/ResidualDenseBlock_5C[RDB3]
  %898 : Float(1, 32, 256, 256) = onnx::Conv[dilations=[1, 1], group=1, kernel_shape=[3, 3], pads=[1, 1, 1, 1], strides=[1, 1]](%897, %RRDB_trunk.3.RDB3.conv4.weight, %RRDB_trunk.3.RDB3.conv4.bias), scope: RRDBNet/Sequential[RRDB_trunk]/RRDB[3]/ResidualDenseBlock_5C[RDB3]/Conv2d[conv4]
  %899 : Float(1, 32, 256, 256) = onnx::LeakyRelu[alpha=0.2](%898), scope: RRDBNet/Sequential[RRDB_trunk]/RRDB[3]/ResidualDenseBlock_5C[RDB3]/LeakyReLU[lrelu]
  %900 : Float(1, 192, 256, 256) = onnx::Concat[axis=1](%888, %890, %893, %896, %899), scope: RRDBNet/Sequential[RRDB_trunk]/RRDB[3]/ResidualDenseBlock_5C[RDB3]
  %901 : Float(1, 64, 256, 256) = onnx::Conv[dilations=[1, 1], group=1, kernel_shape=[3, 3], pads=[1, 1, 1, 1], strides=[1, 1]](%900, %RRDB_trunk.3.RDB3.conv5.weight, %RRDB_trunk.3.RDB3.conv5.bias), scope: RRDBNet/Sequential[RRDB_trunk]/RRDB[3]/ResidualDenseBlock_5C[RDB3]/Conv2d[conv5]
  %902 : Tensor = onnx::Constant[value={0.2}]()
  %903 : Tensor = onnx::Mul(%901, %902)
  %904 : Float(1, 64, 256, 256) = onnx::Add(%903, %888), scope: RRDBNet/Sequential[RRDB_trunk]/RRDB[3]/ResidualDenseBlock_5C[RDB3]
  %905 : Tensor = onnx::Constant[value={0.2}]()
  %906 : Tensor = onnx::Mul(%904, %905)
  %907 : Float(1, 64, 256, 256) = onnx::Add(%906, %856), scope: RRDBNet/Sequential[RRDB_trunk]/RRDB[3]
  %908 : Float(1, 32, 256, 256) = onnx::Conv[dilations=[1, 1], group=1, kernel_shape=[3, 3], pads=[1, 1, 1, 1], strides=[1, 1]](%907, %RRDB_trunk.4.RDB1.conv1.weight, %RRDB_trunk.4.RDB1.conv1.bias), scope: RRDBNet/Sequential[RRDB_trunk]/RRDB[4]/ResidualDenseBlock_5C[RDB1]/Conv2d[conv1]
  %909 : Float(1, 32, 256, 256) = onnx::LeakyRelu[alpha=0.2](%908), scope: RRDBNet/Sequential[RRDB_trunk]/RRDB[4]/ResidualDenseBlock_5C[RDB1]/LeakyReLU[lrelu]
  %910 : Float(1, 96, 256, 256) = onnx::Concat[axis=1](%907, %909), scope: RRDBNet/Sequential[RRDB_trunk]/RRDB[4]/ResidualDenseBlock_5C[RDB1]
  %911 : Float(1, 32, 256, 256) = onnx::Conv[dilations=[1, 1], group=1, kernel_shape=[3, 3], pads=[1, 1, 1, 1], strides=[1, 1]](%910, %RRDB_trunk.4.RDB1.conv2.weight, %RRDB_trunk.4.RDB1.conv2.bias), scope: RRDBNet/Sequential[RRDB_trunk]/RRDB[4]/ResidualDenseBlock_5C[RDB1]/Conv2d[conv2]
  %912 : Float(1, 32, 256, 256) = onnx::LeakyRelu[alpha=0.2](%911), scope: RRDBNet/Sequential[RRDB_trunk]/RRDB[4]/ResidualDenseBlock_5C[RDB1]/LeakyReLU[lrelu]
  %913 : Float(1, 128, 256, 256) = onnx::Concat[axis=1](%907, %909, %912), scope: RRDBNet/Sequential[RRDB_trunk]/RRDB[4]/ResidualDenseBlock_5C[RDB1]
  %914 : Float(1, 32, 256, 256) = onnx::Conv[dilations=[1, 1], group=1, kernel_shape=[3, 3], pads=[1, 1, 1, 1], strides=[1, 1]](%913, %RRDB_trunk.4.RDB1.conv3.weight, %RRDB_trunk.4.RDB1.conv3.bias), scope: RRDBNet/Sequential[RRDB_trunk]/RRDB[4]/ResidualDenseBlock_5C[RDB1]/Conv2d[conv3]
  %915 : Float(1, 32, 256, 256) = onnx::LeakyRelu[alpha=0.2](%914), scope: RRDBNet/Sequential[RRDB_trunk]/RRDB[4]/ResidualDenseBlock_5C[RDB1]/LeakyReLU[lrelu]
  %916 : Float(1, 160, 256, 256) = onnx::Concat[axis=1](%907, %909, %912, %915), scope: RRDBNet/Sequential[RRDB_trunk]/RRDB[4]/ResidualDenseBlock_5C[RDB1]
  %917 : Float(1, 32, 256, 256) = onnx::Conv[dilations=[1, 1], group=1, kernel_shape=[3, 3], pads=[1, 1, 1, 1], strides=[1, 1]](%916, %RRDB_trunk.4.RDB1.conv4.weight, %RRDB_trunk.4.RDB1.conv4.bias), scope: RRDBNet/Sequential[RRDB_trunk]/RRDB[4]/ResidualDenseBlock_5C[RDB1]/Conv2d[conv4]
  %918 : Float(1, 32, 256, 256) = onnx::LeakyRelu[alpha=0.2](%917), scope: RRDBNet/Sequential[RRDB_trunk]/RRDB[4]/ResidualDenseBlock_5C[RDB1]/LeakyReLU[lrelu]
  %919 : Float(1, 192, 256, 256) = onnx::Concat[axis=1](%907, %909, %912, %915, %918), scope: RRDBNet/Sequential[RRDB_trunk]/RRDB[4]/ResidualDenseBlock_5C[RDB1]
  %920 : Float(1, 64, 256, 256) = onnx::Conv[dilations=[1, 1], group=1, kernel_shape=[3, 3], pads=[1, 1, 1, 1], strides=[1, 1]](%919, %RRDB_trunk.4.RDB1.conv5.weight, %RRDB_trunk.4.RDB1.conv5.bias), scope: RRDBNet/Sequential[RRDB_trunk]/RRDB[4]/ResidualDenseBlock_5C[RDB1]/Conv2d[conv5]
  %921 : Tensor = onnx::Constant[value={0.2}]()
  %922 : Tensor = onnx::Mul(%920, %921)
  %923 : Float(1, 64, 256, 256) = onnx::Add(%922, %907), scope: RRDBNet/Sequential[RRDB_trunk]/RRDB[4]/ResidualDenseBlock_5C[RDB1]
  %924 : Float(1, 32, 256, 256) = onnx::Conv[dilations=[1, 1], group=1, kernel_shape=[3, 3], pads=[1, 1, 1, 1], strides=[1, 1]](%923, %RRDB_trunk.4.RDB2.conv1.weight, %RRDB_trunk.4.RDB2.conv1.bias), scope: RRDBNet/Sequential[RRDB_trunk]/RRDB[4]/ResidualDenseBlock_5C[RDB2]/Conv2d[conv1]
  %925 : Float(1, 32, 256, 256) = onnx::LeakyRelu[alpha=0.2](%924), scope: RRDBNet/Sequential[RRDB_trunk]/RRDB[4]/ResidualDenseBlock_5C[RDB2]/LeakyReLU[lrelu]
  %926 : Float(1, 96, 256, 256) = onnx::Concat[axis=1](%923, %925), scope: RRDBNet/Sequential[RRDB_trunk]/RRDB[4]/ResidualDenseBlock_5C[RDB2]
  %927 : Float(1, 32, 256, 256) = onnx::Conv[dilations=[1, 1], group=1, kernel_shape=[3, 3], pads=[1, 1, 1, 1], strides=[1, 1]](%926, %RRDB_trunk.4.RDB2.conv2.weight, %RRDB_trunk.4.RDB2.conv2.bias), scope: RRDBNet/Sequential[RRDB_trunk]/RRDB[4]/ResidualDenseBlock_5C[RDB2]/Conv2d[conv2]
  %928 : Float(1, 32, 256, 256) = onnx::LeakyRelu[alpha=0.2](%927), scope: RRDBNet/Sequential[RRDB_trunk]/RRDB[4]/ResidualDenseBlock_5C[RDB2]/LeakyReLU[lrelu]
  %929 : Float(1, 128, 256, 256) = onnx::Concat[axis=1](%923, %925, %928), scope: RRDBNet/Sequential[RRDB_trunk]/RRDB[4]/ResidualDenseBlock_5C[RDB2]
  %930 : Float(1, 32, 256, 256) = onnx::Conv[dilations=[1, 1], group=1, kernel_shape=[3, 3], pads=[1, 1, 1, 1], strides=[1, 1]](%929, %RRDB_trunk.4.RDB2.conv3.weight, %RRDB_trunk.4.RDB2.conv3.bias), scope: RRDBNet/Sequential[RRDB_trunk]/RRDB[4]/ResidualDenseBlock_5C[RDB2]/Conv2d[conv3]
  %931 : Float(1, 32, 256, 256) = onnx::LeakyRelu[alpha=0.2](%930), scope: RRDBNet/Sequential[RRDB_trunk]/RRDB[4]/ResidualDenseBlock_5C[RDB2]/LeakyReLU[lrelu]
  %932 : Float(1, 160, 256, 256) = onnx::Concat[axis=1](%923, %925, %928, %931), scope: RRDBNet/Sequential[RRDB_trunk]/RRDB[4]/ResidualDenseBlock_5C[RDB2]
  %933 : Float(1, 32, 256, 256) = onnx::Conv[dilations=[1, 1], group=1, kernel_shape=[3, 3], pads=[1, 1, 1, 1], strides=[1, 1]](%932, %RRDB_trunk.4.RDB2.conv4.weight, %RRDB_trunk.4.RDB2.conv4.bias), scope: RRDBNet/Sequential[RRDB_trunk]/RRDB[4]/ResidualDenseBlock_5C[RDB2]/Conv2d[conv4]
  %934 : Float(1, 32, 256, 256) = onnx::LeakyRelu[alpha=0.2](%933), scope: RRDBNet/Sequential[RRDB_trunk]/RRDB[4]/ResidualDenseBlock_5C[RDB2]/LeakyReLU[lrelu]
  %935 : Float(1, 192, 256, 256) = onnx::Concat[axis=1](%923, %925, %928, %931, %934), scope: RRDBNet/Sequential[RRDB_trunk]/RRDB[4]/ResidualDenseBlock_5C[RDB2]
  %936 : Float(1, 64, 256, 256) = onnx::Conv[dilations=[1, 1], group=1, kernel_shape=[3, 3], pads=[1, 1, 1, 1], strides=[1, 1]](%935, %RRDB_trunk.4.RDB2.conv5.weight, %RRDB_trunk.4.RDB2.conv5.bias), scope: RRDBNet/Sequential[RRDB_trunk]/RRDB[4]/ResidualDenseBlock_5C[RDB2]/Conv2d[conv5]
  %937 : Tensor = onnx::Constant[value={0.2}]()
  %938 : Tensor = onnx::Mul(%936, %937)
  %939 : Float(1, 64, 256, 256) = onnx::Add(%938, %923), scope: RRDBNet/Sequential[RRDB_trunk]/RRDB[4]/ResidualDenseBlock_5C[RDB2]
  %940 : Float(1, 32, 256, 256) = onnx::Conv[dilations=[1, 1], group=1, kernel_shape=[3, 3], pads=[1, 1, 1, 1], strides=[1, 1]](%939, %RRDB_trunk.4.RDB3.conv1.weight, %RRDB_trunk.4.RDB3.conv1.bias), scope: RRDBNet/Sequential[RRDB_trunk]/RRDB[4]/ResidualDenseBlock_5C[RDB3]/Conv2d[conv1]
  %941 : Float(1, 32, 256, 256) = onnx::LeakyRelu[alpha=0.2](%940), scope: RRDBNet/Sequential[RRDB_trunk]/RRDB[4]/ResidualDenseBlock_5C[RDB3]/LeakyReLU[lrelu]
  %942 : Float(1, 96, 256, 256) = onnx::Concat[axis=1](%939, %941), scope: RRDBNet/Sequential[RRDB_trunk]/RRDB[4]/ResidualDenseBlock_5C[RDB3]
  %943 : Float(1, 32, 256, 256) = onnx::Conv[dilations=[1, 1], group=1, kernel_shape=[3, 3], pads=[1, 1, 1, 1], strides=[1, 1]](%942, %RRDB_trunk.4.RDB3.conv2.weight, %RRDB_trunk.4.RDB3.conv2.bias), scope: RRDBNet/Sequential[RRDB_trunk]/RRDB[4]/ResidualDenseBlock_5C[RDB3]/Conv2d[conv2]
  %944 : Float(1, 32, 256, 256) = onnx::LeakyRelu[alpha=0.2](%943), scope: RRDBNet/Sequential[RRDB_trunk]/RRDB[4]/ResidualDenseBlock_5C[RDB3]/LeakyReLU[lrelu]
  %945 : Float(1, 128, 256, 256) = onnx::Concat[axis=1](%939, %941, %944), scope: RRDBNet/Sequential[RRDB_trunk]/RRDB[4]/ResidualDenseBlock_5C[RDB3]
  %946 : Float(1, 32, 256, 256) = onnx::Conv[dilations=[1, 1], group=1, kernel_shape=[3, 3], pads=[1, 1, 1, 1], strides=[1, 1]](%945, %RRDB_trunk.4.RDB3.conv3.weight, %RRDB_trunk.4.RDB3.conv3.bias), scope: RRDBNet/Sequential[RRDB_trunk]/RRDB[4]/ResidualDenseBlock_5C[RDB3]/Conv2d[conv3]
  %947 : Float(1, 32, 256, 256) = onnx::LeakyRelu[alpha=0.2](%946), scope: RRDBNet/Sequential[RRDB_trunk]/RRDB[4]/ResidualDenseBlock_5C[RDB3]/LeakyReLU[lrelu]
  %948 : Float(1, 160, 256, 256) = onnx::Concat[axis=1](%939, %941, %944, %947), scope: RRDBNet/Sequential[RRDB_trunk]/RRDB[4]/ResidualDenseBlock_5C[RDB3]
  %949 : Float(1, 32, 256, 256) = onnx::Conv[dilations=[1, 1], group=1, kernel_shape=[3, 3], pads=[1, 1, 1, 1], strides=[1, 1]](%948, %RRDB_trunk.4.RDB3.conv4.weight, %RRDB_trunk.4.RDB3.conv4.bias), scope: RRDBNet/Sequential[RRDB_trunk]/RRDB[4]/ResidualDenseBlock_5C[RDB3]/Conv2d[conv4]
  %950 : Float(1, 32, 256, 256) = onnx::LeakyRelu[alpha=0.2](%949), scope: RRDBNet/Sequential[RRDB_trunk]/RRDB[4]/ResidualDenseBlock_5C[RDB3]/LeakyReLU[lrelu]
  %951 : Float(1, 192, 256, 256) = onnx::Concat[axis=1](%939, %941, %944, %947, %950), scope: RRDBNet/Sequential[RRDB_trunk]/RRDB[4]/ResidualDenseBlock_5C[RDB3]
  %952 : Float(1, 64, 256, 256) = onnx::Conv[dilations=[1, 1], group=1, kernel_shape=[3, 3], pads=[1, 1, 1, 1], strides=[1, 1]](%951, %RRDB_trunk.4.RDB3.conv5.weight, %RRDB_trunk.4.RDB3.conv5.bias), scope: RRDBNet/Sequential[RRDB_trunk]/RRDB[4]/ResidualDenseBlock_5C[RDB3]/Conv2d[conv5]
  %953 : Tensor = onnx::Constant[value={0.2}]()
  %954 : Tensor = onnx::Mul(%952, %953)
  %955 : Float(1, 64, 256, 256) = onnx::Add(%954, %939), scope: RRDBNet/Sequential[RRDB_trunk]/RRDB[4]/ResidualDenseBlock_5C[RDB3]
  %956 : Tensor = onnx::Constant[value={0.2}]()
  %957 : Tensor = onnx::Mul(%955, %956)
  %958 : Float(1, 64, 256, 256) = onnx::Add(%957, %907), scope: RRDBNet/Sequential[RRDB_trunk]/RRDB[4]
  %959 : Float(1, 32, 256, 256) = onnx::Conv[dilations=[1, 1], group=1, kernel_shape=[3, 3], pads=[1, 1, 1, 1], strides=[1, 1]](%958, %RRDB_trunk.5.RDB1.conv1.weight, %RRDB_trunk.5.RDB1.conv1.bias), scope: RRDBNet/Sequential[RRDB_trunk]/RRDB[5]/ResidualDenseBlock_5C[RDB1]/Conv2d[conv1]
  %960 : Float(1, 32, 256, 256) = onnx::LeakyRelu[alpha=0.2](%959), scope: RRDBNet/Sequential[RRDB_trunk]/RRDB[5]/ResidualDenseBlock_5C[RDB1]/LeakyReLU[lrelu]
  %961 : Float(1, 96, 256, 256) = onnx::Concat[axis=1](%958, %960), scope: RRDBNet/Sequential[RRDB_trunk]/RRDB[5]/ResidualDenseBlock_5C[RDB1]
  %962 : Float(1, 32, 256, 256) = onnx::Conv[dilations=[1, 1], group=1, kernel_shape=[3, 3], pads=[1, 1, 1, 1], strides=[1, 1]](%961, %RRDB_trunk.5.RDB1.conv2.weight, %RRDB_trunk.5.RDB1.conv2.bias), scope: RRDBNet/Sequential[RRDB_trunk]/RRDB[5]/ResidualDenseBlock_5C[RDB1]/Conv2d[conv2]
  %963 : Float(1, 32, 256, 256) = onnx::LeakyRelu[alpha=0.2](%962), scope: RRDBNet/Sequential[RRDB_trunk]/RRDB[5]/ResidualDenseBlock_5C[RDB1]/LeakyReLU[lrelu]
  %964 : Float(1, 128, 256, 256) = onnx::Concat[axis=1](%958, %960, %963), scope: RRDBNet/Sequential[RRDB_trunk]/RRDB[5]/ResidualDenseBlock_5C[RDB1]
  %965 : Float(1, 32, 256, 256) = onnx::Conv[dilations=[1, 1], group=1, kernel_shape=[3, 3], pads=[1, 1, 1, 1], strides=[1, 1]](%964, %RRDB_trunk.5.RDB1.conv3.weight, %RRDB_trunk.5.RDB1.conv3.bias), scope: RRDBNet/Sequential[RRDB_trunk]/RRDB[5]/ResidualDenseBlock_5C[RDB1]/Conv2d[conv3]
  %966 : Float(1, 32, 256, 256) = onnx::LeakyRelu[alpha=0.2](%965), scope: RRDBNet/Sequential[RRDB_trunk]/RRDB[5]/ResidualDenseBlock_5C[RDB1]/LeakyReLU[lrelu]
  %967 : Float(1, 160, 256, 256) = onnx::Concat[axis=1](%958, %960, %963, %966), scope: RRDBNet/Sequential[RRDB_trunk]/RRDB[5]/ResidualDenseBlock_5C[RDB1]
  %968 : Float(1, 32, 256, 256) = onnx::Conv[dilations=[1, 1], group=1, kernel_shape=[3, 3], pads=[1, 1, 1, 1], strides=[1, 1]](%967, %RRDB_trunk.5.RDB1.conv4.weight, %RRDB_trunk.5.RDB1.conv4.bias), scope: RRDBNet/Sequential[RRDB_trunk]/RRDB[5]/ResidualDenseBlock_5C[RDB1]/Conv2d[conv4]
  %969 : Float(1, 32, 256, 256) = onnx::LeakyRelu[alpha=0.2](%968), scope: RRDBNet/Sequential[RRDB_trunk]/RRDB[5]/ResidualDenseBlock_5C[RDB1]/LeakyReLU[lrelu]
  %970 : Float(1, 192, 256, 256) = onnx::Concat[axis=1](%958, %960, %963, %966, %969), scope: RRDBNet/Sequential[RRDB_trunk]/RRDB[5]/ResidualDenseBlock_5C[RDB1]
  %971 : Float(1, 64, 256, 256) = onnx::Conv[dilations=[1, 1], group=1, kernel_shape=[3, 3], pads=[1, 1, 1, 1], strides=[1, 1]](%970, %RRDB_trunk.5.RDB1.conv5.weight, %RRDB_trunk.5.RDB1.conv5.bias), scope: RRDBNet/Sequential[RRDB_trunk]/RRDB[5]/ResidualDenseBlock_5C[RDB1]/Conv2d[conv5]
  %972 : Tensor = onnx::Constant[value={0.2}]()
  %973 : Tensor = onnx::Mul(%971, %972)
  %974 : Float(1, 64, 256, 256) = onnx::Add(%973, %958), scope: RRDBNet/Sequential[RRDB_trunk]/RRDB[5]/ResidualDenseBlock_5C[RDB1]
  %975 : Float(1, 32, 256, 256) = onnx::Conv[dilations=[1, 1], group=1, kernel_shape=[3, 3], pads=[1, 1, 1, 1], strides=[1, 1]](%974, %RRDB_trunk.5.RDB2.conv1.weight, %RRDB_trunk.5.RDB2.conv1.bias), scope: RRDBNet/Sequential[RRDB_trunk]/RRDB[5]/ResidualDenseBlock_5C[RDB2]/Conv2d[conv1]
  %976 : Float(1, 32, 256, 256) = onnx::LeakyRelu[alpha=0.2](%975), scope: RRDBNet/Sequential[RRDB_trunk]/RRDB[5]/ResidualDenseBlock_5C[RDB2]/LeakyReLU[lrelu]
  %977 : Float(1, 96, 256, 256) = onnx::Concat[axis=1](%974, %976), scope: RRDBNet/Sequential[RRDB_trunk]/RRDB[5]/ResidualDenseBlock_5C[RDB2]
  %978 : Float(1, 32, 256, 256) = onnx::Conv[dilations=[1, 1], group=1, kernel_shape=[3, 3], pads=[1, 1, 1, 1], strides=[1, 1]](%977, %RRDB_trunk.5.RDB2.conv2.weight, %RRDB_trunk.5.RDB2.conv2.bias), scope: RRDBNet/Sequential[RRDB_trunk]/RRDB[5]/ResidualDenseBlock_5C[RDB2]/Conv2d[conv2]
  %979 : Float(1, 32, 256, 256) = onnx::LeakyRelu[alpha=0.2](%978), scope: RRDBNet/Sequential[RRDB_trunk]/RRDB[5]/ResidualDenseBlock_5C[RDB2]/LeakyReLU[lrelu]
  %980 : Float(1, 128, 256, 256) = onnx::Concat[axis=1](%974, %976, %979), scope: RRDBNet/Sequential[RRDB_trunk]/RRDB[5]/ResidualDenseBlock_5C[RDB2]
  %981 : Float(1, 32, 256, 256) = onnx::Conv[dilations=[1, 1], group=1, kernel_shape=[3, 3], pads=[1, 1, 1, 1], strides=[1, 1]](%980, %RRDB_trunk.5.RDB2.conv3.weight, %RRDB_trunk.5.RDB2.conv3.bias), scope: RRDBNet/Sequential[RRDB_trunk]/RRDB[5]/ResidualDenseBlock_5C[RDB2]/Conv2d[conv3]
  %982 : Float(1, 32, 256, 256) = onnx::LeakyRelu[alpha=0.2](%981), scope: RRDBNet/Sequential[RRDB_trunk]/RRDB[5]/ResidualDenseBlock_5C[RDB2]/LeakyReLU[lrelu]
  %983 : Float(1, 160, 256, 256) = onnx::Concat[axis=1](%974, %976, %979, %982), scope: RRDBNet/Sequential[RRDB_trunk]/RRDB[5]/ResidualDenseBlock_5C[RDB2]
  %984 : Float(1, 32, 256, 256) = onnx::Conv[dilations=[1, 1], group=1, kernel_shape=[3, 3], pads=[1, 1, 1, 1], strides=[1, 1]](%983, %RRDB_trunk.5.RDB2.conv4.weight, %RRDB_trunk.5.RDB2.conv4.bias), scope: RRDBNet/Sequential[RRDB_trunk]/RRDB[5]/ResidualDenseBlock_5C[RDB2]/Conv2d[conv4]
  %985 : Float(1, 32, 256, 256) = onnx::LeakyRelu[alpha=0.2](%984), scope: RRDBNet/Sequential[RRDB_trunk]/RRDB[5]/ResidualDenseBlock_5C[RDB2]/LeakyReLU[lrelu]
  %986 : Float(1, 192, 256, 256) = onnx::Concat[axis=1](%974, %976, %979, %982, %985), scope: RRDBNet/Sequential[RRDB_trunk]/RRDB[5]/ResidualDenseBlock_5C[RDB2]
  %987 : Float(1, 64, 256, 256) = onnx::Conv[dilations=[1, 1], group=1, kernel_shape=[3, 3], pads=[1, 1, 1, 1], strides=[1, 1]](%986, %RRDB_trunk.5.RDB2.conv5.weight, %RRDB_trunk.5.RDB2.conv5.bias), scope: RRDBNet/Sequential[RRDB_trunk]/RRDB[5]/ResidualDenseBlock_5C[RDB2]/Conv2d[conv5]
  %988 : Tensor = onnx::Constant[value={0.2}]()
  %989 : Tensor = onnx::Mul(%987, %988)
  %990 : Float(1, 64, 256, 256) = onnx::Add(%989, %974), scope: RRDBNet/Sequential[RRDB_trunk]/RRDB[5]/ResidualDenseBlock_5C[RDB2]
  %991 : Float(1, 32, 256, 256) = onnx::Conv[dilations=[1, 1], group=1, kernel_shape=[3, 3], pads=[1, 1, 1, 1], strides=[1, 1]](%990, %RRDB_trunk.5.RDB3.conv1.weight, %RRDB_trunk.5.RDB3.conv1.bias), scope: RRDBNet/Sequential[RRDB_trunk]/RRDB[5]/ResidualDenseBlock_5C[RDB3]/Conv2d[conv1]
  %992 : Float(1, 32, 256, 256) = onnx::LeakyRelu[alpha=0.2](%991), scope: RRDBNet/Sequential[RRDB_trunk]/RRDB[5]/ResidualDenseBlock_5C[RDB3]/LeakyReLU[lrelu]
  %993 : Float(1, 96, 256, 256) = onnx::Concat[axis=1](%990, %992), scope: RRDBNet/Sequential[RRDB_trunk]/RRDB[5]/ResidualDenseBlock_5C[RDB3]
  %994 : Float(1, 32, 256, 256) = onnx::Conv[dilations=[1, 1], group=1, kernel_shape=[3, 3], pads=[1, 1, 1, 1], strides=[1, 1]](%993, %RRDB_trunk.5.RDB3.conv2.weight, %RRDB_trunk.5.RDB3.conv2.bias), scope: RRDBNet/Sequential[RRDB_trunk]/RRDB[5]/ResidualDenseBlock_5C[RDB3]/Conv2d[conv2]
  %995 : Float(1, 32, 256, 256) = onnx::LeakyRelu[alpha=0.2](%994), scope: RRDBNet/Sequential[RRDB_trunk]/RRDB[5]/ResidualDenseBlock_5C[RDB3]/LeakyReLU[lrelu]
  %996 : Float(1, 128, 256, 256) = onnx::Concat[axis=1](%990, %992, %995), scope: RRDBNet/Sequential[RRDB_trunk]/RRDB[5]/ResidualDenseBlock_5C[RDB3]
  %997 : Float(1, 32, 256, 256) = onnx::Conv[dilations=[1, 1], group=1, kernel_shape=[3, 3], pads=[1, 1, 1, 1], strides=[1, 1]](%996, %RRDB_trunk.5.RDB3.conv3.weight, %RRDB_trunk.5.RDB3.conv3.bias), scope: RRDBNet/Sequential[RRDB_trunk]/RRDB[5]/ResidualDenseBlock_5C[RDB3]/Conv2d[conv3]
  %998 : Float(1, 32, 256, 256) = onnx::LeakyRelu[alpha=0.2](%997), scope: RRDBNet/Sequential[RRDB_trunk]/RRDB[5]/ResidualDenseBlock_5C[RDB3]/LeakyReLU[lrelu]
  %999 : Float(1, 160, 256, 256) = onnx::Concat[axis=1](%990, %992, %995, %998), scope: RRDBNet/Sequential[RRDB_trunk]/RRDB[5]/ResidualDenseBlock_5C[RDB3]
  %1000 : Float(1, 32, 256, 256) = onnx::Conv[dilations=[1, 1], group=1, kernel_shape=[3, 3], pads=[1, 1, 1, 1], strides=[1, 1]](%999, %RRDB_trunk.5.RDB3.conv4.weight, %RRDB_trunk.5.RDB3.conv4.bias), scope: RRDBNet/Sequential[RRDB_trunk]/RRDB[5]/ResidualDenseBlock_5C[RDB3]/Conv2d[conv4]
  %1001 : Float(1, 32, 256, 256) = onnx::LeakyRelu[alpha=0.2](%1000), scope: RRDBNet/Sequential[RRDB_trunk]/RRDB[5]/ResidualDenseBlock_5C[RDB3]/LeakyReLU[lrelu]
  %1002 : Float(1, 192, 256, 256) = onnx::Concat[axis=1](%990, %992, %995, %998, %1001), scope: RRDBNet/Sequential[RRDB_trunk]/RRDB[5]/ResidualDenseBlock_5C[RDB3]
  %1003 : Float(1, 64, 256, 256) = onnx::Conv[dilations=[1, 1], group=1, kernel_shape=[3, 3], pads=[1, 1, 1, 1], strides=[1, 1]](%1002, %RRDB_trunk.5.RDB3.conv5.weight, %RRDB_trunk.5.RDB3.conv5.bias), scope: RRDBNet/Sequential[RRDB_trunk]/RRDB[5]/ResidualDenseBlock_5C[RDB3]/Conv2d[conv5]
  %1004 : Tensor = onnx::Constant[value={0.2}]()
  %1005 : Tensor = onnx::Mul(%1003, %1004)
  %1006 : Float(1, 64, 256, 256) = onnx::Add(%1005, %990), scope: RRDBNet/Sequential[RRDB_trunk]/RRDB[5]/ResidualDenseBlock_5C[RDB3]
  %1007 : Tensor = onnx::Constant[value={0.2}]()
  %1008 : Tensor = onnx::Mul(%1006, %1007)
  %1009 : Float(1, 64, 256, 256) = onnx::Add(%1008, %958), scope: RRDBNet/Sequential[RRDB_trunk]/RRDB[5]
  %1010 : Float(1, 32, 256, 256) = onnx::Conv[dilations=[1, 1], group=1, kernel_shape=[3, 3], pads=[1, 1, 1, 1], strides=[1, 1]](%1009, %RRDB_trunk.6.RDB1.conv1.weight, %RRDB_trunk.6.RDB1.conv1.bias), scope: RRDBNet/Sequential[RRDB_trunk]/RRDB[6]/ResidualDenseBlock_5C[RDB1]/Conv2d[conv1]
  %1011 : Float(1, 32, 256, 256) = onnx::LeakyRelu[alpha=0.2](%1010), scope: RRDBNet/Sequential[RRDB_trunk]/RRDB[6]/ResidualDenseBlock_5C[RDB1]/LeakyReLU[lrelu]
  %1012 : Float(1, 96, 256, 256) = onnx::Concat[axis=1](%1009, %1011), scope: RRDBNet/Sequential[RRDB_trunk]/RRDB[6]/ResidualDenseBlock_5C[RDB1]
  %1013 : Float(1, 32, 256, 256) = onnx::Conv[dilations=[1, 1], group=1, kernel_shape=[3, 3], pads=[1, 1, 1, 1], strides=[1, 1]](%1012, %RRDB_trunk.6.RDB1.conv2.weight, %RRDB_trunk.6.RDB1.conv2.bias), scope: RRDBNet/Sequential[RRDB_trunk]/RRDB[6]/ResidualDenseBlock_5C[RDB1]/Conv2d[conv2]
  %1014 : Float(1, 32, 256, 256) = onnx::LeakyRelu[alpha=0.2](%1013), scope: RRDBNet/Sequential[RRDB_trunk]/RRDB[6]/ResidualDenseBlock_5C[RDB1]/LeakyReLU[lrelu]
  %1015 : Float(1, 128, 256, 256) = onnx::Concat[axis=1](%1009, %1011, %1014), scope: RRDBNet/Sequential[RRDB_trunk]/RRDB[6]/ResidualDenseBlock_5C[RDB1]
  %1016 : Float(1, 32, 256, 256) = onnx::Conv[dilations=[1, 1], group=1, kernel_shape=[3, 3], pads=[1, 1, 1, 1], strides=[1, 1]](%1015, %RRDB_trunk.6.RDB1.conv3.weight, %RRDB_trunk.6.RDB1.conv3.bias), scope: RRDBNet/Sequential[RRDB_trunk]/RRDB[6]/ResidualDenseBlock_5C[RDB1]/Conv2d[conv3]
  %1017 : Float(1, 32, 256, 256) = onnx::LeakyRelu[alpha=0.2](%1016), scope: RRDBNet/Sequential[RRDB_trunk]/RRDB[6]/ResidualDenseBlock_5C[RDB1]/LeakyReLU[lrelu]
  %1018 : Float(1, 160, 256, 256) = onnx::Concat[axis=1](%1009, %1011, %1014, %1017), scope: RRDBNet/Sequential[RRDB_trunk]/RRDB[6]/ResidualDenseBlock_5C[RDB1]
  %1019 : Float(1, 32, 256, 256) = onnx::Conv[dilations=[1, 1], group=1, kernel_shape=[3, 3], pads=[1, 1, 1, 1], strides=[1, 1]](%1018, %RRDB_trunk.6.RDB1.conv4.weight, %RRDB_trunk.6.RDB1.conv4.bias), scope: RRDBNet/Sequential[RRDB_trunk]/RRDB[6]/ResidualDenseBlock_5C[RDB1]/Conv2d[conv4]
  %1020 : Float(1, 32, 256, 256) = onnx::LeakyRelu[alpha=0.2](%1019), scope: RRDBNet/Sequential[RRDB_trunk]/RRDB[6]/ResidualDenseBlock_5C[RDB1]/LeakyReLU[lrelu]
  %1021 : Float(1, 192, 256, 256) = onnx::Concat[axis=1](%1009, %1011, %1014, %1017, %1020), scope: RRDBNet/Sequential[RRDB_trunk]/RRDB[6]/ResidualDenseBlock_5C[RDB1]
  %1022 : Float(1, 64, 256, 256) = onnx::Conv[dilations=[1, 1], group=1, kernel_shape=[3, 3], pads=[1, 1, 1, 1], strides=[1, 1]](%1021, %RRDB_trunk.6.RDB1.conv5.weight, %RRDB_trunk.6.RDB1.conv5.bias), scope: RRDBNet/Sequential[RRDB_trunk]/RRDB[6]/ResidualDenseBlock_5C[RDB1]/Conv2d[conv5]
  %1023 : Tensor = onnx::Constant[value={0.2}]()
  %1024 : Tensor = onnx::Mul(%1022, %1023)
  %1025 : Float(1, 64, 256, 256) = onnx::Add(%1024, %1009), scope: RRDBNet/Sequential[RRDB_trunk]/RRDB[6]/ResidualDenseBlock_5C[RDB1]
  %1026 : Float(1, 32, 256, 256) = onnx::Conv[dilations=[1, 1], group=1, kernel_shape=[3, 3], pads=[1, 1, 1, 1], strides=[1, 1]](%1025, %RRDB_trunk.6.RDB2.conv1.weight, %RRDB_trunk.6.RDB2.conv1.bias), scope: RRDBNet/Sequential[RRDB_trunk]/RRDB[6]/ResidualDenseBlock_5C[RDB2]/Conv2d[conv1]
  %1027 : Float(1, 32, 256, 256) = onnx::LeakyRelu[alpha=0.2](%1026), scope: RRDBNet/Sequential[RRDB_trunk]/RRDB[6]/ResidualDenseBlock_5C[RDB2]/LeakyReLU[lrelu]
  %1028 : Float(1, 96, 256, 256) = onnx::Concat[axis=1](%1025, %1027), scope: RRDBNet/Sequential[RRDB_trunk]/RRDB[6]/ResidualDenseBlock_5C[RDB2]
  %1029 : Float(1, 32, 256, 256) = onnx::Conv[dilations=[1, 1], group=1, kernel_shape=[3, 3], pads=[1, 1, 1, 1], strides=[1, 1]](%1028, %RRDB_trunk.6.RDB2.conv2.weight, %RRDB_trunk.6.RDB2.conv2.bias), scope: RRDBNet/Sequential[RRDB_trunk]/RRDB[6]/ResidualDenseBlock_5C[RDB2]/Conv2d[conv2]
  %1030 : Float(1, 32, 256, 256) = onnx::LeakyRelu[alpha=0.2](%1029), scope: RRDBNet/Sequential[RRDB_trunk]/RRDB[6]/ResidualDenseBlock_5C[RDB2]/LeakyReLU[lrelu]
  %1031 : Float(1, 128, 256, 256) = onnx::Concat[axis=1](%1025, %1027, %1030), scope: RRDBNet/Sequential[RRDB_trunk]/RRDB[6]/ResidualDenseBlock_5C[RDB2]
  %1032 : Float(1, 32, 256, 256) = onnx::Conv[dilations=[1, 1], group=1, kernel_shape=[3, 3], pads=[1, 1, 1, 1], strides=[1, 1]](%1031, %RRDB_trunk.6.RDB2.conv3.weight, %RRDB_trunk.6.RDB2.conv3.bias), scope: RRDBNet/Sequential[RRDB_trunk]/RRDB[6]/ResidualDenseBlock_5C[RDB2]/Conv2d[conv3]
  %1033 : Float(1, 32, 256, 256) = onnx::LeakyRelu[alpha=0.2](%1032), scope: RRDBNet/Sequential[RRDB_trunk]/RRDB[6]/ResidualDenseBlock_5C[RDB2]/LeakyReLU[lrelu]
  %1034 : Float(1, 160, 256, 256) = onnx::Concat[axis=1](%1025, %1027, %1030, %1033), scope: RRDBNet/Sequential[RRDB_trunk]/RRDB[6]/ResidualDenseBlock_5C[RDB2]
  %1035 : Float(1, 32, 256, 256) = onnx::Conv[dilations=[1, 1], group=1, kernel_shape=[3, 3], pads=[1, 1, 1, 1], strides=[1, 1]](%1034, %RRDB_trunk.6.RDB2.conv4.weight, %RRDB_trunk.6.RDB2.conv4.bias), scope: RRDBNet/Sequential[RRDB_trunk]/RRDB[6]/ResidualDenseBlock_5C[RDB2]/Conv2d[conv4]
  %1036 : Float(1, 32, 256, 256) = onnx::LeakyRelu[alpha=0.2](%1035), scope: RRDBNet/Sequential[RRDB_trunk]/RRDB[6]/ResidualDenseBlock_5C[RDB2]/LeakyReLU[lrelu]
  %1037 : Float(1, 192, 256, 256) = onnx::Concat[axis=1](%1025, %1027, %1030, %1033, %1036), scope: RRDBNet/Sequential[RRDB_trunk]/RRDB[6]/ResidualDenseBlock_5C[RDB2]
  %1038 : Float(1, 64, 256, 256) = onnx::Conv[dilations=[1, 1], group=1, kernel_shape=[3, 3], pads=[1, 1, 1, 1], strides=[1, 1]](%1037, %RRDB_trunk.6.RDB2.conv5.weight, %RRDB_trunk.6.RDB2.conv5.bias), scope: RRDBNet/Sequential[RRDB_trunk]/RRDB[6]/ResidualDenseBlock_5C[RDB2]/Conv2d[conv5]
  %1039 : Tensor = onnx::Constant[value={0.2}]()
  %1040 : Tensor = onnx::Mul(%1038, %1039)
  %1041 : Float(1, 64, 256, 256) = onnx::Add(%1040, %1025), scope: RRDBNet/Sequential[RRDB_trunk]/RRDB[6]/ResidualDenseBlock_5C[RDB2]
  %1042 : Float(1, 32, 256, 256) = onnx::Conv[dilations=[1, 1], group=1, kernel_shape=[3, 3], pads=[1, 1, 1, 1], strides=[1, 1]](%1041, %RRDB_trunk.6.RDB3.conv1.weight, %RRDB_trunk.6.RDB3.conv1.bias), scope: RRDBNet/Sequential[RRDB_trunk]/RRDB[6]/ResidualDenseBlock_5C[RDB3]/Conv2d[conv1]
  %1043 : Float(1, 32, 256, 256) = onnx::LeakyRelu[alpha=0.2](%1042), scope: RRDBNet/Sequential[RRDB_trunk]/RRDB[6]/ResidualDenseBlock_5C[RDB3]/LeakyReLU[lrelu]
  %1044 : Float(1, 96, 256, 256) = onnx::Concat[axis=1](%1041, %1043), scope: RRDBNet/Sequential[RRDB_trunk]/RRDB[6]/ResidualDenseBlock_5C[RDB3]
  %1045 : Float(1, 32, 256, 256) = onnx::Conv[dilations=[1, 1], group=1, kernel_shape=[3, 3], pads=[1, 1, 1, 1], strides=[1, 1]](%1044, %RRDB_trunk.6.RDB3.conv2.weight, %RRDB_trunk.6.RDB3.conv2.bias), scope: RRDBNet/Sequential[RRDB_trunk]/RRDB[6]/ResidualDenseBlock_5C[RDB3]/Conv2d[conv2]
  %1046 : Float(1, 32, 256, 256) = onnx::LeakyRelu[alpha=0.2](%1045), scope: RRDBNet/Sequential[RRDB_trunk]/RRDB[6]/ResidualDenseBlock_5C[RDB3]/LeakyReLU[lrelu]
  %1047 : Float(1, 128, 256, 256) = onnx::Concat[axis=1](%1041, %1043, %1046), scope: RRDBNet/Sequential[RRDB_trunk]/RRDB[6]/ResidualDenseBlock_5C[RDB3]
  %1048 : Float(1, 32, 256, 256) = onnx::Conv[dilations=[1, 1], group=1, kernel_shape=[3, 3], pads=[1, 1, 1, 1], strides=[1, 1]](%1047, %RRDB_trunk.6.RDB3.conv3.weight, %RRDB_trunk.6.RDB3.conv3.bias), scope: RRDBNet/Sequential[RRDB_trunk]/RRDB[6]/ResidualDenseBlock_5C[RDB3]/Conv2d[conv3]
  %1049 : Float(1, 32, 256, 256) = onnx::LeakyRelu[alpha=0.2](%1048), scope: RRDBNet/Sequential[RRDB_trunk]/RRDB[6]/ResidualDenseBlock_5C[RDB3]/LeakyReLU[lrelu]
  %1050 : Float(1, 160, 256, 256) = onnx::Concat[axis=1](%1041, %1043, %1046, %1049), scope: RRDBNet/Sequential[RRDB_trunk]/RRDB[6]/ResidualDenseBlock_5C[RDB3]
  %1051 : Float(1, 32, 256, 256) = onnx::Conv[dilations=[1, 1], group=1, kernel_shape=[3, 3], pads=[1, 1, 1, 1], strides=[1, 1]](%1050, %RRDB_trunk.6.RDB3.conv4.weight, %RRDB_trunk.6.RDB3.conv4.bias), scope: RRDBNet/Sequential[RRDB_trunk]/RRDB[6]/ResidualDenseBlock_5C[RDB3]/Conv2d[conv4]
  %1052 : Float(1, 32, 256, 256) = onnx::LeakyRelu[alpha=0.2](%1051), scope: RRDBNet/Sequential[RRDB_trunk]/RRDB[6]/ResidualDenseBlock_5C[RDB3]/LeakyReLU[lrelu]
  %1053 : Float(1, 192, 256, 256) = onnx::Concat[axis=1](%1041, %1043, %1046, %1049, %1052), scope: RRDBNet/Sequential[RRDB_trunk]/RRDB[6]/ResidualDenseBlock_5C[RDB3]
  %1054 : Float(1, 64, 256, 256) = onnx::Conv[dilations=[1, 1], group=1, kernel_shape=[3, 3], pads=[1, 1, 1, 1], strides=[1, 1]](%1053, %RRDB_trunk.6.RDB3.conv5.weight, %RRDB_trunk.6.RDB3.conv5.bias), scope: RRDBNet/Sequential[RRDB_trunk]/RRDB[6]/ResidualDenseBlock_5C[RDB3]/Conv2d[conv5]
  %1055 : Tensor = onnx::Constant[value={0.2}]()
  %1056 : Tensor = onnx::Mul(%1054, %1055)
  %1057 : Float(1, 64, 256, 256) = onnx::Add(%1056, %1041), scope: RRDBNet/Sequential[RRDB_trunk]/RRDB[6]/ResidualDenseBlock_5C[RDB3]
  %1058 : Tensor = onnx::Constant[value={0.2}]()
  %1059 : Tensor = onnx::Mul(%1057, %1058)
  %1060 : Float(1, 64, 256, 256) = onnx::Add(%1059, %1009), scope: RRDBNet/Sequential[RRDB_trunk]/RRDB[6]
  %1061 : Float(1, 32, 256, 256) = onnx::Conv[dilations=[1, 1], group=1, kernel_shape=[3, 3], pads=[1, 1, 1, 1], strides=[1, 1]](%1060, %RRDB_trunk.7.RDB1.conv1.weight, %RRDB_trunk.7.RDB1.conv1.bias), scope: RRDBNet/Sequential[RRDB_trunk]/RRDB[7]/ResidualDenseBlock_5C[RDB1]/Conv2d[conv1]
  %1062 : Float(1, 32, 256, 256) = onnx::LeakyRelu[alpha=0.2](%1061), scope: RRDBNet/Sequential[RRDB_trunk]/RRDB[7]/ResidualDenseBlock_5C[RDB1]/LeakyReLU[lrelu]
  %1063 : Float(1, 96, 256, 256) = onnx::Concat[axis=1](%1060, %1062), scope: RRDBNet/Sequential[RRDB_trunk]/RRDB[7]/ResidualDenseBlock_5C[RDB1]
  %1064 : Float(1, 32, 256, 256) = onnx::Conv[dilations=[1, 1], group=1, kernel_shape=[3, 3], pads=[1, 1, 1, 1], strides=[1, 1]](%1063, %RRDB_trunk.7.RDB1.conv2.weight, %RRDB_trunk.7.RDB1.conv2.bias), scope: RRDBNet/Sequential[RRDB_trunk]/RRDB[7]/ResidualDenseBlock_5C[RDB1]/Conv2d[conv2]
  %1065 : Float(1, 32, 256, 256) = onnx::LeakyRelu[alpha=0.2](%1064), scope: RRDBNet/Sequential[RRDB_trunk]/RRDB[7]/ResidualDenseBlock_5C[RDB1]/LeakyReLU[lrelu]
  %1066 : Float(1, 128, 256, 256) = onnx::Concat[axis=1](%1060, %1062, %1065), scope: RRDBNet/Sequential[RRDB_trunk]/RRDB[7]/ResidualDenseBlock_5C[RDB1]
  %1067 : Float(1, 32, 256, 256) = onnx::Conv[dilations=[1, 1], group=1, kernel_shape=[3, 3], pads=[1, 1, 1, 1], strides=[1, 1]](%1066, %RRDB_trunk.7.RDB1.conv3.weight, %RRDB_trunk.7.RDB1.conv3.bias), scope: RRDBNet/Sequential[RRDB_trunk]/RRDB[7]/ResidualDenseBlock_5C[RDB1]/Conv2d[conv3]
  %1068 : Float(1, 32, 256, 256) = onnx::LeakyRelu[alpha=0.2](%1067), scope: RRDBNet/Sequential[RRDB_trunk]/RRDB[7]/ResidualDenseBlock_5C[RDB1]/LeakyReLU[lrelu]
  %1069 : Float(1, 160, 256, 256) = onnx::Concat[axis=1](%1060, %1062, %1065, %1068), scope: RRDBNet/Sequential[RRDB_trunk]/RRDB[7]/ResidualDenseBlock_5C[RDB1]
  %1070 : Float(1, 32, 256, 256) = onnx::Conv[dilations=[1, 1], group=1, kernel_shape=[3, 3], pads=[1, 1, 1, 1], strides=[1, 1]](%1069, %RRDB_trunk.7.RDB1.conv4.weight, %RRDB_trunk.7.RDB1.conv4.bias), scope: RRDBNet/Sequential[RRDB_trunk]/RRDB[7]/ResidualDenseBlock_5C[RDB1]/Conv2d[conv4]
  %1071 : Float(1, 32, 256, 256) = onnx::LeakyRelu[alpha=0.2](%1070), scope: RRDBNet/Sequential[RRDB_trunk]/RRDB[7]/ResidualDenseBlock_5C[RDB1]/LeakyReLU[lrelu]
  %1072 : Float(1, 192, 256, 256) = onnx::Concat[axis=1](%1060, %1062, %1065, %1068, %1071), scope: RRDBNet/Sequential[RRDB_trunk]/RRDB[7]/ResidualDenseBlock_5C[RDB1]
  %1073 : Float(1, 64, 256, 256) = onnx::Conv[dilations=[1, 1], group=1, kernel_shape=[3, 3], pads=[1, 1, 1, 1], strides=[1, 1]](%1072, %RRDB_trunk.7.RDB1.conv5.weight, %RRDB_trunk.7.RDB1.conv5.bias), scope: RRDBNet/Sequential[RRDB_trunk]/RRDB[7]/ResidualDenseBlock_5C[RDB1]/Conv2d[conv5]
  %1074 : Tensor = onnx::Constant[value={0.2}]()
  %1075 : Tensor = onnx::Mul(%1073, %1074)
  %1076 : Float(1, 64, 256, 256) = onnx::Add(%1075, %1060), scope: RRDBNet/Sequential[RRDB_trunk]/RRDB[7]/ResidualDenseBlock_5C[RDB1]
  %1077 : Float(1, 32, 256, 256) = onnx::Conv[dilations=[1, 1], group=1, kernel_shape=[3, 3], pads=[1, 1, 1, 1], strides=[1, 1]](%1076, %RRDB_trunk.7.RDB2.conv1.weight, %RRDB_trunk.7.RDB2.conv1.bias), scope: RRDBNet/Sequential[RRDB_trunk]/RRDB[7]/ResidualDenseBlock_5C[RDB2]/Conv2d[conv1]
  %1078 : Float(1, 32, 256, 256) = onnx::LeakyRelu[alpha=0.2](%1077), scope: RRDBNet/Sequential[RRDB_trunk]/RRDB[7]/ResidualDenseBlock_5C[RDB2]/LeakyReLU[lrelu]
  %1079 : Float(1, 96, 256, 256) = onnx::Concat[axis=1](%1076, %1078), scope: RRDBNet/Sequential[RRDB_trunk]/RRDB[7]/ResidualDenseBlock_5C[RDB2]
  %1080 : Float(1, 32, 256, 256) = onnx::Conv[dilations=[1, 1], group=1, kernel_shape=[3, 3], pads=[1, 1, 1, 1], strides=[1, 1]](%1079, %RRDB_trunk.7.RDB2.conv2.weight, %RRDB_trunk.7.RDB2.conv2.bias), scope: RRDBNet/Sequential[RRDB_trunk]/RRDB[7]/ResidualDenseBlock_5C[RDB2]/Conv2d[conv2]
  %1081 : Float(1, 32, 256, 256) = onnx::LeakyRelu[alpha=0.2](%1080), scope: RRDBNet/Sequential[RRDB_trunk]/RRDB[7]/ResidualDenseBlock_5C[RDB2]/LeakyReLU[lrelu]
  %1082 : Float(1, 128, 256, 256) = onnx::Concat[axis=1](%1076, %1078, %1081), scope: RRDBNet/Sequential[RRDB_trunk]/RRDB[7]/ResidualDenseBlock_5C[RDB2]
  %1083 : Float(1, 32, 256, 256) = onnx::Conv[dilations=[1, 1], group=1, kernel_shape=[3, 3], pads=[1, 1, 1, 1], strides=[1, 1]](%1082, %RRDB_trunk.7.RDB2.conv3.weight, %RRDB_trunk.7.RDB2.conv3.bias), scope: RRDBNet/Sequential[RRDB_trunk]/RRDB[7]/ResidualDenseBlock_5C[RDB2]/Conv2d[conv3]
  %1084 : Float(1, 32, 256, 256) = onnx::LeakyRelu[alpha=0.2](%1083), scope: RRDBNet/Sequential[RRDB_trunk]/RRDB[7]/ResidualDenseBlock_5C[RDB2]/LeakyReLU[lrelu]
  %1085 : Float(1, 160, 256, 256) = onnx::Concat[axis=1](%1076, %1078, %1081, %1084), scope: RRDBNet/Sequential[RRDB_trunk]/RRDB[7]/ResidualDenseBlock_5C[RDB2]
  %1086 : Float(1, 32, 256, 256) = onnx::Conv[dilations=[1, 1], group=1, kernel_shape=[3, 3], pads=[1, 1, 1, 1], strides=[1, 1]](%1085, %RRDB_trunk.7.RDB2.conv4.weight, %RRDB_trunk.7.RDB2.conv4.bias), scope: RRDBNet/Sequential[RRDB_trunk]/RRDB[7]/ResidualDenseBlock_5C[RDB2]/Conv2d[conv4]
  %1087 : Float(1, 32, 256, 256) = onnx::LeakyRelu[alpha=0.2](%1086), scope: RRDBNet/Sequential[RRDB_trunk]/RRDB[7]/ResidualDenseBlock_5C[RDB2]/LeakyReLU[lrelu]
  %1088 : Float(1, 192, 256, 256) = onnx::Concat[axis=1](%1076, %1078, %1081, %1084, %1087), scope: RRDBNet/Sequential[RRDB_trunk]/RRDB[7]/ResidualDenseBlock_5C[RDB2]
  %1089 : Float(1, 64, 256, 256) = onnx::Conv[dilations=[1, 1], group=1, kernel_shape=[3, 3], pads=[1, 1, 1, 1], strides=[1, 1]](%1088, %RRDB_trunk.7.RDB2.conv5.weight, %RRDB_trunk.7.RDB2.conv5.bias), scope: RRDBNet/Sequential[RRDB_trunk]/RRDB[7]/ResidualDenseBlock_5C[RDB2]/Conv2d[conv5]
  %1090 : Tensor = onnx::Constant[value={0.2}]()
  %1091 : Tensor = onnx::Mul(%1089, %1090)
  %1092 : Float(1, 64, 256, 256) = onnx::Add(%1091, %1076), scope: RRDBNet/Sequential[RRDB_trunk]/RRDB[7]/ResidualDenseBlock_5C[RDB2]
  %1093 : Float(1, 32, 256, 256) = onnx::Conv[dilations=[1, 1], group=1, kernel_shape=[3, 3], pads=[1, 1, 1, 1], strides=[1, 1]](%1092, %RRDB_trunk.7.RDB3.conv1.weight, %RRDB_trunk.7.RDB3.conv1.bias), scope: RRDBNet/Sequential[RRDB_trunk]/RRDB[7]/ResidualDenseBlock_5C[RDB3]/Conv2d[conv1]
  %1094 : Float(1, 32, 256, 256) = onnx::LeakyRelu[alpha=0.2](%1093), scope: RRDBNet/Sequential[RRDB_trunk]/RRDB[7]/ResidualDenseBlock_5C[RDB3]/LeakyReLU[lrelu]
  %1095 : Float(1, 96, 256, 256) = onnx::Concat[axis=1](%1092, %1094), scope: RRDBNet/Sequential[RRDB_trunk]/RRDB[7]/ResidualDenseBlock_5C[RDB3]
  %1096 : Float(1, 32, 256, 256) = onnx::Conv[dilations=[1, 1], group=1, kernel_shape=[3, 3], pads=[1, 1, 1, 1], strides=[1, 1]](%1095, %RRDB_trunk.7.RDB3.conv2.weight, %RRDB_trunk.7.RDB3.conv2.bias), scope: RRDBNet/Sequential[RRDB_trunk]/RRDB[7]/ResidualDenseBlock_5C[RDB3]/Conv2d[conv2]
  %1097 : Float(1, 32, 256, 256) = onnx::LeakyRelu[alpha=0.2](%1096), scope: RRDBNet/Sequential[RRDB_trunk]/RRDB[7]/ResidualDenseBlock_5C[RDB3]/LeakyReLU[lrelu]
  %1098 : Float(1, 128, 256, 256) = onnx::Concat[axis=1](%1092, %1094, %1097), scope: RRDBNet/Sequential[RRDB_trunk]/RRDB[7]/ResidualDenseBlock_5C[RDB3]
  %1099 : Float(1, 32, 256, 256) = onnx::Conv[dilations=[1, 1], group=1, kernel_shape=[3, 3], pads=[1, 1, 1, 1], strides=[1, 1]](%1098, %RRDB_trunk.7.RDB3.conv3.weight, %RRDB_trunk.7.RDB3.conv3.bias), scope: RRDBNet/Sequential[RRDB_trunk]/RRDB[7]/ResidualDenseBlock_5C[RDB3]/Conv2d[conv3]
  %1100 : Float(1, 32, 256, 256) = onnx::LeakyRelu[alpha=0.2](%1099), scope: RRDBNet/Sequential[RRDB_trunk]/RRDB[7]/ResidualDenseBlock_5C[RDB3]/LeakyReLU[lrelu]
  %1101 : Float(1, 160, 256, 256) = onnx::Concat[axis=1](%1092, %1094, %1097, %1100), scope: RRDBNet/Sequential[RRDB_trunk]/RRDB[7]/ResidualDenseBlock_5C[RDB3]
  %1102 : Float(1, 32, 256, 256) = onnx::Conv[dilations=[1, 1], group=1, kernel_shape=[3, 3], pads=[1, 1, 1, 1], strides=[1, 1]](%1101, %RRDB_trunk.7.RDB3.conv4.weight, %RRDB_trunk.7.RDB3.conv4.bias), scope: RRDBNet/Sequential[RRDB_trunk]/RRDB[7]/ResidualDenseBlock_5C[RDB3]/Conv2d[conv4]
  %1103 : Float(1, 32, 256, 256) = onnx::LeakyRelu[alpha=0.2](%1102), scope: RRDBNet/Sequential[RRDB_trunk]/RRDB[7]/ResidualDenseBlock_5C[RDB3]/LeakyReLU[lrelu]
  %1104 : Float(1, 192, 256, 256) = onnx::Concat[axis=1](%1092, %1094, %1097, %1100, %1103), scope: RRDBNet/Sequential[RRDB_trunk]/RRDB[7]/ResidualDenseBlock_5C[RDB3]
  %1105 : Float(1, 64, 256, 256) = onnx::Conv[dilations=[1, 1], group=1, kernel_shape=[3, 3], pads=[1, 1, 1, 1], strides=[1, 1]](%1104, %RRDB_trunk.7.RDB3.conv5.weight, %RRDB_trunk.7.RDB3.conv5.bias), scope: RRDBNet/Sequential[RRDB_trunk]/RRDB[7]/ResidualDenseBlock_5C[RDB3]/Conv2d[conv5]
  %1106 : Tensor = onnx::Constant[value={0.2}]()
  %1107 : Tensor = onnx::Mul(%1105, %1106)
  %1108 : Float(1, 64, 256, 256) = onnx::Add(%1107, %1092), scope: RRDBNet/Sequential[RRDB_trunk]/RRDB[7]/ResidualDenseBlock_5C[RDB3]
  %1109 : Tensor = onnx::Constant[value={0.2}]()
  %1110 : Tensor = onnx::Mul(%1108, %1109)
  %1111 : Float(1, 64, 256, 256) = onnx::Add(%1110, %1060), scope: RRDBNet/Sequential[RRDB_trunk]/RRDB[7]
  %1112 : Float(1, 32, 256, 256) = onnx::Conv[dilations=[1, 1], group=1, kernel_shape=[3, 3], pads=[1, 1, 1, 1], strides=[1, 1]](%1111, %RRDB_trunk.8.RDB1.conv1.weight, %RRDB_trunk.8.RDB1.conv1.bias), scope: RRDBNet/Sequential[RRDB_trunk]/RRDB[8]/ResidualDenseBlock_5C[RDB1]/Conv2d[conv1]
  %1113 : Float(1, 32, 256, 256) = onnx::LeakyRelu[alpha=0.2](%1112), scope: RRDBNet/Sequential[RRDB_trunk]/RRDB[8]/ResidualDenseBlock_5C[RDB1]/LeakyReLU[lrelu]
  %1114 : Float(1, 96, 256, 256) = onnx::Concat[axis=1](%1111, %1113), scope: RRDBNet/Sequential[RRDB_trunk]/RRDB[8]/ResidualDenseBlock_5C[RDB1]
  %1115 : Float(1, 32, 256, 256) = onnx::Conv[dilations=[1, 1], group=1, kernel_shape=[3, 3], pads=[1, 1, 1, 1], strides=[1, 1]](%1114, %RRDB_trunk.8.RDB1.conv2.weight, %RRDB_trunk.8.RDB1.conv2.bias), scope: RRDBNet/Sequential[RRDB_trunk]/RRDB[8]/ResidualDenseBlock_5C[RDB1]/Conv2d[conv2]
  %1116 : Float(1, 32, 256, 256) = onnx::LeakyRelu[alpha=0.2](%1115), scope: RRDBNet/Sequential[RRDB_trunk]/RRDB[8]/ResidualDenseBlock_5C[RDB1]/LeakyReLU[lrelu]
  %1117 : Float(1, 128, 256, 256) = onnx::Concat[axis=1](%1111, %1113, %1116), scope: RRDBNet/Sequential[RRDB_trunk]/RRDB[8]/ResidualDenseBlock_5C[RDB1]
  %1118 : Float(1, 32, 256, 256) = onnx::Conv[dilations=[1, 1], group=1, kernel_shape=[3, 3], pads=[1, 1, 1, 1], strides=[1, 1]](%1117, %RRDB_trunk.8.RDB1.conv3.weight, %RRDB_trunk.8.RDB1.conv3.bias), scope: RRDBNet/Sequential[RRDB_trunk]/RRDB[8]/ResidualDenseBlock_5C[RDB1]/Conv2d[conv3]
  %1119 : Float(1, 32, 256, 256) = onnx::LeakyRelu[alpha=0.2](%1118), scope: RRDBNet/Sequential[RRDB_trunk]/RRDB[8]/ResidualDenseBlock_5C[RDB1]/LeakyReLU[lrelu]
  %1120 : Float(1, 160, 256, 256) = onnx::Concat[axis=1](%1111, %1113, %1116, %1119), scope: RRDBNet/Sequential[RRDB_trunk]/RRDB[8]/ResidualDenseBlock_5C[RDB1]
  %1121 : Float(1, 32, 256, 256) = onnx::Conv[dilations=[1, 1], group=1, kernel_shape=[3, 3], pads=[1, 1, 1, 1], strides=[1, 1]](%1120, %RRDB_trunk.8.RDB1.conv4.weight, %RRDB_trunk.8.RDB1.conv4.bias), scope: RRDBNet/Sequential[RRDB_trunk]/RRDB[8]/ResidualDenseBlock_5C[RDB1]/Conv2d[conv4]
  %1122 : Float(1, 32, 256, 256) = onnx::LeakyRelu[alpha=0.2](%1121), scope: RRDBNet/Sequential[RRDB_trunk]/RRDB[8]/ResidualDenseBlock_5C[RDB1]/LeakyReLU[lrelu]
  %1123 : Float(1, 192, 256, 256) = onnx::Concat[axis=1](%1111, %1113, %1116, %1119, %1122), scope: RRDBNet/Sequential[RRDB_trunk]/RRDB[8]/ResidualDenseBlock_5C[RDB1]
  %1124 : Float(1, 64, 256, 256) = onnx::Conv[dilations=[1, 1], group=1, kernel_shape=[3, 3], pads=[1, 1, 1, 1], strides=[1, 1]](%1123, %RRDB_trunk.8.RDB1.conv5.weight, %RRDB_trunk.8.RDB1.conv5.bias), scope: RRDBNet/Sequential[RRDB_trunk]/RRDB[8]/ResidualDenseBlock_5C[RDB1]/Conv2d[conv5]
  %1125 : Tensor = onnx::Constant[value={0.2}]()
  %1126 : Tensor = onnx::Mul(%1124, %1125)
  %1127 : Float(1, 64, 256, 256) = onnx::Add(%1126, %1111), scope: RRDBNet/Sequential[RRDB_trunk]/RRDB[8]/ResidualDenseBlock_5C[RDB1]
  %1128 : Float(1, 32, 256, 256) = onnx::Conv[dilations=[1, 1], group=1, kernel_shape=[3, 3], pads=[1, 1, 1, 1], strides=[1, 1]](%1127, %RRDB_trunk.8.RDB2.conv1.weight, %RRDB_trunk.8.RDB2.conv1.bias), scope: RRDBNet/Sequential[RRDB_trunk]/RRDB[8]/ResidualDenseBlock_5C[RDB2]/Conv2d[conv1]
  %1129 : Float(1, 32, 256, 256) = onnx::LeakyRelu[alpha=0.2](%1128), scope: RRDBNet/Sequential[RRDB_trunk]/RRDB[8]/ResidualDenseBlock_5C[RDB2]/LeakyReLU[lrelu]
  %1130 : Float(1, 96, 256, 256) = onnx::Concat[axis=1](%1127, %1129), scope: RRDBNet/Sequential[RRDB_trunk]/RRDB[8]/ResidualDenseBlock_5C[RDB2]
  %1131 : Float(1, 32, 256, 256) = onnx::Conv[dilations=[1, 1], group=1, kernel_shape=[3, 3], pads=[1, 1, 1, 1], strides=[1, 1]](%1130, %RRDB_trunk.8.RDB2.conv2.weight, %RRDB_trunk.8.RDB2.conv2.bias), scope: RRDBNet/Sequential[RRDB_trunk]/RRDB[8]/ResidualDenseBlock_5C[RDB2]/Conv2d[conv2]
  %1132 : Float(1, 32, 256, 256) = onnx::LeakyRelu[alpha=0.2](%1131), scope: RRDBNet/Sequential[RRDB_trunk]/RRDB[8]/ResidualDenseBlock_5C[RDB2]/LeakyReLU[lrelu]
  %1133 : Float(1, 128, 256, 256) = onnx::Concat[axis=1](%1127, %1129, %1132), scope: RRDBNet/Sequential[RRDB_trunk]/RRDB[8]/ResidualDenseBlock_5C[RDB2]
  %1134 : Float(1, 32, 256, 256) = onnx::Conv[dilations=[1, 1], group=1, kernel_shape=[3, 3], pads=[1, 1, 1, 1], strides=[1, 1]](%1133, %RRDB_trunk.8.RDB2.conv3.weight, %RRDB_trunk.8.RDB2.conv3.bias), scope: RRDBNet/Sequential[RRDB_trunk]/RRDB[8]/ResidualDenseBlock_5C[RDB2]/Conv2d[conv3]
  %1135 : Float(1, 32, 256, 256) = onnx::LeakyRelu[alpha=0.2](%1134), scope: RRDBNet/Sequential[RRDB_trunk]/RRDB[8]/ResidualDenseBlock_5C[RDB2]/LeakyReLU[lrelu]
  %1136 : Float(1, 160, 256, 256) = onnx::Concat[axis=1](%1127, %1129, %1132, %1135), scope: RRDBNet/Sequential[RRDB_trunk]/RRDB[8]/ResidualDenseBlock_5C[RDB2]
  %1137 : Float(1, 32, 256, 256) = onnx::Conv[dilations=[1, 1], group=1, kernel_shape=[3, 3], pads=[1, 1, 1, 1], strides=[1, 1]](%1136, %RRDB_trunk.8.RDB2.conv4.weight, %RRDB_trunk.8.RDB2.conv4.bias), scope: RRDBNet/Sequential[RRDB_trunk]/RRDB[8]/ResidualDenseBlock_5C[RDB2]/Conv2d[conv4]
  %1138 : Float(1, 32, 256, 256) = onnx::LeakyRelu[alpha=0.2](%1137), scope: RRDBNet/Sequential[RRDB_trunk]/RRDB[8]/ResidualDenseBlock_5C[RDB2]/LeakyReLU[lrelu]
  %1139 : Float(1, 192, 256, 256) = onnx::Concat[axis=1](%1127, %1129, %1132, %1135, %1138), scope: RRDBNet/Sequential[RRDB_trunk]/RRDB[8]/ResidualDenseBlock_5C[RDB2]
  %1140 : Float(1, 64, 256, 256) = onnx::Conv[dilations=[1, 1], group=1, kernel_shape=[3, 3], pads=[1, 1, 1, 1], strides=[1, 1]](%1139, %RRDB_trunk.8.RDB2.conv5.weight, %RRDB_trunk.8.RDB2.conv5.bias), scope: RRDBNet/Sequential[RRDB_trunk]/RRDB[8]/ResidualDenseBlock_5C[RDB2]/Conv2d[conv5]
  %1141 : Tensor = onnx::Constant[value={0.2}]()
  %1142 : Tensor = onnx::Mul(%1140, %1141)
  %1143 : Float(1, 64, 256, 256) = onnx::Add(%1142, %1127), scope: RRDBNet/Sequential[RRDB_trunk]/RRDB[8]/ResidualDenseBlock_5C[RDB2]
  %1144 : Float(1, 32, 256, 256) = onnx::Conv[dilations=[1, 1], group=1, kernel_shape=[3, 3], pads=[1, 1, 1, 1], strides=[1, 1]](%1143, %RRDB_trunk.8.RDB3.conv1.weight, %RRDB_trunk.8.RDB3.conv1.bias), scope: RRDBNet/Sequential[RRDB_trunk]/RRDB[8]/ResidualDenseBlock_5C[RDB3]/Conv2d[conv1]
  %1145 : Float(1, 32, 256, 256) = onnx::LeakyRelu[alpha=0.2](%1144), scope: RRDBNet/Sequential[RRDB_trunk]/RRDB[8]/ResidualDenseBlock_5C[RDB3]/LeakyReLU[lrelu]
  %1146 : Float(1, 96, 256, 256) = onnx::Concat[axis=1](%1143, %1145), scope: RRDBNet/Sequential[RRDB_trunk]/RRDB[8]/ResidualDenseBlock_5C[RDB3]
  %1147 : Float(1, 32, 256, 256) = onnx::Conv[dilations=[1, 1], group=1, kernel_shape=[3, 3], pads=[1, 1, 1, 1], strides=[1, 1]](%1146, %RRDB_trunk.8.RDB3.conv2.weight, %RRDB_trunk.8.RDB3.conv2.bias), scope: RRDBNet/Sequential[RRDB_trunk]/RRDB[8]/ResidualDenseBlock_5C[RDB3]/Conv2d[conv2]
  %1148 : Float(1, 32, 256, 256) = onnx::LeakyRelu[alpha=0.2](%1147), scope: RRDBNet/Sequential[RRDB_trunk]/RRDB[8]/ResidualDenseBlock_5C[RDB3]/LeakyReLU[lrelu]
  %1149 : Float(1, 128, 256, 256) = onnx::Concat[axis=1](%1143, %1145, %1148), scope: RRDBNet/Sequential[RRDB_trunk]/RRDB[8]/ResidualDenseBlock_5C[RDB3]
  %1150 : Float(1, 32, 256, 256) = onnx::Conv[dilations=[1, 1], group=1, kernel_shape=[3, 3], pads=[1, 1, 1, 1], strides=[1, 1]](%1149, %RRDB_trunk.8.RDB3.conv3.weight, %RRDB_trunk.8.RDB3.conv3.bias), scope: RRDBNet/Sequential[RRDB_trunk]/RRDB[8]/ResidualDenseBlock_5C[RDB3]/Conv2d[conv3]
  %1151 : Float(1, 32, 256, 256) = onnx::LeakyRelu[alpha=0.2](%1150), scope: RRDBNet/Sequential[RRDB_trunk]/RRDB[8]/ResidualDenseBlock_5C[RDB3]/LeakyReLU[lrelu]
  %1152 : Float(1, 160, 256, 256) = onnx::Concat[axis=1](%1143, %1145, %1148, %1151), scope: RRDBNet/Sequential[RRDB_trunk]/RRDB[8]/ResidualDenseBlock_5C[RDB3]
  %1153 : Float(1, 32, 256, 256) = onnx::Conv[dilations=[1, 1], group=1, kernel_shape=[3, 3], pads=[1, 1, 1, 1], strides=[1, 1]](%1152, %RRDB_trunk.8.RDB3.conv4.weight, %RRDB_trunk.8.RDB3.conv4.bias), scope: RRDBNet/Sequential[RRDB_trunk]/RRDB[8]/ResidualDenseBlock_5C[RDB3]/Conv2d[conv4]
  %1154 : Float(1, 32, 256, 256) = onnx::LeakyRelu[alpha=0.2](%1153), scope: RRDBNet/Sequential[RRDB_trunk]/RRDB[8]/ResidualDenseBlock_5C[RDB3]/LeakyReLU[lrelu]
  %1155 : Float(1, 192, 256, 256) = onnx::Concat[axis=1](%1143, %1145, %1148, %1151, %1154), scope: RRDBNet/Sequential[RRDB_trunk]/RRDB[8]/ResidualDenseBlock_5C[RDB3]
  %1156 : Float(1, 64, 256, 256) = onnx::Conv[dilations=[1, 1], group=1, kernel_shape=[3, 3], pads=[1, 1, 1, 1], strides=[1, 1]](%1155, %RRDB_trunk.8.RDB3.conv5.weight, %RRDB_trunk.8.RDB3.conv5.bias), scope: RRDBNet/Sequential[RRDB_trunk]/RRDB[8]/ResidualDenseBlock_5C[RDB3]/Conv2d[conv5]
  %1157 : Tensor = onnx::Constant[value={0.2}]()
  %1158 : Tensor = onnx::Mul(%1156, %1157)
  %1159 : Float(1, 64, 256, 256) = onnx::Add(%1158, %1143), scope: RRDBNet/Sequential[RRDB_trunk]/RRDB[8]/ResidualDenseBlock_5C[RDB3]
  %1160 : Tensor = onnx::Constant[value={0.2}]()
  %1161 : Tensor = onnx::Mul(%1159, %1160)
  %1162 : Float(1, 64, 256, 256) = onnx::Add(%1161, %1111), scope: RRDBNet/Sequential[RRDB_trunk]/RRDB[8]
  %1163 : Float(1, 32, 256, 256) = onnx::Conv[dilations=[1, 1], group=1, kernel_shape=[3, 3], pads=[1, 1, 1, 1], strides=[1, 1]](%1162, %RRDB_trunk.9.RDB1.conv1.weight, %RRDB_trunk.9.RDB1.conv1.bias), scope: RRDBNet/Sequential[RRDB_trunk]/RRDB[9]/ResidualDenseBlock_5C[RDB1]/Conv2d[conv1]
  %1164 : Float(1, 32, 256, 256) = onnx::LeakyRelu[alpha=0.2](%1163), scope: RRDBNet/Sequential[RRDB_trunk]/RRDB[9]/ResidualDenseBlock_5C[RDB1]/LeakyReLU[lrelu]
  %1165 : Float(1, 96, 256, 256) = onnx::Concat[axis=1](%1162, %1164), scope: RRDBNet/Sequential[RRDB_trunk]/RRDB[9]/ResidualDenseBlock_5C[RDB1]
  %1166 : Float(1, 32, 256, 256) = onnx::Conv[dilations=[1, 1], group=1, kernel_shape=[3, 3], pads=[1, 1, 1, 1], strides=[1, 1]](%1165, %RRDB_trunk.9.RDB1.conv2.weight, %RRDB_trunk.9.RDB1.conv2.bias), scope: RRDBNet/Sequential[RRDB_trunk]/RRDB[9]/ResidualDenseBlock_5C[RDB1]/Conv2d[conv2]
  %1167 : Float(1, 32, 256, 256) = onnx::LeakyRelu[alpha=0.2](%1166), scope: RRDBNet/Sequential[RRDB_trunk]/RRDB[9]/ResidualDenseBlock_5C[RDB1]/LeakyReLU[lrelu]
  %1168 : Float(1, 128, 256, 256) = onnx::Concat[axis=1](%1162, %1164, %1167), scope: RRDBNet/Sequential[RRDB_trunk]/RRDB[9]/ResidualDenseBlock_5C[RDB1]
  %1169 : Float(1, 32, 256, 256) = onnx::Conv[dilations=[1, 1], group=1, kernel_shape=[3, 3], pads=[1, 1, 1, 1], strides=[1, 1]](%1168, %RRDB_trunk.9.RDB1.conv3.weight, %RRDB_trunk.9.RDB1.conv3.bias), scope: RRDBNet/Sequential[RRDB_trunk]/RRDB[9]/ResidualDenseBlock_5C[RDB1]/Conv2d[conv3]
  %1170 : Float(1, 32, 256, 256) = onnx::LeakyRelu[alpha=0.2](%1169), scope: RRDBNet/Sequential[RRDB_trunk]/RRDB[9]/ResidualDenseBlock_5C[RDB1]/LeakyReLU[lrelu]
  %1171 : Float(1, 160, 256, 256) = onnx::Concat[axis=1](%1162, %1164, %1167, %1170), scope: RRDBNet/Sequential[RRDB_trunk]/RRDB[9]/ResidualDenseBlock_5C[RDB1]
  %1172 : Float(1, 32, 256, 256) = onnx::Conv[dilations=[1, 1], group=1, kernel_shape=[3, 3], pads=[1, 1, 1, 1], strides=[1, 1]](%1171, %RRDB_trunk.9.RDB1.conv4.weight, %RRDB_trunk.9.RDB1.conv4.bias), scope: RRDBNet/Sequential[RRDB_trunk]/RRDB[9]/ResidualDenseBlock_5C[RDB1]/Conv2d[conv4]
  %1173 : Float(1, 32, 256, 256) = onnx::LeakyRelu[alpha=0.2](%1172), scope: RRDBNet/Sequential[RRDB_trunk]/RRDB[9]/ResidualDenseBlock_5C[RDB1]/LeakyReLU[lrelu]
  %1174 : Float(1, 192, 256, 256) = onnx::Concat[axis=1](%1162, %1164, %1167, %1170, %1173), scope: RRDBNet/Sequential[RRDB_trunk]/RRDB[9]/ResidualDenseBlock_5C[RDB1]
  %1175 : Float(1, 64, 256, 256) = onnx::Conv[dilations=[1, 1], group=1, kernel_shape=[3, 3], pads=[1, 1, 1, 1], strides=[1, 1]](%1174, %RRDB_trunk.9.RDB1.conv5.weight, %RRDB_trunk.9.RDB1.conv5.bias), scope: RRDBNet/Sequential[RRDB_trunk]/RRDB[9]/ResidualDenseBlock_5C[RDB1]/Conv2d[conv5]
  %1176 : Tensor = onnx::Constant[value={0.2}]()
  %1177 : Tensor = onnx::Mul(%1175, %1176)
  %1178 : Float(1, 64, 256, 256) = onnx::Add(%1177, %1162), scope: RRDBNet/Sequential[RRDB_trunk]/RRDB[9]/ResidualDenseBlock_5C[RDB1]
  %1179 : Float(1, 32, 256, 256) = onnx::Conv[dilations=[1, 1], group=1, kernel_shape=[3, 3], pads=[1, 1, 1, 1], strides=[1, 1]](%1178, %RRDB_trunk.9.RDB2.conv1.weight, %RRDB_trunk.9.RDB2.conv1.bias), scope: RRDBNet/Sequential[RRDB_trunk]/RRDB[9]/ResidualDenseBlock_5C[RDB2]/Conv2d[conv1]
  %1180 : Float(1, 32, 256, 256) = onnx::LeakyRelu[alpha=0.2](%1179), scope: RRDBNet/Sequential[RRDB_trunk]/RRDB[9]/ResidualDenseBlock_5C[RDB2]/LeakyReLU[lrelu]
  %1181 : Float(1, 96, 256, 256) = onnx::Concat[axis=1](%1178, %1180), scope: RRDBNet/Sequential[RRDB_trunk]/RRDB[9]/ResidualDenseBlock_5C[RDB2]
  %1182 : Float(1, 32, 256, 256) = onnx::Conv[dilations=[1, 1], group=1, kernel_shape=[3, 3], pads=[1, 1, 1, 1], strides=[1, 1]](%1181, %RRDB_trunk.9.RDB2.conv2.weight, %RRDB_trunk.9.RDB2.conv2.bias), scope: RRDBNet/Sequential[RRDB_trunk]/RRDB[9]/ResidualDenseBlock_5C[RDB2]/Conv2d[conv2]
  %1183 : Float(1, 32, 256, 256) = onnx::LeakyRelu[alpha=0.2](%1182), scope: RRDBNet/Sequential[RRDB_trunk]/RRDB[9]/ResidualDenseBlock_5C[RDB2]/LeakyReLU[lrelu]
  %1184 : Float(1, 128, 256, 256) = onnx::Concat[axis=1](%1178, %1180, %1183), scope: RRDBNet/Sequential[RRDB_trunk]/RRDB[9]/ResidualDenseBlock_5C[RDB2]
  %1185 : Float(1, 32, 256, 256) = onnx::Conv[dilations=[1, 1], group=1, kernel_shape=[3, 3], pads=[1, 1, 1, 1], strides=[1, 1]](%1184, %RRDB_trunk.9.RDB2.conv3.weight, %RRDB_trunk.9.RDB2.conv3.bias), scope: RRDBNet/Sequential[RRDB_trunk]/RRDB[9]/ResidualDenseBlock_5C[RDB2]/Conv2d[conv3]
  %1186 : Float(1, 32, 256, 256) = onnx::LeakyRelu[alpha=0.2](%1185), scope: RRDBNet/Sequential[RRDB_trunk]/RRDB[9]/ResidualDenseBlock_5C[RDB2]/LeakyReLU[lrelu]
  %1187 : Float(1, 160, 256, 256) = onnx::Concat[axis=1](%1178, %1180, %1183, %1186), scope: RRDBNet/Sequential[RRDB_trunk]/RRDB[9]/ResidualDenseBlock_5C[RDB2]
  %1188 : Float(1, 32, 256, 256) = onnx::Conv[dilations=[1, 1], group=1, kernel_shape=[3, 3], pads=[1, 1, 1, 1], strides=[1, 1]](%1187, %RRDB_trunk.9.RDB2.conv4.weight, %RRDB_trunk.9.RDB2.conv4.bias), scope: RRDBNet/Sequential[RRDB_trunk]/RRDB[9]/ResidualDenseBlock_5C[RDB2]/Conv2d[conv4]
  %1189 : Float(1, 32, 256, 256) = onnx::LeakyRelu[alpha=0.2](%1188), scope: RRDBNet/Sequential[RRDB_trunk]/RRDB[9]/ResidualDenseBlock_5C[RDB2]/LeakyReLU[lrelu]
  %1190 : Float(1, 192, 256, 256) = onnx::Concat[axis=1](%1178, %1180, %1183, %1186, %1189), scope: RRDBNet/Sequential[RRDB_trunk]/RRDB[9]/ResidualDenseBlock_5C[RDB2]
  %1191 : Float(1, 64, 256, 256) = onnx::Conv[dilations=[1, 1], group=1, kernel_shape=[3, 3], pads=[1, 1, 1, 1], strides=[1, 1]](%1190, %RRDB_trunk.9.RDB2.conv5.weight, %RRDB_trunk.9.RDB2.conv5.bias), scope: RRDBNet/Sequential[RRDB_trunk]/RRDB[9]/ResidualDenseBlock_5C[RDB2]/Conv2d[conv5]
  %1192 : Tensor = onnx::Constant[value={0.2}]()
  %1193 : Tensor = onnx::Mul(%1191, %1192)
  %1194 : Float(1, 64, 256, 256) = onnx::Add(%1193, %1178), scope: RRDBNet/Sequential[RRDB_trunk]/RRDB[9]/ResidualDenseBlock_5C[RDB2]
  %1195 : Float(1, 32, 256, 256) = onnx::Conv[dilations=[1, 1], group=1, kernel_shape=[3, 3], pads=[1, 1, 1, 1], strides=[1, 1]](%1194, %RRDB_trunk.9.RDB3.conv1.weight, %RRDB_trunk.9.RDB3.conv1.bias), scope: RRDBNet/Sequential[RRDB_trunk]/RRDB[9]/ResidualDenseBlock_5C[RDB3]/Conv2d[conv1]
  %1196 : Float(1, 32, 256, 256) = onnx::LeakyRelu[alpha=0.2](%1195), scope: RRDBNet/Sequential[RRDB_trunk]/RRDB[9]/ResidualDenseBlock_5C[RDB3]/LeakyReLU[lrelu]
  %1197 : Float(1, 96, 256, 256) = onnx::Concat[axis=1](%1194, %1196), scope: RRDBNet/Sequential[RRDB_trunk]/RRDB[9]/ResidualDenseBlock_5C[RDB3]
  %1198 : Float(1, 32, 256, 256) = onnx::Conv[dilations=[1, 1], group=1, kernel_shape=[3, 3], pads=[1, 1, 1, 1], strides=[1, 1]](%1197, %RRDB_trunk.9.RDB3.conv2.weight, %RRDB_trunk.9.RDB3.conv2.bias), scope: RRDBNet/Sequential[RRDB_trunk]/RRDB[9]/ResidualDenseBlock_5C[RDB3]/Conv2d[conv2]
  %1199 : Float(1, 32, 256, 256) = onnx::LeakyRelu[alpha=0.2](%1198), scope: RRDBNet/Sequential[RRDB_trunk]/RRDB[9]/ResidualDenseBlock_5C[RDB3]/LeakyReLU[lrelu]
  %1200 : Float(1, 128, 256, 256) = onnx::Concat[axis=1](%1194, %1196, %1199), scope: RRDBNet/Sequential[RRDB_trunk]/RRDB[9]/ResidualDenseBlock_5C[RDB3]
  %1201 : Float(1, 32, 256, 256) = onnx::Conv[dilations=[1, 1], group=1, kernel_shape=[3, 3], pads=[1, 1, 1, 1], strides=[1, 1]](%1200, %RRDB_trunk.9.RDB3.conv3.weight, %RRDB_trunk.9.RDB3.conv3.bias), scope: RRDBNet/Sequential[RRDB_trunk]/RRDB[9]/ResidualDenseBlock_5C[RDB3]/Conv2d[conv3]
  %1202 : Float(1, 32, 256, 256) = onnx::LeakyRelu[alpha=0.2](%1201), scope: RRDBNet/Sequential[RRDB_trunk]/RRDB[9]/ResidualDenseBlock_5C[RDB3]/LeakyReLU[lrelu]
  %1203 : Float(1, 160, 256, 256) = onnx::Concat[axis=1](%1194, %1196, %1199, %1202), scope: RRDBNet/Sequential[RRDB_trunk]/RRDB[9]/ResidualDenseBlock_5C[RDB3]
  %1204 : Float(1, 32, 256, 256) = onnx::Conv[dilations=[1, 1], group=1, kernel_shape=[3, 3], pads=[1, 1, 1, 1], strides=[1, 1]](%1203, %RRDB_trunk.9.RDB3.conv4.weight, %RRDB_trunk.9.RDB3.conv4.bias), scope: RRDBNet/Sequential[RRDB_trunk]/RRDB[9]/ResidualDenseBlock_5C[RDB3]/Conv2d[conv4]
  %1205 : Float(1, 32, 256, 256) = onnx::LeakyRelu[alpha=0.2](%1204), scope: RRDBNet/Sequential[RRDB_trunk]/RRDB[9]/ResidualDenseBlock_5C[RDB3]/LeakyReLU[lrelu]
  %1206 : Float(1, 192, 256, 256) = onnx::Concat[axis=1](%1194, %1196, %1199, %1202, %1205), scope: RRDBNet/Sequential[RRDB_trunk]/RRDB[9]/ResidualDenseBlock_5C[RDB3]
  %1207 : Float(1, 64, 256, 256) = onnx::Conv[dilations=[1, 1], group=1, kernel_shape=[3, 3], pads=[1, 1, 1, 1], strides=[1, 1]](%1206, %RRDB_trunk.9.RDB3.conv5.weight, %RRDB_trunk.9.RDB3.conv5.bias), scope: RRDBNet/Sequential[RRDB_trunk]/RRDB[9]/ResidualDenseBlock_5C[RDB3]/Conv2d[conv5]
  %1208 : Tensor = onnx::Constant[value={0.2}]()
  %1209 : Tensor = onnx::Mul(%1207, %1208)
  %1210 : Float(1, 64, 256, 256) = onnx::Add(%1209, %1194), scope: RRDBNet/Sequential[RRDB_trunk]/RRDB[9]/ResidualDenseBlock_5C[RDB3]
  %1211 : Tensor = onnx::Constant[value={0.2}]()
  %1212 : Tensor = onnx::Mul(%1210, %1211)
  %1213 : Float(1, 64, 256, 256) = onnx::Add(%1212, %1162), scope: RRDBNet/Sequential[RRDB_trunk]/RRDB[9]
  %1214 : Float(1, 32, 256, 256) = onnx::Conv[dilations=[1, 1], group=1, kernel_shape=[3, 3], pads=[1, 1, 1, 1], strides=[1, 1]](%1213, %RRDB_trunk.10.RDB1.conv1.weight, %RRDB_trunk.10.RDB1.conv1.bias), scope: RRDBNet/Sequential[RRDB_trunk]/RRDB[10]/ResidualDenseBlock_5C[RDB1]/Conv2d[conv1]
  %1215 : Float(1, 32, 256, 256) = onnx::LeakyRelu[alpha=0.2](%1214), scope: RRDBNet/Sequential[RRDB_trunk]/RRDB[10]/ResidualDenseBlock_5C[RDB1]/LeakyReLU[lrelu]
  %1216 : Float(1, 96, 256, 256) = onnx::Concat[axis=1](%1213, %1215), scope: RRDBNet/Sequential[RRDB_trunk]/RRDB[10]/ResidualDenseBlock_5C[RDB1]
  %1217 : Float(1, 32, 256, 256) = onnx::Conv[dilations=[1, 1], group=1, kernel_shape=[3, 3], pads=[1, 1, 1, 1], strides=[1, 1]](%1216, %RRDB_trunk.10.RDB1.conv2.weight, %RRDB_trunk.10.RDB1.conv2.bias), scope: RRDBNet/Sequential[RRDB_trunk]/RRDB[10]/ResidualDenseBlock_5C[RDB1]/Conv2d[conv2]
  %1218 : Float(1, 32, 256, 256) = onnx::LeakyRelu[alpha=0.2](%1217), scope: RRDBNet/Sequential[RRDB_trunk]/RRDB[10]/ResidualDenseBlock_5C[RDB1]/LeakyReLU[lrelu]
  %1219 : Float(1, 128, 256, 256) = onnx::Concat[axis=1](%1213, %1215, %1218), scope: RRDBNet/Sequential[RRDB_trunk]/RRDB[10]/ResidualDenseBlock_5C[RDB1]
  %1220 : Float(1, 32, 256, 256) = onnx::Conv[dilations=[1, 1], group=1, kernel_shape=[3, 3], pads=[1, 1, 1, 1], strides=[1, 1]](%1219, %RRDB_trunk.10.RDB1.conv3.weight, %RRDB_trunk.10.RDB1.conv3.bias), scope: RRDBNet/Sequential[RRDB_trunk]/RRDB[10]/ResidualDenseBlock_5C[RDB1]/Conv2d[conv3]
  %1221 : Float(1, 32, 256, 256) = onnx::LeakyRelu[alpha=0.2](%1220), scope: RRDBNet/Sequential[RRDB_trunk]/RRDB[10]/ResidualDenseBlock_5C[RDB1]/LeakyReLU[lrelu]
  %1222 : Float(1, 160, 256, 256) = onnx::Concat[axis=1](%1213, %1215, %1218, %1221), scope: RRDBNet/Sequential[RRDB_trunk]/RRDB[10]/ResidualDenseBlock_5C[RDB1]
  %1223 : Float(1, 32, 256, 256) = onnx::Conv[dilations=[1, 1], group=1, kernel_shape=[3, 3], pads=[1, 1, 1, 1], strides=[1, 1]](%1222, %RRDB_trunk.10.RDB1.conv4.weight, %RRDB_trunk.10.RDB1.conv4.bias), scope: RRDBNet/Sequential[RRDB_trunk]/RRDB[10]/ResidualDenseBlock_5C[RDB1]/Conv2d[conv4]
  %1224 : Float(1, 32, 256, 256) = onnx::LeakyRelu[alpha=0.2](%1223), scope: RRDBNet/Sequential[RRDB_trunk]/RRDB[10]/ResidualDenseBlock_5C[RDB1]/LeakyReLU[lrelu]
  %1225 : Float(1, 192, 256, 256) = onnx::Concat[axis=1](%1213, %1215, %1218, %1221, %1224), scope: RRDBNet/Sequential[RRDB_trunk]/RRDB[10]/ResidualDenseBlock_5C[RDB1]
  %1226 : Float(1, 64, 256, 256) = onnx::Conv[dilations=[1, 1], group=1, kernel_shape=[3, 3], pads=[1, 1, 1, 1], strides=[1, 1]](%1225, %RRDB_trunk.10.RDB1.conv5.weight, %RRDB_trunk.10.RDB1.conv5.bias), scope: RRDBNet/Sequential[RRDB_trunk]/RRDB[10]/ResidualDenseBlock_5C[RDB1]/Conv2d[conv5]
  %1227 : Tensor = onnx::Constant[value={0.2}]()
  %1228 : Tensor = onnx::Mul(%1226, %1227)
  %1229 : Float(1, 64, 256, 256) = onnx::Add(%1228, %1213), scope: RRDBNet/Sequential[RRDB_trunk]/RRDB[10]/ResidualDenseBlock_5C[RDB1]
  %1230 : Float(1, 32, 256, 256) = onnx::Conv[dilations=[1, 1], group=1, kernel_shape=[3, 3], pads=[1, 1, 1, 1], strides=[1, 1]](%1229, %RRDB_trunk.10.RDB2.conv1.weight, %RRDB_trunk.10.RDB2.conv1.bias), scope: RRDBNet/Sequential[RRDB_trunk]/RRDB[10]/ResidualDenseBlock_5C[RDB2]/Conv2d[conv1]
  %1231 : Float(1, 32, 256, 256) = onnx::LeakyRelu[alpha=0.2](%1230), scope: RRDBNet/Sequential[RRDB_trunk]/RRDB[10]/ResidualDenseBlock_5C[RDB2]/LeakyReLU[lrelu]
  %1232 : Float(1, 96, 256, 256) = onnx::Concat[axis=1](%1229, %1231), scope: RRDBNet/Sequential[RRDB_trunk]/RRDB[10]/ResidualDenseBlock_5C[RDB2]
  %1233 : Float(1, 32, 256, 256) = onnx::Conv[dilations=[1, 1], group=1, kernel_shape=[3, 3], pads=[1, 1, 1, 1], strides=[1, 1]](%1232, %RRDB_trunk.10.RDB2.conv2.weight, %RRDB_trunk.10.RDB2.conv2.bias), scope: RRDBNet/Sequential[RRDB_trunk]/RRDB[10]/ResidualDenseBlock_5C[RDB2]/Conv2d[conv2]
  %1234 : Float(1, 32, 256, 256) = onnx::LeakyRelu[alpha=0.2](%1233), scope: RRDBNet/Sequential[RRDB_trunk]/RRDB[10]/ResidualDenseBlock_5C[RDB2]/LeakyReLU[lrelu]
  %1235 : Float(1, 128, 256, 256) = onnx::Concat[axis=1](%1229, %1231, %1234), scope: RRDBNet/Sequential[RRDB_trunk]/RRDB[10]/ResidualDenseBlock_5C[RDB2]
  %1236 : Float(1, 32, 256, 256) = onnx::Conv[dilations=[1, 1], group=1, kernel_shape=[3, 3], pads=[1, 1, 1, 1], strides=[1, 1]](%1235, %RRDB_trunk.10.RDB2.conv3.weight, %RRDB_trunk.10.RDB2.conv3.bias), scope: RRDBNet/Sequential[RRDB_trunk]/RRDB[10]/ResidualDenseBlock_5C[RDB2]/Conv2d[conv3]
  %1237 : Float(1, 32, 256, 256) = onnx::LeakyRelu[alpha=0.2](%1236), scope: RRDBNet/Sequential[RRDB_trunk]/RRDB[10]/ResidualDenseBlock_5C[RDB2]/LeakyReLU[lrelu]
  %1238 : Float(1, 160, 256, 256) = onnx::Concat[axis=1](%1229, %1231, %1234, %1237), scope: RRDBNet/Sequential[RRDB_trunk]/RRDB[10]/ResidualDenseBlock_5C[RDB2]
  %1239 : Float(1, 32, 256, 256) = onnx::Conv[dilations=[1, 1], group=1, kernel_shape=[3, 3], pads=[1, 1, 1, 1], strides=[1, 1]](%1238, %RRDB_trunk.10.RDB2.conv4.weight, %RRDB_trunk.10.RDB2.conv4.bias), scope: RRDBNet/Sequential[RRDB_trunk]/RRDB[10]/ResidualDenseBlock_5C[RDB2]/Conv2d[conv4]
  %1240 : Float(1, 32, 256, 256) = onnx::LeakyRelu[alpha=0.2](%1239), scope: RRDBNet/Sequential[RRDB_trunk]/RRDB[10]/ResidualDenseBlock_5C[RDB2]/LeakyReLU[lrelu]
  %1241 : Float(1, 192, 256, 256) = onnx::Concat[axis=1](%1229, %1231, %1234, %1237, %1240), scope: RRDBNet/Sequential[RRDB_trunk]/RRDB[10]/ResidualDenseBlock_5C[RDB2]
  %1242 : Float(1, 64, 256, 256) = onnx::Conv[dilations=[1, 1], group=1, kernel_shape=[3, 3], pads=[1, 1, 1, 1], strides=[1, 1]](%1241, %RRDB_trunk.10.RDB2.conv5.weight, %RRDB_trunk.10.RDB2.conv5.bias), scope: RRDBNet/Sequential[RRDB_trunk]/RRDB[10]/ResidualDenseBlock_5C[RDB2]/Conv2d[conv5]
  %1243 : Tensor = onnx::Constant[value={0.2}]()
  %1244 : Tensor = onnx::Mul(%1242, %1243)
  %1245 : Float(1, 64, 256, 256) = onnx::Add(%1244, %1229), scope: RRDBNet/Sequential[RRDB_trunk]/RRDB[10]/ResidualDenseBlock_5C[RDB2]
  %1246 : Float(1, 32, 256, 256) = onnx::Conv[dilations=[1, 1], group=1, kernel_shape=[3, 3], pads=[1, 1, 1, 1], strides=[1, 1]](%1245, %RRDB_trunk.10.RDB3.conv1.weight, %RRDB_trunk.10.RDB3.conv1.bias), scope: RRDBNet/Sequential[RRDB_trunk]/RRDB[10]/ResidualDenseBlock_5C[RDB3]/Conv2d[conv1]
  %1247 : Float(1, 32, 256, 256) = onnx::LeakyRelu[alpha=0.2](%1246), scope: RRDBNet/Sequential[RRDB_trunk]/RRDB[10]/ResidualDenseBlock_5C[RDB3]/LeakyReLU[lrelu]
  %1248 : Float(1, 96, 256, 256) = onnx::Concat[axis=1](%1245, %1247), scope: RRDBNet/Sequential[RRDB_trunk]/RRDB[10]/ResidualDenseBlock_5C[RDB3]
  %1249 : Float(1, 32, 256, 256) = onnx::Conv[dilations=[1, 1], group=1, kernel_shape=[3, 3], pads=[1, 1, 1, 1], strides=[1, 1]](%1248, %RRDB_trunk.10.RDB3.conv2.weight, %RRDB_trunk.10.RDB3.conv2.bias), scope: RRDBNet/Sequential[RRDB_trunk]/RRDB[10]/ResidualDenseBlock_5C[RDB3]/Conv2d[conv2]
  %1250 : Float(1, 32, 256, 256) = onnx::LeakyRelu[alpha=0.2](%1249), scope: RRDBNet/Sequential[RRDB_trunk]/RRDB[10]/ResidualDenseBlock_5C[RDB3]/LeakyReLU[lrelu]
  %1251 : Float(1, 128, 256, 256) = onnx::Concat[axis=1](%1245, %1247, %1250), scope: RRDBNet/Sequential[RRDB_trunk]/RRDB[10]/ResidualDenseBlock_5C[RDB3]
  %1252 : Float(1, 32, 256, 256) = onnx::Conv[dilations=[1, 1], group=1, kernel_shape=[3, 3], pads=[1, 1, 1, 1], strides=[1, 1]](%1251, %RRDB_trunk.10.RDB3.conv3.weight, %RRDB_trunk.10.RDB3.conv3.bias), scope: RRDBNet/Sequential[RRDB_trunk]/RRDB[10]/ResidualDenseBlock_5C[RDB3]/Conv2d[conv3]
  %1253 : Float(1, 32, 256, 256) = onnx::LeakyRelu[alpha=0.2](%1252), scope: RRDBNet/Sequential[RRDB_trunk]/RRDB[10]/ResidualDenseBlock_5C[RDB3]/LeakyReLU[lrelu]
  %1254 : Float(1, 160, 256, 256) = onnx::Concat[axis=1](%1245, %1247, %1250, %1253), scope: RRDBNet/Sequential[RRDB_trunk]/RRDB[10]/ResidualDenseBlock_5C[RDB3]
  %1255 : Float(1, 32, 256, 256) = onnx::Conv[dilations=[1, 1], group=1, kernel_shape=[3, 3], pads=[1, 1, 1, 1], strides=[1, 1]](%1254, %RRDB_trunk.10.RDB3.conv4.weight, %RRDB_trunk.10.RDB3.conv4.bias), scope: RRDBNet/Sequential[RRDB_trunk]/RRDB[10]/ResidualDenseBlock_5C[RDB3]/Conv2d[conv4]
  %1256 : Float(1, 32, 256, 256) = onnx::LeakyRelu[alpha=0.2](%1255), scope: RRDBNet/Sequential[RRDB_trunk]/RRDB[10]/ResidualDenseBlock_5C[RDB3]/LeakyReLU[lrelu]
  %1257 : Float(1, 192, 256, 256) = onnx::Concat[axis=1](%1245, %1247, %1250, %1253, %1256), scope: RRDBNet/Sequential[RRDB_trunk]/RRDB[10]/ResidualDenseBlock_5C[RDB3]
  %1258 : Float(1, 64, 256, 256) = onnx::Conv[dilations=[1, 1], group=1, kernel_shape=[3, 3], pads=[1, 1, 1, 1], strides=[1, 1]](%1257, %RRDB_trunk.10.RDB3.conv5.weight, %RRDB_trunk.10.RDB3.conv5.bias), scope: RRDBNet/Sequential[RRDB_trunk]/RRDB[10]/ResidualDenseBlock_5C[RDB3]/Conv2d[conv5]
  %1259 : Tensor = onnx::Constant[value={0.2}]()
  %1260 : Tensor = onnx::Mul(%1258, %1259)
  %1261 : Float(1, 64, 256, 256) = onnx::Add(%1260, %1245), scope: RRDBNet/Sequential[RRDB_trunk]/RRDB[10]/ResidualDenseBlock_5C[RDB3]
  %1262 : Tensor = onnx::Constant[value={0.2}]()
  %1263 : Tensor = onnx::Mul(%1261, %1262)
  %1264 : Float(1, 64, 256, 256) = onnx::Add(%1263, %1213), scope: RRDBNet/Sequential[RRDB_trunk]/RRDB[10]
  %1265 : Float(1, 32, 256, 256) = onnx::Conv[dilations=[1, 1], group=1, kernel_shape=[3, 3], pads=[1, 1, 1, 1], strides=[1, 1]](%1264, %RRDB_trunk.11.RDB1.conv1.weight, %RRDB_trunk.11.RDB1.conv1.bias), scope: RRDBNet/Sequential[RRDB_trunk]/RRDB[11]/ResidualDenseBlock_5C[RDB1]/Conv2d[conv1]
  %1266 : Float(1, 32, 256, 256) = onnx::LeakyRelu[alpha=0.2](%1265), scope: RRDBNet/Sequential[RRDB_trunk]/RRDB[11]/ResidualDenseBlock_5C[RDB1]/LeakyReLU[lrelu]
  %1267 : Float(1, 96, 256, 256) = onnx::Concat[axis=1](%1264, %1266), scope: RRDBNet/Sequential[RRDB_trunk]/RRDB[11]/ResidualDenseBlock_5C[RDB1]
  %1268 : Float(1, 32, 256, 256) = onnx::Conv[dilations=[1, 1], group=1, kernel_shape=[3, 3], pads=[1, 1, 1, 1], strides=[1, 1]](%1267, %RRDB_trunk.11.RDB1.conv2.weight, %RRDB_trunk.11.RDB1.conv2.bias), scope: RRDBNet/Sequential[RRDB_trunk]/RRDB[11]/ResidualDenseBlock_5C[RDB1]/Conv2d[conv2]
  %1269 : Float(1, 32, 256, 256) = onnx::LeakyRelu[alpha=0.2](%1268), scope: RRDBNet/Sequential[RRDB_trunk]/RRDB[11]/ResidualDenseBlock_5C[RDB1]/LeakyReLU[lrelu]
  %1270 : Float(1, 128, 256, 256) = onnx::Concat[axis=1](%1264, %1266, %1269), scope: RRDBNet/Sequential[RRDB_trunk]/RRDB[11]/ResidualDenseBlock_5C[RDB1]
  %1271 : Float(1, 32, 256, 256) = onnx::Conv[dilations=[1, 1], group=1, kernel_shape=[3, 3], pads=[1, 1, 1, 1], strides=[1, 1]](%1270, %RRDB_trunk.11.RDB1.conv3.weight, %RRDB_trunk.11.RDB1.conv3.bias), scope: RRDBNet/Sequential[RRDB_trunk]/RRDB[11]/ResidualDenseBlock_5C[RDB1]/Conv2d[conv3]
  %1272 : Float(1, 32, 256, 256) = onnx::LeakyRelu[alpha=0.2](%1271), scope: RRDBNet/Sequential[RRDB_trunk]/RRDB[11]/ResidualDenseBlock_5C[RDB1]/LeakyReLU[lrelu]
  %1273 : Float(1, 160, 256, 256) = onnx::Concat[axis=1](%1264, %1266, %1269, %1272), scope: RRDBNet/Sequential[RRDB_trunk]/RRDB[11]/ResidualDenseBlock_5C[RDB1]
  %1274 : Float(1, 32, 256, 256) = onnx::Conv[dilations=[1, 1], group=1, kernel_shape=[3, 3], pads=[1, 1, 1, 1], strides=[1, 1]](%1273, %RRDB_trunk.11.RDB1.conv4.weight, %RRDB_trunk.11.RDB1.conv4.bias), scope: RRDBNet/Sequential[RRDB_trunk]/RRDB[11]/ResidualDenseBlock_5C[RDB1]/Conv2d[conv4]
  %1275 : Float(1, 32, 256, 256) = onnx::LeakyRelu[alpha=0.2](%1274), scope: RRDBNet/Sequential[RRDB_trunk]/RRDB[11]/ResidualDenseBlock_5C[RDB1]/LeakyReLU[lrelu]
  %1276 : Float(1, 192, 256, 256) = onnx::Concat[axis=1](%1264, %1266, %1269, %1272, %1275), scope: RRDBNet/Sequential[RRDB_trunk]/RRDB[11]/ResidualDenseBlock_5C[RDB1]
  %1277 : Float(1, 64, 256, 256) = onnx::Conv[dilations=[1, 1], group=1, kernel_shape=[3, 3], pads=[1, 1, 1, 1], strides=[1, 1]](%1276, %RRDB_trunk.11.RDB1.conv5.weight, %RRDB_trunk.11.RDB1.conv5.bias), scope: RRDBNet/Sequential[RRDB_trunk]/RRDB[11]/ResidualDenseBlock_5C[RDB1]/Conv2d[conv5]
  %1278 : Tensor = onnx::Constant[value={0.2}]()
  %1279 : Tensor = onnx::Mul(%1277, %1278)
  %1280 : Float(1, 64, 256, 256) = onnx::Add(%1279, %1264), scope: RRDBNet/Sequential[RRDB_trunk]/RRDB[11]/ResidualDenseBlock_5C[RDB1]
  %1281 : Float(1, 32, 256, 256) = onnx::Conv[dilations=[1, 1], group=1, kernel_shape=[3, 3], pads=[1, 1, 1, 1], strides=[1, 1]](%1280, %RRDB_trunk.11.RDB2.conv1.weight, %RRDB_trunk.11.RDB2.conv1.bias), scope: RRDBNet/Sequential[RRDB_trunk]/RRDB[11]/ResidualDenseBlock_5C[RDB2]/Conv2d[conv1]
  %1282 : Float(1, 32, 256, 256) = onnx::LeakyRelu[alpha=0.2](%1281), scope: RRDBNet/Sequential[RRDB_trunk]/RRDB[11]/ResidualDenseBlock_5C[RDB2]/LeakyReLU[lrelu]
  %1283 : Float(1, 96, 256, 256) = onnx::Concat[axis=1](%1280, %1282), scope: RRDBNet/Sequential[RRDB_trunk]/RRDB[11]/ResidualDenseBlock_5C[RDB2]
  %1284 : Float(1, 32, 256, 256) = onnx::Conv[dilations=[1, 1], group=1, kernel_shape=[3, 3], pads=[1, 1, 1, 1], strides=[1, 1]](%1283, %RRDB_trunk.11.RDB2.conv2.weight, %RRDB_trunk.11.RDB2.conv2.bias), scope: RRDBNet/Sequential[RRDB_trunk]/RRDB[11]/ResidualDenseBlock_5C[RDB2]/Conv2d[conv2]
  %1285 : Float(1, 32, 256, 256) = onnx::LeakyRelu[alpha=0.2](%1284), scope: RRDBNet/Sequential[RRDB_trunk]/RRDB[11]/ResidualDenseBlock_5C[RDB2]/LeakyReLU[lrelu]
  %1286 : Float(1, 128, 256, 256) = onnx::Concat[axis=1](%1280, %1282, %1285), scope: RRDBNet/Sequential[RRDB_trunk]/RRDB[11]/ResidualDenseBlock_5C[RDB2]
  %1287 : Float(1, 32, 256, 256) = onnx::Conv[dilations=[1, 1], group=1, kernel_shape=[3, 3], pads=[1, 1, 1, 1], strides=[1, 1]](%1286, %RRDB_trunk.11.RDB2.conv3.weight, %RRDB_trunk.11.RDB2.conv3.bias), scope: RRDBNet/Sequential[RRDB_trunk]/RRDB[11]/ResidualDenseBlock_5C[RDB2]/Conv2d[conv3]
  %1288 : Float(1, 32, 256, 256) = onnx::LeakyRelu[alpha=0.2](%1287), scope: RRDBNet/Sequential[RRDB_trunk]/RRDB[11]/ResidualDenseBlock_5C[RDB2]/LeakyReLU[lrelu]
  %1289 : Float(1, 160, 256, 256) = onnx::Concat[axis=1](%1280, %1282, %1285, %1288), scope: RRDBNet/Sequential[RRDB_trunk]/RRDB[11]/ResidualDenseBlock_5C[RDB2]
  %1290 : Float(1, 32, 256, 256) = onnx::Conv[dilations=[1, 1], group=1, kernel_shape=[3, 3], pads=[1, 1, 1, 1], strides=[1, 1]](%1289, %RRDB_trunk.11.RDB2.conv4.weight, %RRDB_trunk.11.RDB2.conv4.bias), scope: RRDBNet/Sequential[RRDB_trunk]/RRDB[11]/ResidualDenseBlock_5C[RDB2]/Conv2d[conv4]
  %1291 : Float(1, 32, 256, 256) = onnx::LeakyRelu[alpha=0.2](%1290), scope: RRDBNet/Sequential[RRDB_trunk]/RRDB[11]/ResidualDenseBlock_5C[RDB2]/LeakyReLU[lrelu]
  %1292 : Float(1, 192, 256, 256) = onnx::Concat[axis=1](%1280, %1282, %1285, %1288, %1291), scope: RRDBNet/Sequential[RRDB_trunk]/RRDB[11]/ResidualDenseBlock_5C[RDB2]
  %1293 : Float(1, 64, 256, 256) = onnx::Conv[dilations=[1, 1], group=1, kernel_shape=[3, 3], pads=[1, 1, 1, 1], strides=[1, 1]](%1292, %RRDB_trunk.11.RDB2.conv5.weight, %RRDB_trunk.11.RDB2.conv5.bias), scope: RRDBNet/Sequential[RRDB_trunk]/RRDB[11]/ResidualDenseBlock_5C[RDB2]/Conv2d[conv5]
  %1294 : Tensor = onnx::Constant[value={0.2}]()
  %1295 : Tensor = onnx::Mul(%1293, %1294)
  %1296 : Float(1, 64, 256, 256) = onnx::Add(%1295, %1280), scope: RRDBNet/Sequential[RRDB_trunk]/RRDB[11]/ResidualDenseBlock_5C[RDB2]
  %1297 : Float(1, 32, 256, 256) = onnx::Conv[dilations=[1, 1], group=1, kernel_shape=[3, 3], pads=[1, 1, 1, 1], strides=[1, 1]](%1296, %RRDB_trunk.11.RDB3.conv1.weight, %RRDB_trunk.11.RDB3.conv1.bias), scope: RRDBNet/Sequential[RRDB_trunk]/RRDB[11]/ResidualDenseBlock_5C[RDB3]/Conv2d[conv1]
  %1298 : Float(1, 32, 256, 256) = onnx::LeakyRelu[alpha=0.2](%1297), scope: RRDBNet/Sequential[RRDB_trunk]/RRDB[11]/ResidualDenseBlock_5C[RDB3]/LeakyReLU[lrelu]
  %1299 : Float(1, 96, 256, 256) = onnx::Concat[axis=1](%1296, %1298), scope: RRDBNet/Sequential[RRDB_trunk]/RRDB[11]/ResidualDenseBlock_5C[RDB3]
  %1300 : Float(1, 32, 256, 256) = onnx::Conv[dilations=[1, 1], group=1, kernel_shape=[3, 3], pads=[1, 1, 1, 1], strides=[1, 1]](%1299, %RRDB_trunk.11.RDB3.conv2.weight, %RRDB_trunk.11.RDB3.conv2.bias), scope: RRDBNet/Sequential[RRDB_trunk]/RRDB[11]/ResidualDenseBlock_5C[RDB3]/Conv2d[conv2]
  %1301 : Float(1, 32, 256, 256) = onnx::LeakyRelu[alpha=0.2](%1300), scope: RRDBNet/Sequential[RRDB_trunk]/RRDB[11]/ResidualDenseBlock_5C[RDB3]/LeakyReLU[lrelu]
  %1302 : Float(1, 128, 256, 256) = onnx::Concat[axis=1](%1296, %1298, %1301), scope: RRDBNet/Sequential[RRDB_trunk]/RRDB[11]/ResidualDenseBlock_5C[RDB3]
  %1303 : Float(1, 32, 256, 256) = onnx::Conv[dilations=[1, 1], group=1, kernel_shape=[3, 3], pads=[1, 1, 1, 1], strides=[1, 1]](%1302, %RRDB_trunk.11.RDB3.conv3.weight, %RRDB_trunk.11.RDB3.conv3.bias), scope: RRDBNet/Sequential[RRDB_trunk]/RRDB[11]/ResidualDenseBlock_5C[RDB3]/Conv2d[conv3]
  %1304 : Float(1, 32, 256, 256) = onnx::LeakyRelu[alpha=0.2](%1303), scope: RRDBNet/Sequential[RRDB_trunk]/RRDB[11]/ResidualDenseBlock_5C[RDB3]/LeakyReLU[lrelu]
  %1305 : Float(1, 160, 256, 256) = onnx::Concat[axis=1](%1296, %1298, %1301, %1304), scope: RRDBNet/Sequential[RRDB_trunk]/RRDB[11]/ResidualDenseBlock_5C[RDB3]
  %1306 : Float(1, 32, 256, 256) = onnx::Conv[dilations=[1, 1], group=1, kernel_shape=[3, 3], pads=[1, 1, 1, 1], strides=[1, 1]](%1305, %RRDB_trunk.11.RDB3.conv4.weight, %RRDB_trunk.11.RDB3.conv4.bias), scope: RRDBNet/Sequential[RRDB_trunk]/RRDB[11]/ResidualDenseBlock_5C[RDB3]/Conv2d[conv4]
  %1307 : Float(1, 32, 256, 256) = onnx::LeakyRelu[alpha=0.2](%1306), scope: RRDBNet/Sequential[RRDB_trunk]/RRDB[11]/ResidualDenseBlock_5C[RDB3]/LeakyReLU[lrelu]
  %1308 : Float(1, 192, 256, 256) = onnx::Concat[axis=1](%1296, %1298, %1301, %1304, %1307), scope: RRDBNet/Sequential[RRDB_trunk]/RRDB[11]/ResidualDenseBlock_5C[RDB3]
  %1309 : Float(1, 64, 256, 256) = onnx::Conv[dilations=[1, 1], group=1, kernel_shape=[3, 3], pads=[1, 1, 1, 1], strides=[1, 1]](%1308, %RRDB_trunk.11.RDB3.conv5.weight, %RRDB_trunk.11.RDB3.conv5.bias), scope: RRDBNet/Sequential[RRDB_trunk]/RRDB[11]/ResidualDenseBlock_5C[RDB3]/Conv2d[conv5]
  %1310 : Tensor = onnx::Constant[value={0.2}]()
  %1311 : Tensor = onnx::Mul(%1309, %1310)
  %1312 : Float(1, 64, 256, 256) = onnx::Add(%1311, %1296), scope: RRDBNet/Sequential[RRDB_trunk]/RRDB[11]/ResidualDenseBlock_5C[RDB3]
  %1313 : Tensor = onnx::Constant[value={0.2}]()
  %1314 : Tensor = onnx::Mul(%1312, %1313)
  %1315 : Float(1, 64, 256, 256) = onnx::Add(%1314, %1264), scope: RRDBNet/Sequential[RRDB_trunk]/RRDB[11]
  %1316 : Float(1, 32, 256, 256) = onnx::Conv[dilations=[1, 1], group=1, kernel_shape=[3, 3], pads=[1, 1, 1, 1], strides=[1, 1]](%1315, %RRDB_trunk.12.RDB1.conv1.weight, %RRDB_trunk.12.RDB1.conv1.bias), scope: RRDBNet/Sequential[RRDB_trunk]/RRDB[12]/ResidualDenseBlock_5C[RDB1]/Conv2d[conv1]
  %1317 : Float(1, 32, 256, 256) = onnx::LeakyRelu[alpha=0.2](%1316), scope: RRDBNet/Sequential[RRDB_trunk]/RRDB[12]/ResidualDenseBlock_5C[RDB1]/LeakyReLU[lrelu]
  %1318 : Float(1, 96, 256, 256) = onnx::Concat[axis=1](%1315, %1317), scope: RRDBNet/Sequential[RRDB_trunk]/RRDB[12]/ResidualDenseBlock_5C[RDB1]
  %1319 : Float(1, 32, 256, 256) = onnx::Conv[dilations=[1, 1], group=1, kernel_shape=[3, 3], pads=[1, 1, 1, 1], strides=[1, 1]](%1318, %RRDB_trunk.12.RDB1.conv2.weight, %RRDB_trunk.12.RDB1.conv2.bias), scope: RRDBNet/Sequential[RRDB_trunk]/RRDB[12]/ResidualDenseBlock_5C[RDB1]/Conv2d[conv2]
  %1320 : Float(1, 32, 256, 256) = onnx::LeakyRelu[alpha=0.2](%1319), scope: RRDBNet/Sequential[RRDB_trunk]/RRDB[12]/ResidualDenseBlock_5C[RDB1]/LeakyReLU[lrelu]
  %1321 : Float(1, 128, 256, 256) = onnx::Concat[axis=1](%1315, %1317, %1320), scope: RRDBNet/Sequential[RRDB_trunk]/RRDB[12]/ResidualDenseBlock_5C[RDB1]
  %1322 : Float(1, 32, 256, 256) = onnx::Conv[dilations=[1, 1], group=1, kernel_shape=[3, 3], pads=[1, 1, 1, 1], strides=[1, 1]](%1321, %RRDB_trunk.12.RDB1.conv3.weight, %RRDB_trunk.12.RDB1.conv3.bias), scope: RRDBNet/Sequential[RRDB_trunk]/RRDB[12]/ResidualDenseBlock_5C[RDB1]/Conv2d[conv3]
  %1323 : Float(1, 32, 256, 256) = onnx::LeakyRelu[alpha=0.2](%1322), scope: RRDBNet/Sequential[RRDB_trunk]/RRDB[12]/ResidualDenseBlock_5C[RDB1]/LeakyReLU[lrelu]
  %1324 : Float(1, 160, 256, 256) = onnx::Concat[axis=1](%1315, %1317, %1320, %1323), scope: RRDBNet/Sequential[RRDB_trunk]/RRDB[12]/ResidualDenseBlock_5C[RDB1]
  %1325 : Float(1, 32, 256, 256) = onnx::Conv[dilations=[1, 1], group=1, kernel_shape=[3, 3], pads=[1, 1, 1, 1], strides=[1, 1]](%1324, %RRDB_trunk.12.RDB1.conv4.weight, %RRDB_trunk.12.RDB1.conv4.bias), scope: RRDBNet/Sequential[RRDB_trunk]/RRDB[12]/ResidualDenseBlock_5C[RDB1]/Conv2d[conv4]
  %1326 : Float(1, 32, 256, 256) = onnx::LeakyRelu[alpha=0.2](%1325), scope: RRDBNet/Sequential[RRDB_trunk]/RRDB[12]/ResidualDenseBlock_5C[RDB1]/LeakyReLU[lrelu]
  %1327 : Float(1, 192, 256, 256) = onnx::Concat[axis=1](%1315, %1317, %1320, %1323, %1326), scope: RRDBNet/Sequential[RRDB_trunk]/RRDB[12]/ResidualDenseBlock_5C[RDB1]
  %1328 : Float(1, 64, 256, 256) = onnx::Conv[dilations=[1, 1], group=1, kernel_shape=[3, 3], pads=[1, 1, 1, 1], strides=[1, 1]](%1327, %RRDB_trunk.12.RDB1.conv5.weight, %RRDB_trunk.12.RDB1.conv5.bias), scope: RRDBNet/Sequential[RRDB_trunk]/RRDB[12]/ResidualDenseBlock_5C[RDB1]/Conv2d[conv5]
  %1329 : Tensor = onnx::Constant[value={0.2}]()
  %1330 : Tensor = onnx::Mul(%1328, %1329)
  %1331 : Float(1, 64, 256, 256) = onnx::Add(%1330, %1315), scope: RRDBNet/Sequential[RRDB_trunk]/RRDB[12]/ResidualDenseBlock_5C[RDB1]
…
  %1604 : Float(1, 32, 256, 256) = onnx::LeakyRelu[alpha=0.2](%1603), scope: RRDBNet/Sequential[RRDB_trunk]/RRDB[17]/ResidualDenseBlock_5C[RDB3]/LeakyReLU[lrelu]
  %1605 : Float(1, 96, 256, 256) = onnx::Concat[axis=1](%1602, %1604), scope: RRDBNet/Sequential[RRDB_trunk]/RRDB[17]/ResidualDenseBlock_5C[RDB3]
  %1606 : Float(1, 32, 256, 256) = onnx::Conv[dilations=[1, 1], group=1, kernel_shape=[3, 3], pads=[1, 1, 1, 1], strides=[1, 1]](%1605, %RRDB_trunk.17.RDB3.conv2.weight, %RRDB_trunk.17.RDB3.conv2.bias), scope: RRDBNet/Sequential[RRDB_trunk]/RRDB[17]/ResidualDenseBlock_5C[RDB3]/Conv2d[conv2]
  %1607 : Float(1, 32, 256, 256) = onnx::LeakyRelu[alpha=0.2](%1606), scope: RRDBNet/Sequential[RRDB_trunk]/RRDB[17]/ResidualDenseBlock_5C[RDB3]/LeakyReLU[lrelu]
  %1608 : Float(1, 128, 256, 256) = onnx::Concat[axis=1](%1602, %1604, %1607), scope: RRDBNet/Sequential[RRDB_trunk]/RRDB[17]/ResidualDenseBlock_5C[RDB3]
  %1609 : Float(1, 32, 256, 256) = onnx::Conv[dilations=[1, 1], group=1, kernel_shape=[3, 3], pads=[1, 1, 1, 1], strides=[1, 1]](%1608, %RRDB_trunk.17.RDB3.conv3.weight, %RRDB_trunk.17.RDB3.conv3.bias), scope: RRDBNet/Sequential[RRDB_trunk]/RRDB[17]/ResidualDenseBlock_5C[RDB3]/Conv2d[conv3]
  %1610 : Float(1, 32, 256, 256) = onnx::LeakyRelu[alpha=0.2](%1609), scope: RRDBNet/Sequential[RRDB_trunk]/RRDB[17]/ResidualDenseBlock_5C[RDB3]/LeakyReLU[lrelu]
  %1611 : Float(1, 160, 256, 256) = onnx::Concat[axis=1](%1602, %1604, %1607, %1610), scope: RRDBNet/Sequential[RRDB_trunk]/RRDB[17]/ResidualDenseBlock_5C[RDB3]
  %1612 : Float(1, 32, 256, 256) = onnx::Conv[dilations=[1, 1], group=1, kernel_shape=[3, 3], pads=[1, 1, 1, 1], strides=[1, 1]](%1611, %RRDB_trunk.17.RDB3.conv4.weight, %RRDB_trunk.17.RDB3.conv4.bias), scope: RRDBNet/Sequential[RRDB_trunk]/RRDB[17]/ResidualDenseBlock_5C[RDB3]/Conv2d[conv4]
  %1613 : Float(1, 32, 256, 256) = onnx::LeakyRelu[alpha=0.2](%1612), scope: RRDBNet/Sequential[RRDB_trunk]/RRDB[17]/ResidualDenseBlock_5C[RDB3]/LeakyReLU[lrelu]
  %1614 : Float(1, 192, 256, 256) = onnx::Concat[axis=1](%1602, %1604, %1607, %1610, %1613), scope: RRDBNet/Sequential[RRDB_trunk]/RRDB[17]/ResidualDenseBlock_5C[RDB3]
  %1615 : Float(1, 64, 256, 256) = onnx::Conv[dilations=[1, 1], group=1, kernel_shape=[3, 3], pads=[1, 1, 1, 1], strides=[1, 1]](%1614, %RRDB_trunk.17.RDB3.conv5.weight, %RRDB_trunk.17.RDB3.conv5.bias), scope: RRDBNet/Sequential[RRDB_trunk]/RRDB[17]/ResidualDenseBlock_5C[RDB3]/Conv2d[conv5]
  %1616 : Tensor = onnx::Constant[value={0.2}]()
  %1617 : Tensor = onnx::Mul(%1615, %1616)
  %1618 : Float(1, 64, 256, 256) = onnx::Add(%1617, %1602), scope: RRDBNet/Sequential[RRDB_trunk]/RRDB[17]/ResidualDenseBlock_5C[RDB3]
  %1619 : Tensor = onnx::Constant[value={0.2}]()
  %1620 : Tensor = onnx::Mul(%1618, %1619)
  %1621 : Float(1, 64, 256, 256) = onnx::Add(%1620, %1570), scope: RRDBNet/Sequential[RRDB_trunk]/RRDB[17]
  %1622 : Float(1, 32, 256, 256) = onnx::Conv[dilations=[1, 1], group=1, kernel_shape=[3, 3], pads=[1, 1, 1, 1], strides=[1, 1]](%1621, %RRDB_trunk.18.RDB1.conv1.weight, %RRDB_trunk.18.RDB1.conv1.bias), scope: RRDBNet/Sequential[RRDB_trunk]/RRDB[18]/ResidualDenseBlock_5C[RDB1]/Conv2d[conv1]
  %1623 : Float(1, 32, 256, 256) = onnx::LeakyRelu[alpha=0.2](%1622), scope: RRDBNet/Sequential[RRDB_trunk]/RRDB[18]/ResidualDenseBlock_5C[RDB1]/LeakyReLU[lrelu]
  %1624 : Float(1, 96, 256, 256) = onnx::Concat[axis=1](%1621, %1623), scope: RRDBNet/Sequential[RRDB_trunk]/RRDB[18]/ResidualDenseBlock_5C[RDB1]
  %1625 : Float(1, 32, 256, 256) = onnx::Conv[dilations=[1, 1], group=1, kernel_shape=[3, 3], pads=[1, 1, 1, 1], strides=[1, 1]](%1624, %RRDB_trunk.18.RDB1.conv2.weight, %RRDB_trunk.18.RDB1.conv2.bias), scope: RRDBNet/Sequential[RRDB_trunk]/RRDB[18]/ResidualDenseBlock_5C[RDB1]/Conv2d[conv2]
  %1626 : Float(1, 32, 256, 256) = onnx::LeakyRelu[alpha=0.2](%1625), scope: RRDBNet/Sequential[RRDB_trunk]/RRDB[18]/ResidualDenseBlock_5C[RDB1]/LeakyReLU[lrelu]
  %1627 : Float(1, 128, 256, 256) = onnx::Concat[axis=1](%1621, %1623, %1626), scope: RRDBNet/Sequential[RRDB_trunk]/RRDB[18]/ResidualDenseBlock_5C[RDB1]
  %1628 : Float(1, 32, 256, 256) = onnx::Conv[dilations=[1, 1], group=1, kernel_shape=[3, 3], pads=[1, 1, 1, 1], strides=[1, 1]](%1627, %RRDB_trunk.18.RDB1.conv3.weight, %RRDB_trunk.18.RDB1.conv3.bias), scope: RRDBNet/Sequential[RRDB_trunk]/RRDB[18]/ResidualDenseBlock_5C[RDB1]/Conv2d[conv3]
  %1629 : Float(1, 32, 256, 256) = onnx::LeakyRelu[alpha=0.2](%1628), scope: RRDBNet/Sequential[RRDB_trunk]/RRDB[18]/ResidualDenseBlock_5C[RDB1]/LeakyReLU[lrelu]
  %1630 : Float(1, 160, 256, 256) = onnx::Concat[axis=1](%1621, %1623, %1626, %1629), scope: RRDBNet/Sequential[RRDB_trunk]/RRDB[18]/ResidualDenseBlock_5C[RDB1]
  %1631 : Float(1, 32, 256, 256) = onnx::Conv[dilations=[1, 1], group=1, kernel_shape=[3, 3], pads=[1, 1, 1, 1], strides=[1, 1]](%1630, %RRDB_trunk.18.RDB1.conv4.weight, %RRDB_trunk.18.RDB1.conv4.bias), scope: RRDBNet/Sequential[RRDB_trunk]/RRDB[18]/ResidualDenseBlock_5C[RDB1]/Conv2d[conv4]
  %1632 : Float(1, 32, 256, 256) = onnx::LeakyRelu[alpha=0.2](%1631), scope: RRDBNet/Sequential[RRDB_trunk]/RRDB[18]/ResidualDenseBlock_5C[RDB1]/LeakyReLU[lrelu]
  %1633 : Float(1, 192, 256, 256) = onnx::Concat[axis=1](%1621, %1623, %1626, %1629, %1632), scope: RRDBNet/Sequential[RRDB_trunk]/RRDB[18]/ResidualDenseBlock_5C[RDB1]
  %1634 : Float(1, 64, 256, 256) = onnx::Conv[dilations=[1, 1], group=1, kernel_shape=[3, 3], pads=[1, 1, 1, 1], strides=[1, 1]](%1633, %RRDB_trunk.18.RDB1.conv5.weight, %RRDB_trunk.18.RDB1.conv5.bias), scope: RRDBNet/Sequential[RRDB_trunk]/RRDB[18]/ResidualDenseBlock_5C[RDB1]/Conv2d[conv5]
  %1635 : Tensor = onnx::Constant[value={0.2}]()
  %1636 : Tensor = onnx::Mul(%1634, %1635)
  %1637 : Float(1, 64, 256, 256) = onnx::Add(%1636, %1621), scope: RRDBNet/Sequential[RRDB_trunk]/RRDB[18]/ResidualDenseBlock_5C[RDB1]
  %1638 : Float(1, 32, 256, 256) = onnx::Conv[dilations=[1, 1], group=1, kernel_shape=[3, 3], pads=[1, 1, 1, 1], strides=[1, 1]](%1637, %RRDB_trunk.18.RDB2.conv1.weight, %RRDB_trunk.18.RDB2.conv1.bias), scope: RRDBNet/Sequential[RRDB_trunk]/RRDB[18]/ResidualDenseBlock_5C[RDB2]/Conv2d[conv1]
  %1639 : Float(1, 32, 256, 256) = onnx::LeakyRelu[alpha=0.2](%1638), scope: RRDBNet/Sequential[RRDB_trunk]/RRDB[18]/ResidualDenseBlock_5C[RDB2]/LeakyReLU[lrelu]
  %1640 : Float(1, 96, 256, 256) = onnx::Concat[axis=1](%1637, %1639), scope: RRDBNet/Sequential[RRDB_trunk]/RRDB[18]/ResidualDenseBlock_5C[RDB2]
  %1641 : Float(1, 32, 256, 256) = onnx::Conv[dilations=[1, 1], group=1, kernel_shape=[3, 3], pads=[1, 1, 1, 1], strides=[1, 1]](%1640, %RRDB_trunk.18.RDB2.conv2.weight, %RRDB_trunk.18.RDB2.conv2.bias), scope: RRDBNet/Sequential[RRDB_trunk]/RRDB[18]/ResidualDenseBlock_5C[RDB2]/Conv2d[conv2]
  %1642 : Float(1, 32, 256, 256) = onnx::LeakyRelu[alpha=0.2](%1641), scope: RRDBNet/Sequential[RRDB_trunk]/RRDB[18]/ResidualDenseBlock_5C[RDB2]/LeakyReLU[lrelu]
  %1643 : Float(1, 128, 256, 256) = onnx::Concat[axis=1](%1637, %1639, %1642), scope: RRDBNet/Sequential[RRDB_trunk]/RRDB[18]/ResidualDenseBlock_5C[RDB2]
  %1644 : Float(1, 32, 256, 256) = onnx::Conv[dilations=[1, 1], group=1, kernel_shape=[3, 3], pads=[1, 1, 1, 1], strides=[1, 1]](%1643, %RRDB_trunk.18.RDB2.conv3.weight, %RRDB_trunk.18.RDB2.conv3.bias), scope: RRDBNet/Sequential[RRDB_trunk]/RRDB[18]/ResidualDenseBlock_5C[RDB2]/Conv2d[conv3]
  %1645 : Float(1, 32, 256, 256) = onnx::LeakyRelu[alpha=0.2](%1644), scope: RRDBNet/Sequential[RRDB_trunk]/RRDB[18]/ResidualDenseBlock_5C[RDB2]/LeakyReLU[lrelu]
  %1646 : Float(1, 160, 256, 256) = onnx::Concat[axis=1](%1637, %1639, %1642, %1645), scope: RRDBNet/Sequential[RRDB_trunk]/RRDB[18]/ResidualDenseBlock_5C[RDB2]
  %1647 : Float(1, 32, 256, 256) = onnx::Conv[dilations=[1, 1], group=1, kernel_shape=[3, 3], pads=[1, 1, 1, 1], strides=[1, 1]](%1646, %RRDB_trunk.18.RDB2.conv4.weight, %RRDB_trunk.18.RDB2.conv4.bias), scope: RRDBNet/Sequential[RRDB_trunk]/RRDB[18]/ResidualDenseBlock_5C[RDB2]/Conv2d[conv4]
  %1648 : Float(1, 32, 256, 256) = onnx::LeakyRelu[alpha=0.2](%1647), scope: RRDBNet/Sequential[RRDB_trunk]/RRDB[18]/ResidualDenseBlock_5C[RDB2]/LeakyReLU[lrelu]
  %1649 : Float(1, 192, 256, 256) = onnx::Concat[axis=1](%1637, %1639, %1642, %1645, %1648), scope: RRDBNet/Sequential[RRDB_trunk]/RRDB[18]/ResidualDenseBlock_5C[RDB2]
  %1650 : Float(1, 64, 256, 256) = onnx::Conv[dilations=[1, 1], group=1, kernel_shape=[3, 3], pads=[1, 1, 1, 1], strides=[1, 1]](%1649, %RRDB_trunk.18.RDB2.conv5.weight, %RRDB_trunk.18.RDB2.conv5.bias), scope: RRDBNet/Sequential[RRDB_trunk]/RRDB[18]/ResidualDenseBlock_5C[RDB2]/Conv2d[conv5]
  %1651 : Tensor = onnx::Constant[value={0.2}]()
  %1652 : Tensor = onnx::Mul(%1650, %1651)
  %1653 : Float(1, 64, 256, 256) = onnx::Add(%1652, %1637), scope: RRDBNet/Sequential[RRDB_trunk]/RRDB[18]/ResidualDenseBlock_5C[RDB2]
  %1654 : Float(1, 32, 256, 256) = onnx::Conv[dilations=[1, 1], group=1, kernel_shape=[3, 3], pads=[1, 1, 1, 1], strides=[1, 1]](%1653, %RRDB_trunk.18.RDB3.conv1.weight, %RRDB_trunk.18.RDB3.conv1.bias), scope: RRDBNet/Sequential[RRDB_trunk]/RRDB[18]/ResidualDenseBlock_5C[RDB3]/Conv2d[conv1]
  %1655 : Float(1, 32, 256, 256) = onnx::LeakyRelu[alpha=0.2](%1654), scope: RRDBNet/Sequential[RRDB_trunk]/RRDB[18]/ResidualDenseBlock_5C[RDB3]/LeakyReLU[lrelu]
  %1656 : Float(1, 96, 256, 256) = onnx::Concat[axis=1](%1653, %1655), scope: RRDBNet/Sequential[RRDB_trunk]/RRDB[18]/ResidualDenseBlock_5C[RDB3]
  %1657 : Float(1, 32, 256, 256) = onnx::Conv[dilations=[1, 1], group=1, kernel_shape=[3, 3], pads=[1, 1, 1, 1], strides=[1, 1]](%1656, %RRDB_trunk.18.RDB3.conv2.weight, %RRDB_trunk.18.RDB3.conv2.bias), scope: RRDBNet/Sequential[RRDB_trunk]/RRDB[18]/ResidualDenseBlock_5C[RDB3]/Conv2d[conv2]
  %1658 : Float(1, 32, 256, 256) = onnx::LeakyRelu[alpha=0.2](%1657), scope: RRDBNet/Sequential[RRDB_trunk]/RRDB[18]/ResidualDenseBlock_5C[RDB3]/LeakyReLU[lrelu]
  %1659 : Float(1, 128, 256, 256) = onnx::Concat[axis=1](%1653, %1655, %1658), scope: RRDBNet/Sequential[RRDB_trunk]/RRDB[18]/ResidualDenseBlock_5C[RDB3]
  %1660 : Float(1, 32, 256, 256) = onnx::Conv[dilations=[1, 1], group=1, kernel_shape=[3, 3], pads=[1, 1, 1, 1], strides=[1, 1]](%1659, %RRDB_trunk.18.RDB3.conv3.weight, %RRDB_trunk.18.RDB3.conv3.bias), scope: RRDBNet/Sequential[RRDB_trunk]/RRDB[18]/ResidualDenseBlock_5C[RDB3]/Conv2d[conv3]
  %1661 : Float(1, 32, 256, 256) = onnx::LeakyRelu[alpha=0.2](%1660), scope: RRDBNet/Sequential[RRDB_trunk]/RRDB[18]/ResidualDenseBlock_5C[RDB3]/LeakyReLU[lrelu]
  %1662 : Float(1, 160, 256, 256) = onnx::Concat[axis=1](%1653, %1655, %1658, %1661), scope: RRDBNet/Sequential[RRDB_trunk]/RRDB[18]/ResidualDenseBlock_5C[RDB3]
  %1663 : Float(1, 32, 256, 256) = onnx::Conv[dilations=[1, 1], group=1, kernel_shape=[3, 3], pads=[1, 1, 1, 1], strides=[1, 1]](%1662, %RRDB_trunk.18.RDB3.conv4.weight, %RRDB_trunk.18.RDB3.conv4.bias), scope: RRDBNet/Sequential[RRDB_trunk]/RRDB[18]/ResidualDenseBlock_5C[RDB3]/Conv2d[conv4]
  %1664 : Float(1, 32, 256, 256) = onnx::LeakyRelu[alpha=0.2](%1663), scope: RRDBNet/Sequential[RRDB_trunk]/RRDB[18]/ResidualDenseBlock_5C[RDB3]/LeakyReLU[lrelu]
  %1665 : Float(1, 192, 256, 256) = onnx::Concat[axis=1](%1653, %1655, %1658, %1661, %1664), scope: RRDBNet/Sequential[RRDB_trunk]/RRDB[18]/ResidualDenseBlock_5C[RDB3]
  %1666 : Float(1, 64, 256, 256) = onnx::Conv[dilations=[1, 1], group=1, kernel_shape=[3, 3], pads=[1, 1, 1, 1], strides=[1, 1]](%1665, %RRDB_trunk.18.RDB3.conv5.weight, %RRDB_trunk.18.RDB3.conv5.bias), scope: RRDBNet/Sequential[RRDB_trunk]/RRDB[18]/ResidualDenseBlock_5C[RDB3]/Conv2d[conv5]
  %1667 : Tensor = onnx::Constant[value={0.2}]()
  %1668 : Tensor = onnx::Mul(%1666, %1667)
  %1669 : Float(1, 64, 256, 256) = onnx::Add(%1668, %1653), scope: RRDBNet/Sequential[RRDB_trunk]/RRDB[18]/ResidualDenseBlock_5C[RDB3]
  %1670 : Tensor = onnx::Constant[value={0.2}]()
  %1671 : Tensor = onnx::Mul(%1669, %1670)
  %1672 : Float(1, 64, 256, 256) = onnx::Add(%1671, %1621), scope: RRDBNet/Sequential[RRDB_trunk]/RRDB[18]
  %1673 : Float(1, 32, 256, 256) = onnx::Conv[dilations=[1, 1], group=1, kernel_shape=[3, 3], pads=[1, 1, 1, 1], strides=[1, 1]](%1672, %RRDB_trunk.19.RDB1.conv1.weight, %RRDB_trunk.19.RDB1.conv1.bias), scope: RRDBNet/Sequential[RRDB_trunk]/RRDB[19]/ResidualDenseBlock_5C[RDB1]/Conv2d[conv1]
  %1674 : Float(1, 32, 256, 256) = onnx::LeakyRelu[alpha=0.2](%1673), scope: RRDBNet/Sequential[RRDB_trunk]/RRDB[19]/ResidualDenseBlock_5C[RDB1]/LeakyReLU[lrelu]
  %1675 : Float(1, 96, 256, 256) = onnx::Concat[axis=1](%1672, %1674), scope: RRDBNet/Sequential[RRDB_trunk]/RRDB[19]/ResidualDenseBlock_5C[RDB1]
  %1676 : Float(1, 32, 256, 256) = onnx::Conv[dilations=[1, 1], group=1, kernel_shape=[3, 3], pads=[1, 1, 1, 1], strides=[1, 1]](%1675, %RRDB_trunk.19.RDB1.conv2.weight, %RRDB_trunk.19.RDB1.conv2.bias), scope: RRDBNet/Sequential[RRDB_trunk]/RRDB[19]/ResidualDenseBlock_5C[RDB1]/Conv2d[conv2]
  %1677 : Float(1, 32, 256, 256) = onnx::LeakyRelu[alpha=0.2](%1676), scope: RRDBNet/Sequential[RRDB_trunk]/RRDB[19]/ResidualDenseBlock_5C[RDB1]/LeakyReLU[lrelu]
  %1678 : Float(1, 128, 256, 256) = onnx::Concat[axis=1](%1672, %1674, %1677), scope: RRDBNet/Sequential[RRDB_trunk]/RRDB[19]/ResidualDenseBlock_5C[RDB1]
  %1679 : Float(1, 32, 256, 256) = onnx::Conv[dilations=[1, 1], group=1, kernel_shape=[3, 3], pads=[1, 1, 1, 1], strides=[1, 1]](%1678, %RRDB_trunk.19.RDB1.conv3.weight, %RRDB_trunk.19.RDB1.conv3.bias), scope: RRDBNet/Sequential[RRDB_trunk]/RRDB[19]/ResidualDenseBlock_5C[RDB1]/Conv2d[conv3]
  %1680 : Float(1, 32, 256, 256) = onnx::LeakyRelu[alpha=0.2](%1679), scope: RRDBNet/Sequential[RRDB_trunk]/RRDB[19]/ResidualDenseBlock_5C[RDB1]/LeakyReLU[lrelu]
  %1681 : Float(1, 160, 256, 256) = onnx::Concat[axis=1](%1672, %1674, %1677, %1680), scope: RRDBNet/Sequential[RRDB_trunk]/RRDB[19]/ResidualDenseBlock_5C[RDB1]
  %1682 : Float(1, 32, 256, 256) = onnx::Conv[dilations=[1, 1], group=1, kernel_shape=[3, 3], pads=[1, 1, 1, 1], strides=[1, 1]](%1681, %RRDB_trunk.19.RDB1.conv4.weight, %RRDB_trunk.19.RDB1.conv4.bias), scope: RRDBNet/Sequential[RRDB_trunk]/RRDB[19]/ResidualDenseBlock_5C[RDB1]/Conv2d[conv4]
  %1683 : Float(1, 32, 256, 256) = onnx::LeakyRelu[alpha=0.2](%1682), scope: RRDBNet/Sequential[RRDB_trunk]/RRDB[19]/ResidualDenseBlock_5C[RDB1]/LeakyReLU[lrelu]
  %1684 : Float(1, 192, 256, 256) = onnx::Concat[axis=1](%1672, %1674, %1677, %1680, %1683), scope: RRDBNet/Sequential[RRDB_trunk]/RRDB[19]/ResidualDenseBlock_5C[RDB1]
  %1685 : Float(1, 64, 256, 256) = onnx::Conv[dilations=[1, 1], group=1, kernel_shape=[3, 3], pads=[1, 1, 1, 1], strides=[1, 1]](%1684, %RRDB_trunk.19.RDB1.conv5.weight, %RRDB_trunk.19.RDB1.conv5.bias), scope: RRDBNet/Sequential[RRDB_trunk]/RRDB[19]/ResidualDenseBlock_5C[RDB1]/Conv2d[conv5]
  %1686 : Tensor = onnx::Constant[value={0.2}]()
  %1687 : Tensor = onnx::Mul(%1685, %1686)
  %1688 : Float(1, 64, 256, 256) = onnx::Add(%1687, %1672), scope: RRDBNet/Sequential[RRDB_trunk]/RRDB[19]/ResidualDenseBlock_5C[RDB1]
  %1689 : Float(1, 32, 256, 256) = onnx::Conv[dilations=[1, 1], group=1, kernel_shape=[3, 3], pads=[1, 1, 1, 1], strides=[1, 1]](%1688, %RRDB_trunk.19.RDB2.conv1.weight, %RRDB_trunk.19.RDB2.conv1.bias), scope: RRDBNet/Sequential[RRDB_trunk]/RRDB[19]/ResidualDenseBlock_5C[RDB2]/Conv2d[conv1]
  %1690 : Float(1, 32, 256, 256) = onnx::LeakyRelu[alpha=0.2](%1689), scope: RRDBNet/Sequential[RRDB_trunk]/RRDB[19]/ResidualDenseBlock_5C[RDB2]/LeakyReLU[lrelu]
  %1691 : Float(1, 96, 256, 256) = onnx::Concat[axis=1](%1688, %1690), scope: RRDBNet/Sequential[RRDB_trunk]/RRDB[19]/ResidualDenseBlock_5C[RDB2]
  %1692 : Float(1, 32, 256, 256) = onnx::Conv[dilations=[1, 1], group=1, kernel_shape=[3, 3], pads=[1, 1, 1, 1], strides=[1, 1]](%1691, %RRDB_trunk.19.RDB2.conv2.weight, %RRDB_trunk.19.RDB2.conv2.bias), scope: RRDBNet/Sequential[RRDB_trunk]/RRDB[19]/ResidualDenseBlock_5C[RDB2]/Conv2d[conv2]
  %1693 : Float(1, 32, 256, 256) = onnx::LeakyRelu[alpha=0.2](%1692), scope: RRDBNet/Sequential[RRDB_trunk]/RRDB[19]/ResidualDenseBlock_5C[RDB2]/LeakyReLU[lrelu]
  %1694 : Float(1, 128, 256, 256) = onnx::Concat[axis=1](%1688, %1690, %1693), scope: RRDBNet/Sequential[RRDB_trunk]/RRDB[19]/ResidualDenseBlock_5C[RDB2]
  %1695 : Float(1, 32, 256, 256) = onnx::Conv[dilations=[1, 1], group=1, kernel_shape=[3, 3], pads=[1, 1, 1, 1], strides=[1, 1]](%1694, %RRDB_trunk.19.RDB2.conv3.weight, %RRDB_trunk.19.RDB2.conv3.bias), scope: RRDBNet/Sequential[RRDB_trunk]/RRDB[19]/ResidualDenseBlock_5C[RDB2]/Conv2d[conv3]
  %1696 : Float(1, 32, 256, 256) = onnx::LeakyRelu[alpha=0.2](%1695), scope: RRDBNet/Sequential[RRDB_trunk]/RRDB[19]/ResidualDenseBlock_5C[RDB2]/LeakyReLU[lrelu]
  %1697 : Float(1, 160, 256, 256) = onnx::Concat[axis=1](%1688, %1690, %1693, %1696), scope: RRDBNet/Sequential[RRDB_trunk]/RRDB[19]/ResidualDenseBlock_5C[RDB2]
  %1698 : Float(1, 32, 256, 256) = onnx::Conv[dilations=[1, 1], group=1, kernel_shape=[3, 3], pads=[1, 1, 1, 1], strides=[1, 1]](%1697, %RRDB_trunk.19.RDB2.conv4.weight, %RRDB_trunk.19.RDB2.conv4.bias), scope: RRDBNet/Sequential[RRDB_trunk]/RRDB[19]/ResidualDenseBlock_5C[RDB2]/Conv2d[conv4]
  %1699 : Float(1, 32, 256, 256) = onnx::LeakyRelu[alpha=0.2](%1698), scope: RRDBNet/Sequential[RRDB_trunk]/RRDB[19]/ResidualDenseBlock_5C[RDB2]/LeakyReLU[lrelu]
  %1700 : Float(1, 192, 256, 256) = onnx::Concat[axis=1](%1688, %1690, %1693, %1696, %1699), scope: RRDBNet/Sequential[RRDB_trunk]/RRDB[19]/ResidualDenseBlock_5C[RDB2]
  %1701 : Float(1, 64, 256, 256) = onnx::Conv[dilations=[1, 1], group=1, kernel_shape=[3, 3], pads=[1, 1, 1, 1], strides=[1, 1]](%1700, %RRDB_trunk.19.RDB2.conv5.weight, %RRDB_trunk.19.RDB2.conv5.bias), scope: RRDBNet/Sequential[RRDB_trunk]/RRDB[19]/ResidualDenseBlock_5C[RDB2]/Conv2d[conv5]
  %1702 : Tensor = onnx::Constant[value={0.2}]()
  %1703 : Tensor = onnx::Mul(%1701, %1702)
  %1704 : Float(1, 64, 256, 256) = onnx::Add(%1703, %1688), scope: RRDBNet/Sequential[RRDB_trunk]/RRDB[19]/ResidualDenseBlock_5C[RDB2]
  %1705 : Float(1, 32, 256, 256) = onnx::Conv[dilations=[1, 1], group=1, kernel_shape=[3, 3], pads=[1, 1, 1, 1], strides=[1, 1]](%1704, %RRDB_trunk.19.RDB3.conv1.weight, %RRDB_trunk.19.RDB3.conv1.bias), scope: RRDBNet/Sequential[RRDB_trunk]/RRDB[19]/ResidualDenseBlock_5C[RDB3]/Conv2d[conv1]
  %1706 : Float(1, 32, 256, 256) = onnx::LeakyRelu[alpha=0.2](%1705), scope: RRDBNet/Sequential[RRDB_trunk]/RRDB[19]/ResidualDenseBlock_5C[RDB3]/LeakyReLU[lrelu]
  %1707 : Float(1, 96, 256, 256) = onnx::Concat[axis=1](%1704, %1706), scope: RRDBNet/Sequential[RRDB_trunk]/RRDB[19]/ResidualDenseBlock_5C[RDB3]
  %1708 : Float(1, 32, 256, 256) = onnx::Conv[dilations=[1, 1], group=1, kernel_shape=[3, 3], pads=[1, 1, 1, 1], strides=[1, 1]](%1707, %RRDB_trunk.19.RDB3.conv2.weight, %RRDB_trunk.19.RDB3.conv2.bias), scope: RRDBNet/Sequential[RRDB_trunk]/RRDB[19]/ResidualDenseBlock_5C[RDB3]/Conv2d[conv2]
  %1709 : Float(1, 32, 256, 256) = onnx::LeakyRelu[alpha=0.2](%1708), scope: RRDBNet/Sequential[RRDB_trunk]/RRDB[19]/ResidualDenseBlock_5C[RDB3]/LeakyReLU[lrelu]
  %1710 : Float(1, 128, 256, 256) = onnx::Concat[axis=1](%1704, %1706, %1709), scope: RRDBNet/Sequential[RRDB_trunk]/RRDB[19]/ResidualDenseBlock_5C[RDB3]
  %1711 : Float(1, 32, 256, 256) = onnx::Conv[dilations=[1, 1], group=1, kernel_shape=[3, 3], pads=[1, 1, 1, 1], strides=[1, 1]](%1710, %RRDB_trunk.19.RDB3.conv3.weight, %RRDB_trunk.19.RDB3.conv3.bias), scope: RRDBNet/Sequential[RRDB_trunk]/RRDB[19]/ResidualDenseBlock_5C[RDB3]/Conv2d[conv3]
  %1712 : Float(1, 32, 256, 256) = onnx::LeakyRelu[alpha=0.2](%1711), scope: RRDBNet/Sequential[RRDB_trunk]/RRDB[19]/ResidualDenseBlock_5C[RDB3]/LeakyReLU[lrelu]
  %1713 : Float(1, 160, 256, 256) = onnx::Concat[axis=1](%1704, %1706, %1709, %1712), scope: RRDBNet/Sequential[RRDB_trunk]/RRDB[19]/ResidualDenseBlock_5C[RDB3]
  %1714 : Float(1, 32, 256, 256) = onnx::Conv[dilations=[1, 1], group=1, kernel_shape=[3, 3], pads=[1, 1, 1, 1], strides=[1, 1]](%1713, %RRDB_trunk.19.RDB3.conv4.weight, %RRDB_trunk.19.RDB3.conv4.bias), scope: RRDBNet/Sequential[RRDB_trunk]/RRDB[19]/ResidualDenseBlock_5C[RDB3]/Conv2d[conv4]
  %1715 : Float(1, 32, 256, 256) = onnx::LeakyRelu[alpha=0.2](%1714), scope: RRDBNet/Sequential[RRDB_trunk]/RRDB[19]/ResidualDenseBlock_5C[RDB3]/LeakyReLU[lrelu]
  %1716 : Float(1, 192, 256, 256) = onnx::Concat[axis=1](%1704, %1706, %1709, %1712, %1715), scope: RRDBNet/Sequential[RRDB_trunk]/RRDB[19]/ResidualDenseBlock_5C[RDB3]
  %1717 : Float(1, 64, 256, 256) = onnx::Conv[dilations=[1, 1], group=1, kernel_shape=[3, 3], pads=[1, 1, 1, 1], strides=[1, 1]](%1716, %RRDB_trunk.19.RDB3.conv5.weight, %RRDB_trunk.19.RDB3.conv5.bias), scope: RRDBNet/Sequential[RRDB_trunk]/RRDB[19]/ResidualDenseBlock_5C[RDB3]/Conv2d[conv5]
  %1718 : Tensor = onnx::Constant[value={0.2}]()
  %1719 : Tensor = onnx::Mul(%1717, %1718)
  %1720 : Float(1, 64, 256, 256) = onnx::Add(%1719, %1704), scope: RRDBNet/Sequential[RRDB_trunk]/RRDB[19]/ResidualDenseBlock_5C[RDB3]
  %1721 : Tensor = onnx::Constant[value={0.2}]()
  %1722 : Tensor = onnx::Mul(%1720, %1721)
  %1723 : Float(1, 64, 256, 256) = onnx::Add(%1722, %1672), scope: RRDBNet/Sequential[RRDB_trunk]/RRDB[19]
  %1724 : Float(1, 32, 256, 256) = onnx::Conv[dilations=[1, 1], group=1, kernel_shape=[3, 3], pads=[1, 1, 1, 1], strides=[1, 1]](%1723, %RRDB_trunk.20.RDB1.conv1.weight, %RRDB_trunk.20.RDB1.conv1.bias), scope: RRDBNet/Sequential[RRDB_trunk]/RRDB[20]/ResidualDenseBlock_5C[RDB1]/Conv2d[conv1]
  %1725 : Float(1, 32, 256, 256) = onnx::LeakyRelu[alpha=0.2](%1724), scope: RRDBNet/Sequential[RRDB_trunk]/RRDB[20]/ResidualDenseBlock_5C[RDB1]/LeakyReLU[lrelu]
  %1726 : Float(1, 96, 256, 256) = onnx::Concat[axis=1](%1723, %1725), scope: RRDBNet/Sequential[RRDB_trunk]/RRDB[20]/ResidualDenseBlock_5C[RDB1]
  %1727 : Float(1, 32, 256, 256) = onnx::Conv[dilations=[1, 1], group=1, kernel_shape=[3, 3], pads=[1, 1, 1, 1], strides=[1, 1]](%1726, %RRDB_trunk.20.RDB1.conv2.weight, %RRDB_trunk.20.RDB1.conv2.bias), scope: RRDBNet/Sequential[RRDB_trunk]/RRDB[20]/ResidualDenseBlock_5C[RDB1]/Conv2d[conv2]
  %1728 : Float(1, 32, 256, 256) = onnx::LeakyRelu[alpha=0.2](%1727), scope: RRDBNet/Sequential[RRDB_trunk]/RRDB[20]/ResidualDenseBlock_5C[RDB1]/LeakyReLU[lrelu]
  %1729 : Float(1, 128, 256, 256) = onnx::Concat[axis=1](%1723, %1725, %1728), scope: RRDBNet/Sequential[RRDB_trunk]/RRDB[20]/ResidualDenseBlock_5C[RDB1]
  %1730 : Float(1, 32, 256, 256) = onnx::Conv[dilations=[1, 1], group=1, kernel_shape=[3, 3], pads=[1, 1, 1, 1], strides=[1, 1]](%1729, %RRDB_trunk.20.RDB1.conv3.weight, %RRDB_trunk.20.RDB1.conv3.bias), scope: RRDBNet/Sequential[RRDB_trunk]/RRDB[20]/ResidualDenseBlock_5C[RDB1]/Conv2d[conv3]
  %1731 : Float(1, 32, 256, 256) = onnx::LeakyRelu[alpha=0.2](%1730), scope: RRDBNet/Sequential[RRDB_trunk]/RRDB[20]/ResidualDenseBlock_5C[RDB1]/LeakyReLU[lrelu]
  %1732 : Float(1, 160, 256, 256) = onnx::Concat[axis=1](%1723, %1725, %1728, %1731), scope: RRDBNet/Sequential[RRDB_trunk]/RRDB[20]/ResidualDenseBlock_5C[RDB1]
  %1733 : Float(1, 32, 256, 256) = onnx::Conv[dilations=[1, 1], group=1, kernel_shape=[3, 3], pads=[1, 1, 1, 1], strides=[1, 1]](%1732, %RRDB_trunk.20.RDB1.conv4.weight, %RRDB_trunk.20.RDB1.conv4.bias), scope: RRDBNet/Sequential[RRDB_trunk]/RRDB[20]/ResidualDenseBlock_5C[RDB1]/Conv2d[conv4]
  %1734 : Float(1, 32, 256, 256) = onnx::LeakyRelu[alpha=0.2](%1733), scope: RRDBNet/Sequential[RRDB_trunk]/RRDB[20]/ResidualDenseBlock_5C[RDB1]/LeakyReLU[lrelu]
  %1735 : Float(1, 192, 256, 256) = onnx::Concat[axis=1](%1723, %1725, %1728, %1731, %1734), scope: RRDBNet/Sequential[RRDB_trunk]/RRDB[20]/ResidualDenseBlock_5C[RDB1]
  %1736 : Float(1, 64, 256, 256) = onnx::Conv[dilations=[1, 1], group=1, kernel_shape=[3, 3], pads=[1, 1, 1, 1], strides=[1, 1]](%1735, %RRDB_trunk.20.RDB1.conv5.weight, %RRDB_trunk.20.RDB1.conv5.bias), scope: RRDBNet/Sequential[RRDB_trunk]/RRDB[20]/ResidualDenseBlock_5C[RDB1]/Conv2d[conv5]
  %1737 : Tensor = onnx::Constant[value={0.2}]()
  %1738 : Tensor = onnx::Mul(%1736, %1737)
  %1739 : Float(1, 64, 256, 256) = onnx::Add(%1738, %1723), scope: RRDBNet/Sequential[RRDB_trunk]/RRDB[20]/ResidualDenseBlock_5C[RDB1]
  %1740 : Float(1, 32, 256, 256) = onnx::Conv[dilations=[1, 1], group=1, kernel_shape=[3, 3], pads=[1, 1, 1, 1], strides=[1, 1]](%1739, %RRDB_trunk.20.RDB2.conv1.weight, %RRDB_trunk.20.RDB2.conv1.bias), scope: RRDBNet/Sequential[RRDB_trunk]/RRDB[20]/ResidualDenseBlock_5C[RDB2]/Conv2d[conv1]
  %1741 : Float(1, 32, 256, 256) = onnx::LeakyRelu[alpha=0.2](%1740), scope: RRDBNet/Sequential[RRDB_trunk]/RRDB[20]/ResidualDenseBlock_5C[RDB2]/LeakyReLU[lrelu]
  %1742 : Float(1, 96, 256, 256) = onnx::Concat[axis=1](%1739, %1741), scope: RRDBNet/Sequential[RRDB_trunk]/RRDB[20]/ResidualDenseBlock_5C[RDB2]
  %1743 : Float(1, 32, 256, 256) = onnx::Conv[dilations=[1, 1], group=1, kernel_shape=[3, 3], pads=[1, 1, 1, 1], strides=[1, 1]](%1742, %RRDB_trunk.20.RDB2.conv2.weight, %RRDB_trunk.20.RDB2.conv2.bias), scope: RRDBNet/Sequential[RRDB_trunk]/RRDB[20]/ResidualDenseBlock_5C[RDB2]/Conv2d[conv2]
  %1744 : Float(1, 32, 256, 256) = onnx::LeakyRelu[alpha=0.2](%1743), scope: RRDBNet/Sequential[RRDB_trunk]/RRDB[20]/ResidualDenseBlock_5C[RDB2]/LeakyReLU[lrelu]
  %1745 : Float(1, 128, 256, 256) = onnx::Concat[axis=1](%1739, %1741, %1744), scope: RRDBNet/Sequential[RRDB_trunk]/RRDB[20]/ResidualDenseBlock_5C[RDB2]
  %1746 : Float(1, 32, 256, 256) = onnx::Conv[dilations=[1, 1], group=1, kernel_shape=[3, 3], pads=[1, 1, 1, 1], strides=[1, 1]](%1745, %RRDB_trunk.20.RDB2.conv3.weight, %RRDB_trunk.20.RDB2.conv3.bias), scope: RRDBNet/Sequential[RRDB_trunk]/RRDB[20]/ResidualDenseBlock_5C[RDB2]/Conv2d[conv3]
  %1747 : Float(1, 32, 256, 256) = onnx::LeakyRelu[alpha=0.2](%1746), scope: RRDBNet/Sequential[RRDB_trunk]/RRDB[20]/ResidualDenseBlock_5C[RDB2]/LeakyReLU[lrelu]
  %1748 : Float(1, 160, 256, 256) = onnx::Concat[axis=1](%1739, %1741, %1744, %1747), scope: RRDBNet/Sequential[RRDB_trunk]/RRDB[20]/ResidualDenseBlock_5C[RDB2]
  %1749 : Float(1, 32, 256, 256) = onnx::Conv[dilations=[1, 1], group=1, kernel_shape=[3, 3], pads=[1, 1, 1, 1], strides=[1, 1]](%1748, %RRDB_trunk.20.RDB2.conv4.weight, %RRDB_trunk.20.RDB2.conv4.bias), scope: RRDBNet/Sequential[RRDB_trunk]/RRDB[20]/ResidualDenseBlock_5C[RDB2]/Conv2d[conv4]
  %1750 : Float(1, 32, 256, 256) = onnx::LeakyRelu[alpha=0.2](%1749), scope: RRDBNet/Sequential[RRDB_trunk]/RRDB[20]/ResidualDenseBlock_5C[RDB2]/LeakyReLU[lrelu]
  %1751 : Float(1, 192, 256, 256) = onnx::Concat[axis=1](%1739, %1741, %1744, %1747, %1750), scope: RRDBNet/Sequential[RRDB_trunk]/RRDB[20]/ResidualDenseBlock_5C[RDB2]
  %1752 : Float(1, 64, 256, 256) = onnx::Conv[dilations=[1, 1], group=1, kernel_shape=[3, 3], pads=[1, 1, 1, 1], strides=[1, 1]](%1751, %RRDB_trunk.20.RDB2.conv5.weight, %RRDB_trunk.20.RDB2.conv5.bias), scope: RRDBNet/Sequential[RRDB_trunk]/RRDB[20]/ResidualDenseBlock_5C[RDB2]/Conv2d[conv5]
  %1753 : Tensor = onnx::Constant[value={0.2}]()
  %1754 : Tensor = onnx::Mul(%1752, %1753)
  %1755 : Float(1, 64, 256, 256) = onnx::Add(%1754, %1739), scope: RRDBNet/Sequential[RRDB_trunk]/RRDB[20]/ResidualDenseBlock_5C[RDB2]
  %1756 : Float(1, 32, 256, 256) = onnx::Conv[dilations=[1, 1], group=1, kernel_shape=[3, 3], pads=[1, 1, 1, 1], strides=[1, 1]](%1755, %RRDB_trunk.20.RDB3.conv1.weight, %RRDB_trunk.20.RDB3.conv1.bias), scope: RRDBNet/Sequential[RRDB_trunk]/RRDB[20]/ResidualDenseBlock_5C[RDB3]/Conv2d[conv1]
  %1757 : Float(1, 32, 256, 256) = onnx::LeakyRelu[alpha=0.2](%1756), scope: RRDBNet/Sequential[RRDB_trunk]/RRDB[20]/ResidualDenseBlock_5C[RDB3]/LeakyReLU[lrelu]
  %1758 : Float(1, 96, 256, 256) = onnx::Concat[axis=1](%1755, %1757), scope: RRDBNet/Sequential[RRDB_trunk]/RRDB[20]/ResidualDenseBlock_5C[RDB3]
  %1759 : Float(1, 32, 256, 256) = onnx::Conv[dilations=[1, 1], group=1, kernel_shape=[3, 3], pads=[1, 1, 1, 1], strides=[1, 1]](%1758, %RRDB_trunk.20.RDB3.conv2.weight, %RRDB_trunk.20.RDB3.conv2.bias), scope: RRDBNet/Sequential[RRDB_trunk]/RRDB[20]/ResidualDenseBlock_5C[RDB3]/Conv2d[conv2]
  %1760 : Float(1, 32, 256, 256) = onnx::LeakyRelu[alpha=0.2](%1759), scope: RRDBNet/Sequential[RRDB_trunk]/RRDB[20]/ResidualDenseBlock_5C[RDB3]/LeakyReLU[lrelu]
  %1761 : Float(1, 128, 256, 256) = onnx::Concat[axis=1](%1755, %1757, %1760), scope: RRDBNet/Sequential[RRDB_trunk]/RRDB[20]/ResidualDenseBlock_5C[RDB3]
  %1762 : Float(1, 32, 256, 256) = onnx::Conv[dilations=[1, 1], group=1, kernel_shape=[3, 3], pads=[1, 1, 1, 1], strides=[1, 1]](%1761, %RRDB_trunk.20.RDB3.conv3.weight, %RRDB_trunk.20.RDB3.conv3.bias), scope: RRDBNet/Sequential[RRDB_trunk]/RRDB[20]/ResidualDenseBlock_5C[RDB3]/Conv2d[conv3]
  %1763 : Float(1, 32, 256, 256) = onnx::LeakyRelu[alpha=0.2](%1762), scope: RRDBNet/Sequential[RRDB_trunk]/RRDB[20]/ResidualDenseBlock_5C[RDB3]/LeakyReLU[lrelu]
  %1764 : Float(1, 160, 256, 256) = onnx::Concat[axis=1](%1755, %1757, %1760, %1763), scope: RRDBNet/Sequential[RRDB_trunk]/RRDB[20]/ResidualDenseBlock_5C[RDB3]
  %1765 : Float(1, 32, 256, 256) = onnx::Conv[dilations=[1, 1], group=1, kernel_shape=[3, 3], pads=[1, 1, 1, 1], strides=[1, 1]](%1764, %RRDB_trunk.20.RDB3.conv4.weight, %RRDB_trunk.20.RDB3.conv4.bias), scope: RRDBNet/Sequential[RRDB_trunk]/RRDB[20]/ResidualDenseBlock_5C[RDB3]/Conv2d[conv4]
  %1766 : Float(1, 32, 256, 256) = onnx::LeakyRelu[alpha=0.2](%1765), scope: RRDBNet/Sequential[RRDB_trunk]/RRDB[20]/ResidualDenseBlock_5C[RDB3]/LeakyReLU[lrelu]
  %1767 : Float(1, 192, 256, 256) = onnx::Concat[axis=1](%1755, %1757, %1760, %1763, %1766), scope: RRDBNet/Sequential[RRDB_trunk]/RRDB[20]/ResidualDenseBlock_5C[RDB3]
  %1768 : Float(1, 64, 256, 256) = onnx::Conv[dilations=[1, 1], group=1, kernel_shape=[3, 3], pads=[1, 1, 1, 1], strides=[1, 1]](%1767, %RRDB_trunk.20.RDB3.conv5.weight, %RRDB_trunk.20.RDB3.conv5.bias), scope: RRDBNet/Sequential[RRDB_trunk]/RRDB[20]/ResidualDenseBlock_5C[RDB3]/Conv2d[conv5]
  %1769 : Tensor = onnx::Constant[value={0.2}]()
  %1770 : Tensor = onnx::Mul(%1768, %1769)
  %1771 : Float(1, 64, 256, 256) = onnx::Add(%1770, %1755), scope: RRDBNet/Sequential[RRDB_trunk]/RRDB[20]/ResidualDenseBlock_5C[RDB3]
  %1772 : Tensor = onnx::Constant[value={0.2}]()
  %1773 : Tensor = onnx::Mul(%1771, %1772)
  %1774 : Float(1, 64, 256, 256) = onnx::Add(%1773, %1723), scope: RRDBNet/Sequential[RRDB_trunk]/RRDB[20]
  %1775 : Float(1, 32, 256, 256) = onnx::Conv[dilations=[1, 1], group=1, kernel_shape=[3, 3], pads=[1, 1, 1, 1], strides=[1, 1]](%1774, %RRDB_trunk.21.RDB1.conv1.weight, %RRDB_trunk.21.RDB1.conv1.bias), scope: RRDBNet/Sequential[RRDB_trunk]/RRDB[21]/ResidualDenseBlock_5C[RDB1]/Conv2d[conv1]
  %1776 : Float(1, 32, 256, 256) = onnx::LeakyRelu[alpha=0.2](%1775), scope: RRDBNet/Sequential[RRDB_trunk]/RRDB[21]/ResidualDenseBlock_5C[RDB1]/LeakyReLU[lrelu]
  %1777 : Float(1, 96, 256, 256) = onnx::Concat[axis=1](%1774, %1776), scope: RRDBNet/Sequential[RRDB_trunk]/RRDB[21]/ResidualDenseBlock_5C[RDB1]
  %1778 : Float(1, 32, 256, 256) = onnx::Conv[dilations=[1, 1], group=1, kernel_shape=[3, 3], pads=[1, 1, 1, 1], strides=[1, 1]](%1777, %RRDB_trunk.21.RDB1.conv2.weight, %RRDB_trunk.21.RDB1.conv2.bias), scope: RRDBNet/Sequential[RRDB_trunk]/RRDB[21]/ResidualDenseBlock_5C[RDB1]/Conv2d[conv2]
  %1779 : Float(1, 32, 256, 256) = onnx::LeakyRelu[alpha=0.2](%1778), scope: RRDBNet/Sequential[RRDB_trunk]/RRDB[21]/ResidualDenseBlock_5C[RDB1]/LeakyReLU[lrelu]
  %1780 : Float(1, 128, 256, 256) = onnx::Concat[axis=1](%1774, %1776, %1779), scope: RRDBNet/Sequential[RRDB_trunk]/RRDB[21]/ResidualDenseBlock_5C[RDB1]
  %1781 : Float(1, 32, 256, 256) = onnx::Conv[dilations=[1, 1], group=1, kernel_shape=[3, 3], pads=[1, 1, 1, 1], strides=[1, 1]](%1780, %RRDB_trunk.21.RDB1.conv3.weight, %RRDB_trunk.21.RDB1.conv3.bias), scope: RRDBNet/Sequential[RRDB_trunk]/RRDB[21]/ResidualDenseBlock_5C[RDB1]/Conv2d[conv3]
  %1782 : Float(1, 32, 256, 256) = onnx::LeakyRelu[alpha=0.2](%1781), scope: RRDBNet/Sequential[RRDB_trunk]/RRDB[21]/ResidualDenseBlock_5C[RDB1]/LeakyReLU[lrelu]
  %1783 : Float(1, 160, 256, 256) = onnx::Concat[axis=1](%1774, %1776, %1779, %1782), scope: RRDBNet/Sequential[RRDB_trunk]/RRDB[21]/ResidualDenseBlock_5C[RDB1]
  %1784 : Float(1, 32, 256, 256) = onnx::Conv[dilations=[1, 1], group=1, kernel_shape=[3, 3], pads=[1, 1, 1, 1], strides=[1, 1]](%1783, %RRDB_trunk.21.RDB1.conv4.weight, %RRDB_trunk.21.RDB1.conv4.bias), scope: RRDBNet/Sequential[RRDB_trunk]/RRDB[21]/ResidualDenseBlock_5C[RDB1]/Conv2d[conv4]
  %1785 : Float(1, 32, 256, 256) = onnx::LeakyRelu[alpha=0.2](%1784), scope: RRDBNet/Sequential[RRDB_trunk]/RRDB[21]/ResidualDenseBlock_5C[RDB1]/LeakyReLU[lrelu]
  %1786 : Float(1, 192, 256, 256) = onnx::Concat[axis=1](%1774, %1776, %1779, %1782, %1785), scope: RRDBNet/Sequential[RRDB_trunk]/RRDB[21]/ResidualDenseBlock_5C[RDB1]
  %1787 : Float(1, 64, 256, 256) = onnx::Conv[dilations=[1, 1], group=1, kernel_shape=[3, 3], pads=[1, 1, 1, 1], strides=[1, 1]](%1786, %RRDB_trunk.21.RDB1.conv5.weight, %RRDB_trunk.21.RDB1.conv5.bias), scope: RRDBNet/Sequential[RRDB_trunk]/RRDB[21]/ResidualDenseBlock_5C[RDB1]/Conv2d[conv5]
  %1788 : Tensor = onnx::Constant[value={0.2}]()
  %1789 : Tensor = onnx::Mul(%1787, %1788)
  %1790 : Float(1, 64, 256, 256) = onnx::Add(%1789, %1774), scope: RRDBNet/Sequential[RRDB_trunk]/RRDB[21]/ResidualDenseBlock_5C[RDB1]
  %1791 : Float(1, 32, 256, 256) = onnx::Conv[dilations=[1, 1], group=1, kernel_shape=[3, 3], pads=[1, 1, 1, 1], strides=[1, 1]](%1790, %RRDB_trunk.21.RDB2.conv1.weight, %RRDB_trunk.21.RDB2.conv1.bias), scope: RRDBNet/Sequential[RRDB_trunk]/RRDB[21]/ResidualDenseBlock_5C[RDB2]/Conv2d[conv1]
  %1792 : Float(1, 32, 256, 256) = onnx::LeakyRelu[alpha=0.2](%1791), scope: RRDBNet/Sequential[RRDB_trunk]/RRDB[21]/ResidualDenseBlock_5C[RDB2]/LeakyReLU[lrelu]
  %1793 : Float(1, 96, 256, 256) = onnx::Concat[axis=1](%1790, %1792), scope: RRDBNet/Sequential[RRDB_trunk]/RRDB[21]/ResidualDenseBlock_5C[RDB2]
  %1794 : Float(1, 32, 256, 256) = onnx::Conv[dilations=[1, 1], group=1, kernel_shape=[3, 3], pads=[1, 1, 1, 1], strides=[1, 1]](%1793, %RRDB_trunk.21.RDB2.conv2.weight, %RRDB_trunk.21.RDB2.conv2.bias), scope: RRDBNet/Sequential[RRDB_trunk]/RRDB[21]/ResidualDenseBlock_5C[RDB2]/Conv2d[conv2]
  %1795 : Float(1, 32, 256, 256) = onnx::LeakyRelu[alpha=0.2](%1794), scope: RRDBNet/Sequential[RRDB_trunk]/RRDB[21]/ResidualDenseBlock_5C[RDB2]/LeakyReLU[lrelu]
  %1796 : Float(1, 128, 256, 256) = onnx::Concat[axis=1](%1790, %1792, %1795), scope: RRDBNet/Sequential[RRDB_trunk]/RRDB[21]/ResidualDenseBlock_5C[RDB2]
  %1797 : Float(1, 32, 256, 256) = onnx::Conv[dilations=[1, 1], group=1, kernel_shape=[3, 3], pads=[1, 1, 1, 1], strides=[1, 1]](%1796, %RRDB_trunk.21.RDB2.conv3.weight, %RRDB_trunk.21.RDB2.conv3.bias), scope: RRDBNet/Sequential[RRDB_trunk]/RRDB[21]/ResidualDenseBlock_5C[RDB2]/Conv2d[conv3]
  %1798 : Float(1, 32, 256, 256) = onnx::LeakyRelu[alpha=0.2](%1797), scope: RRDBNet/Sequential[RRDB_trunk]/RRDB[21]/ResidualDenseBlock_5C[RDB2]/LeakyReLU[lrelu]
  %1799 : Float(1, 160, 256, 256) = onnx::Concat[axis=1](%1790, %1792, %1795, %1798), scope: RRDBNet/Sequential[RRDB_trunk]/RRDB[21]/ResidualDenseBlock_5C[RDB2]
  %1800 : Float(1, 32, 256, 256) = onnx::Conv[dilations=[1, 1], group=1, kernel_shape=[3, 3], pads=[1, 1, 1, 1], strides=[1, 1]](%1799, %RRDB_trunk.21.RDB2.conv4.weight, %RRDB_trunk.21.RDB2.conv4.bias), scope: RRDBNet/Sequential[RRDB_trunk]/RRDB[21]/ResidualDenseBlock_5C[RDB2]/Conv2d[conv4]
  %1801 : Float(1, 32, 256, 256) = onnx::LeakyRelu[alpha=0.2](%1800), scope: RRDBNet/Sequential[RRDB_trunk]/RRDB[21]/ResidualDenseBlock_5C[RDB2]/LeakyReLU[lrelu]
  %1802 : Float(1, 192, 256, 256) = onnx::Concat[axis=1](%1790, %1792, %1795, %1798, %1801), scope: RRDBNet/Sequential[RRDB_trunk]/RRDB[21]/ResidualDenseBlock_5C[RDB2]
  %1803 : Float(1, 64, 256, 256) = onnx::Conv[dilations=[1, 1], group=1, kernel_shape=[3, 3], pads=[1, 1, 1, 1], strides=[1, 1]](%1802, %RRDB_trunk.21.RDB2.conv5.weight, %RRDB_trunk.21.RDB2.conv5.bias), scope: RRDBNet/Sequential[RRDB_trunk]/RRDB[21]/ResidualDenseBlock_5C[RDB2]/Conv2d[conv5]
  %1804 : Tensor = onnx::Constant[value={0.2}]()
  %1805 : Tensor = onnx::Mul(%1803, %1804)
  %1806 : Float(1, 64, 256, 256) = onnx::Add(%1805, %1790), scope: RRDBNet/Sequential[RRDB_trunk]/RRDB[21]/ResidualDenseBlock_5C[RDB2]
  %1807 : Float(1, 32, 256, 256) = onnx::Conv[dilations=[1, 1], group=1, kernel_shape=[3, 3], pads=[1, 1, 1, 1], strides=[1, 1]](%1806, %RRDB_trunk.21.RDB3.conv1.weight, %RRDB_trunk.21.RDB3.conv1.bias), scope: RRDBNet/Sequential[RRDB_trunk]/RRDB[21]/ResidualDenseBlock_5C[RDB3]/Conv2d[conv1]
  %1808 : Float(1, 32, 256, 256) = onnx::LeakyRelu[alpha=0.2](%1807), scope: RRDBNet/Sequential[RRDB_trunk]/RRDB[21]/ResidualDenseBlock_5C[RDB3]/LeakyReLU[lrelu]
  %1809 : Float(1, 96, 256, 256) = onnx::Concat[axis=1](%1806, %1808), scope: RRDBNet/Sequential[RRDB_trunk]/RRDB[21]/ResidualDenseBlock_5C[RDB3]
  %1810 : Float(1, 32, 256, 256) = onnx::Conv[dilations=[1, 1], group=1, kernel_shape=[3, 3], pads=[1, 1, 1, 1], strides=[1, 1]](%1809, %RRDB_trunk.21.RDB3.conv2.weight, %RRDB_trunk.21.RDB3.conv2.bias), scope: RRDBNet/Sequential[RRDB_trunk]/RRDB[21]/ResidualDenseBlock_5C[RDB3]/Conv2d[conv2]
  %1811 : Float(1, 32, 256, 256) = onnx::LeakyRelu[alpha=0.2](%1810), scope: RRDBNet/Sequential[RRDB_trunk]/RRDB[21]/ResidualDenseBlock_5C[RDB3]/LeakyReLU[lrelu]
  %1812 : Float(1, 128, 256, 256) = onnx::Concat[axis=1](%1806, %1808, %1811), scope: RRDBNet/Sequential[RRDB_trunk]/RRDB[21]/ResidualDenseBlock_5C[RDB3]
  %1813 : Float(1, 32, 256, 256) = onnx::Conv[dilations=[1, 1], group=1, kernel_shape=[3, 3], pads=[1, 1, 1, 1], strides=[1, 1]](%1812, %RRDB_trunk.21.RDB3.conv3.weight, %RRDB_trunk.21.RDB3.conv3.bias), scope: RRDBNet/Sequential[RRDB_trunk]/RRDB[21]/ResidualDenseBlock_5C[RDB3]/Conv2d[conv3]
  %1814 : Float(1, 32, 256, 256) = onnx::LeakyRelu[alpha=0.2](%1813), scope: RRDBNet/Sequential[RRDB_trunk]/RRDB[21]/ResidualDenseBlock_5C[RDB3]/LeakyReLU[lrelu]
  %1815 : Float(1, 160, 256, 256) = onnx::Concat[axis=1](%1806, %1808, %1811, %1814), scope: RRDBNet/Sequential[RRDB_trunk]/RRDB[21]/ResidualDenseBlock_5C[RDB3]
  %1816 : Float(1, 32, 256, 256) = onnx::Conv[dilations=[1, 1], group=1, kernel_shape=[3, 3], pads=[1, 1, 1, 1], strides=[1, 1]](%1815, %RRDB_trunk.21.RDB3.conv4.weight, %RRDB_trunk.21.RDB3.conv4.bias), scope: RRDBNet/Sequential[RRDB_trunk]/RRDB[21]/ResidualDenseBlock_5C[RDB3]/Conv2d[conv4]
  %1817 : Float(1, 32, 256, 256) = onnx::LeakyRelu[alpha=0.2](%1816), scope: RRDBNet/Sequential[RRDB_trunk]/RRDB[21]/ResidualDenseBlock_5C[RDB3]/LeakyReLU[lrelu]
  %1818 : Float(1, 192, 256, 256) = onnx::Concat[axis=1](%1806, %1808, %1811, %1814, %1817), scope: RRDBNet/Sequential[RRDB_trunk]/RRDB[21]/ResidualDenseBlock_5C[RDB3]
  %1819 : Float(1, 64, 256, 256) = onnx::Conv[dilations=[1, 1], group=1, kernel_shape=[3, 3], pads=[1, 1, 1, 1], strides=[1, 1]](%1818, %RRDB_trunk.21.RDB3.conv5.weight, %RRDB_trunk.21.RDB3.conv5.bias), scope: RRDBNet/Sequential[RRDB_trunk]/RRDB[21]/ResidualDenseBlock_5C[RDB3]/Conv2d[conv5]
  %1820 : Tensor = onnx::Constant[value={0.2}]()
  %1821 : Tensor = onnx::Mul(%1819, %1820)
  %1822 : Float(1, 64, 256, 256) = onnx::Add(%1821, %1806), scope: RRDBNet/Sequential[RRDB_trunk]/RRDB[21]/ResidualDenseBlock_5C[RDB3]
  %1823 : Tensor = onnx::Constant[value={0.2}]()
  %1824 : Tensor = onnx::Mul(%1822, %1823)
  %1825 : Float(1, 64, 256, 256) = onnx::Add(%1824, %1774), scope: RRDBNet/Sequential[RRDB_trunk]/RRDB[21]
  %1826 : Float(1, 32, 256, 256) = onnx::Conv[dilations=[1, 1], group=1, kernel_shape=[3, 3], pads=[1, 1, 1, 1], strides=[1, 1]](%1825, %RRDB_trunk.22.RDB1.conv1.weight, %RRDB_trunk.22.RDB1.conv1.bias), scope: RRDBNet/Sequential[RRDB_trunk]/RRDB[22]/ResidualDenseBlock_5C[RDB1]/Conv2d[conv1]
  %1827 : Float(1, 32, 256, 256) = onnx::LeakyRelu[alpha=0.2](%1826), scope: RRDBNet/Sequential[RRDB_trunk]/RRDB[22]/ResidualDenseBlock_5C[RDB1]/LeakyReLU[lrelu]
  %1828 : Float(1, 96, 256, 256) = onnx::Concat[axis=1](%1825, %1827), scope: RRDBNet/Sequential[RRDB_trunk]/RRDB[22]/ResidualDenseBlock_5C[RDB1]
  %1829 : Float(1, 32, 256, 256) = onnx::Conv[dilations=[1, 1], group=1, kernel_shape=[3, 3], pads=[1, 1, 1, 1], strides=[1, 1]](%1828, %RRDB_trunk.22.RDB1.conv2.weight, %RRDB_trunk.22.RDB1.conv2.bias), scope: RRDBNet/Sequential[RRDB_trunk]/RRDB[22]/ResidualDenseBlock_5C[RDB1]/Conv2d[conv2]
  %1830 : Float(1, 32, 256, 256) = onnx::LeakyRelu[alpha=0.2](%1829), scope: RRDBNet/Sequential[RRDB_trunk]/RRDB[22]/ResidualDenseBlock_5C[RDB1]/LeakyReLU[lrelu]
  %1831 : Float(1, 128, 256, 256) = onnx::Concat[axis=1](%1825, %1827, %1830), scope: RRDBNet/Sequential[RRDB_trunk]/RRDB[22]/ResidualDenseBlock_5C[RDB1]
  %1832 : Float(1, 32, 256, 256) = onnx::Conv[dilations=[1, 1], group=1, kernel_shape=[3, 3], pads=[1, 1, 1, 1], strides=[1, 1]](%1831, %RRDB_trunk.22.RDB1.conv3.weight, %RRDB_trunk.22.RDB1.conv3.bias), scope: RRDBNet/Sequential[RRDB_trunk]/RRDB[22]/ResidualDenseBlock_5C[RDB1]/Conv2d[conv3]
  %1833 : Float(1, 32, 256, 256) = onnx::LeakyRelu[alpha=0.2](%1832), scope: RRDBNet/Sequential[RRDB_trunk]/RRDB[22]/ResidualDenseBlock_5C[RDB1]/LeakyReLU[lrelu]
  %1834 : Float(1, 160, 256, 256) = onnx::Concat[axis=1](%1825, %1827, %1830, %1833), scope: RRDBNet/Sequential[RRDB_trunk]/RRDB[22]/ResidualDenseBlock_5C[RDB1]
  %1835 : Float(1, 32, 256, 256) = onnx::Conv[dilations=[1, 1], group=1, kernel_shape=[3, 3], pads=[1, 1, 1, 1], strides=[1, 1]](%1834, %RRDB_trunk.22.RDB1.conv4.weight, %RRDB_trunk.22.RDB1.conv4.bias), scope: RRDBNet/Sequential[RRDB_trunk]/RRDB[22]/ResidualDenseBlock_5C[RDB1]/Conv2d[conv4]
  %1836 : Float(1, 32, 256, 256) = onnx::LeakyRelu[alpha=0.2](%1835), scope: RRDBNet/Sequential[RRDB_trunk]/RRDB[22]/ResidualDenseBlock_5C[RDB1]/LeakyReLU[lrelu]
  %1837 : Float(1, 192, 256, 256) = onnx::Concat[axis=1](%1825, %1827, %1830, %1833, %1836), scope: RRDBNet/Sequential[RRDB_trunk]/RRDB[22]/ResidualDenseBlock_5C[RDB1]
  %1838 : Float(1, 64, 256, 256) = onnx::Conv[dilations=[1, 1], group=1, kernel_shape=[3, 3], pads=[1, 1, 1, 1], strides=[1, 1]](%1837, %RRDB_trunk.22.RDB1.conv5.weight, %RRDB_trunk.22.RDB1.conv5.bias), scope: RRDBNet/Sequential[RRDB_trunk]/RRDB[22]/ResidualDenseBlock_5C[RDB1]/Conv2d[conv5]
  %1839 : Tensor = onnx::Constant[value={0.2}]()
  %1840 : Tensor = onnx::Mul(%1838, %1839)
  %1841 : Float(1, 64, 256, 256) = onnx::Add(%1840, %1825), scope: RRDBNet/Sequential[RRDB_trunk]/RRDB[22]/ResidualDenseBlock_5C[RDB1]
  %1842 : Float(1, 32, 256, 256) = onnx::Conv[dilations=[1, 1], group=1, kernel_shape=[3, 3], pads=[1, 1, 1, 1], strides=[1, 1]](%1841, %RRDB_trunk.22.RDB2.conv1.weight, %RRDB_trunk.22.RDB2.conv1.bias), scope: RRDBNet/Sequential[RRDB_trunk]/RRDB[22]/ResidualDenseBlock_5C[RDB2]/Conv2d[conv1]
  %1843 : Float(1, 32, 256, 256) = onnx::LeakyRelu[alpha=0.2](%1842), scope: RRDBNet/Sequential[RRDB_trunk]/RRDB[22]/ResidualDenseBlock_5C[RDB2]/LeakyReLU[lrelu]
  %1844 : Float(1, 96, 256, 256) = onnx::Concat[axis=1](%1841, %1843), scope: RRDBNet/Sequential[RRDB_trunk]/RRDB[22]/ResidualDenseBlock_5C[RDB2]
  %1845 : Float(1, 32, 256, 256) = onnx::Conv[dilations=[1, 1], group=1, kernel_shape=[3, 3], pads=[1, 1, 1, 1], strides=[1, 1]](%1844, %RRDB_trunk.22.RDB2.conv2.weight, %RRDB_trunk.22.RDB2.conv2.bias), scope: RRDBNet/Sequential[RRDB_trunk]/RRDB[22]/ResidualDenseBlock_5C[RDB2]/Conv2d[conv2]
  %1846 : Float(1, 32, 256, 256) = onnx::LeakyRelu[alpha=0.2](%1845), scope: RRDBNet/Sequential[RRDB_trunk]/RRDB[22]/ResidualDenseBlock_5C[RDB2]/LeakyReLU[lrelu]
  %1847 : Float(1, 128, 256, 256) = onnx::Concat[axis=1](%1841, %1843, %1846), scope: RRDBNet/Sequential[RRDB_trunk]/RRDB[22]/ResidualDenseBlock_5C[RDB2]
  %1848 : Float(1, 32, 256, 256) = onnx::Conv[dilations=[1, 1], group=1, kernel_shape=[3, 3], pads=[1, 1, 1, 1], strides=[1, 1]](%1847, %RRDB_trunk.22.RDB2.conv3.weight, %RRDB_trunk.22.RDB2.conv3.bias), scope: RRDBNet/Sequential[RRDB_trunk]/RRDB[22]/ResidualDenseBlock_5C[RDB2]/Conv2d[conv3]
  %1849 : Float(1, 32, 256, 256) = onnx::LeakyRelu[alpha=0.2](%1848), scope: RRDBNet/Sequential[RRDB_trunk]/RRDB[22]/ResidualDenseBlock_5C[RDB2]/LeakyReLU[lrelu]
  %1850 : Float(1, 160, 256, 256) = onnx::Concat[axis=1](%1841, %1843, %1846, %1849), scope: RRDBNet/Sequential[RRDB_trunk]/RRDB[22]/ResidualDenseBlock_5C[RDB2]
  %1851 : Float(1, 32, 256, 256) = onnx::Conv[dilations=[1, 1], group=1, kernel_shape=[3, 3], pads=[1, 1, 1, 1], strides=[1, 1]](%1850, %RRDB_trunk.22.RDB2.conv4.weight, %RRDB_trunk.22.RDB2.conv4.bias), scope: RRDBNet/Sequential[RRDB_trunk]/RRDB[22]/ResidualDenseBlock_5C[RDB2]/Conv2d[conv4]
  %1852 : Float(1, 32, 256, 256) = onnx::LeakyRelu[alpha=0.2](%1851), scope: RRDBNet/Sequential[RRDB_trunk]/RRDB[22]/ResidualDenseBlock_5C[RDB2]/LeakyReLU[lrelu]
  %1853 : Float(1, 192, 256, 256) = onnx::Concat[axis=1](%1841, %1843, %1846, %1849, %1852), scope: RRDBNet/Sequential[RRDB_trunk]/RRDB[22]/ResidualDenseBlock_5C[RDB2]
  %1854 : Float(1, 64, 256, 256) = onnx::Conv[dilations=[1, 1], group=1, kernel_shape=[3, 3], pads=[1, 1, 1, 1], strides=[1, 1]](%1853, %RRDB_trunk.22.RDB2.conv5.weight, %RRDB_trunk.22.RDB2.conv5.bias), scope: RRDBNet/Sequential[RRDB_trunk]/RRDB[22]/ResidualDenseBlock_5C[RDB2]/Conv2d[conv5]
  %1855 : Tensor = onnx::Constant[value={0.2}]()
  %1856 : Tensor = onnx::Mul(%1854, %1855)
  %1857 : Float(1, 64, 256, 256) = onnx::Add(%1856, %1841), scope: RRDBNet/Sequential[RRDB_trunk]/RRDB[22]/ResidualDenseBlock_5C[RDB2]
  %1858 : Float(1, 32, 256, 256) = onnx::Conv[dilations=[1, 1], group=1, kernel_shape=[3, 3], pads=[1, 1, 1, 1], strides=[1, 1]](%1857, %RRDB_trunk.22.RDB3.conv1.weight, %RRDB_trunk.22.RDB3.conv1.bias), scope: RRDBNet/Sequential[RRDB_trunk]/RRDB[22]/ResidualDenseBlock_5C[RDB3]/Conv2d[conv1]
  %1859 : Float(1, 32, 256, 256) = onnx::LeakyRelu[alpha=0.2](%1858), scope: RRDBNet/Sequential[RRDB_trunk]/RRDB[22]/ResidualDenseBlock_5C[RDB3]/LeakyReLU[lrelu]
  %1860 : Float(1, 96, 256, 256) = onnx::Concat[axis=1](%1857, %1859), scope: RRDBNet/Sequential[RRDB_trunk]/RRDB[22]/ResidualDenseBlock_5C[RDB3]
  %1861 : Float(1, 32, 256, 256) = onnx::Conv[dilations=[1, 1], group=1, kernel_shape=[3, 3], pads=[1, 1, 1, 1], strides=[1, 1]](%1860, %RRDB_trunk.22.RDB3.conv2.weight, %RRDB_trunk.22.RDB3.conv2.bias), scope: RRDBNet/Sequential[RRDB_trunk]/RRDB[22]/ResidualDenseBlock_5C[RDB3]/Conv2d[conv2]
  %1862 : Float(1, 32, 256, 256) = onnx::LeakyRelu[alpha=0.2](%1861), scope: RRDBNet/Sequential[RRDB_trunk]/RRDB[22]/ResidualDenseBlock_5C[RDB3]/LeakyReLU[lrelu]
  %1863 : Float(1, 128, 256, 256) = onnx::Concat[axis=1](%1857, %1859, %1862), scope: RRDBNet/Sequential[RRDB_trunk]/RRDB[22]/ResidualDenseBlock_5C[RDB3]
  %1864 : Float(1, 32, 256, 256) = onnx::Conv[dilations=[1, 1], group=1, kernel_shape=[3, 3], pads=[1, 1, 1, 1], strides=[1, 1]](%1863, %RRDB_trunk.22.RDB3.conv3.weight, %RRDB_trunk.22.RDB3.conv3.bias), scope: RRDBNet/Sequential[RRDB_trunk]/RRDB[22]/ResidualDenseBlock_5C[RDB3]/Conv2d[conv3]
  %1865 : Float(1, 32, 256, 256) = onnx::LeakyRelu[alpha=0.2](%1864), scope: RRDBNet/Sequential[RRDB_trunk]/RRDB[22]/ResidualDenseBlock_5C[RDB3]/LeakyReLU[lrelu]
  %1866 : Float(1, 160, 256, 256) = onnx::Concat[axis=1](%1857, %1859, %1862, %1865), scope: RRDBNet/Sequential[RRDB_trunk]/RRDB[22]/ResidualDenseBlock_5C[RDB3]
  %1867 : Float(1, 32, 256, 256) = onnx::Conv[dilations=[1, 1], group=1, kernel_shape=[3, 3], pads=[1, 1, 1, 1], strides=[1, 1]](%1866, %RRDB_trunk.22.RDB3.conv4.weight, %RRDB_trunk.22.RDB3.conv4.bias), scope: RRDBNet/Sequential[RRDB_trunk]/RRDB[22]/ResidualDenseBlock_5C[RDB3]/Conv2d[conv4]
  %1868 : Float(1, 32, 256, 256) = onnx::LeakyRelu[alpha=0.2](%1867), scope: RRDBNet/Sequential[RRDB_trunk]/RRDB[22]/ResidualDenseBlock_5C[RDB3]/LeakyReLU[lrelu]
  %1869 : Float(1, 192, 256, 256) = onnx::Concat[axis=1](%1857, %1859, %1862, %1865, %1868), scope: RRDBNet/Sequential[RRDB_trunk]/RRDB[22]/ResidualDenseBlock_5C[RDB3]
  %1870 : Float(1, 64, 256, 256) = onnx::Conv[dilations=[1, 1], group=1, kernel_shape=[3, 3], pads=[1, 1, 1, 1], strides=[1, 1]](%1869, %RRDB_trunk.22.RDB3.conv5.weight, %RRDB_trunk.22.RDB3.conv5.bias), scope: RRDBNet/Sequential[RRDB_trunk]/RRDB[22]/ResidualDenseBlock_5C[RDB3]/Conv2d[conv5]
  %1871 : Tensor = onnx::Constant[value={0.2}]()
  %1872 : Tensor = onnx::Mul(%1870, %1871)
  %1873 : Float(1, 64, 256, 256) = onnx::Add(%1872, %1857), scope: RRDBNet/Sequential[RRDB_trunk]/RRDB[22]/ResidualDenseBlock_5C[RDB3]
  %1874 : Tensor = onnx::Constant[value={0.2}]()
  %1875 : Tensor = onnx::Mul(%1873, %1874)
  %1876 : Float(1, 64, 256, 256) = onnx::Add(%1875, %1825), scope: RRDBNet/Sequential[RRDB_trunk]/RRDB[22]
  %1877 : Float(1, 64, 256, 256) = onnx::Conv[dilations=[1, 1], group=1, kernel_shape=[3, 3], pads=[1, 1, 1, 1], strides=[1, 1]](%1876, %trunk_conv.weight, %trunk_conv.bias), scope: RRDBNet/Conv2d[trunk_conv]
  %1878 : Float(1, 64, 256, 256) = onnx::Add(%703, %1877), scope: RRDBNet
  %1879 : Tensor = onnx::Constant[value= 1  1  2  2 [ Variable[CPUType]{4} ]](), scope: RRDBNet
  %1880 : Float(1, 64, 512, 512) = onnx::Upsample[mode="nearest"](%1878, %1879), scope: RRDBNet
  %1881 : Float(1, 64, 512, 512) = onnx::Conv[dilations=[1, 1], group=1, kernel_shape=[3, 3], pads=[1, 1, 1, 1], strides=[1, 1]](%1880, %upconv1.weight, %upconv1.bias), scope: RRDBNet/Conv2d[upconv1]
  %1882 : Float(1, 64, 512, 512) = onnx::LeakyRelu[alpha=0.2](%1881), scope: RRDBNet/LeakyReLU[lrelu]
  %1883 : Tensor = onnx::Constant[value= 1  1  2  2 [ Variable[CPUType]{4} ]](), scope: RRDBNet
  %1884 : Float(1, 64, 1024, 1024) = onnx::Upsample[mode="nearest"](%1882, %1883), scope: RRDBNet
  %1885 : Float(1, 64, 1024, 1024) = onnx::Conv[dilations=[1, 1], group=1, kernel_shape=[3, 3], pads=[1, 1, 1, 1], strides=[1, 1]](%1884, %upconv2.weight, %upconv2.bias), scope: RRDBNet/Conv2d[upconv2]
  %1886 : Float(1, 64, 1024, 1024) = onnx::LeakyRelu[alpha=0.2](%1885), scope: RRDBNet/LeakyReLU[lrelu]
  %1887 : Float(1, 64, 1024, 1024) = onnx::Conv[dilations=[1, 1], group=1, kernel_shape=[3, 3], pads=[1, 1, 1, 1], strides=[1, 1]](%1886, %HRconv.weight, %HRconv.bias), scope: RRDBNet/Conv2d[HRconv]
  %1888 : Float(1, 64, 1024, 1024) = onnx::LeakyRelu[alpha=0.2](%1887), scope: RRDBNet/LeakyReLU[lrelu]
  %output1 : Float(1, 3, 1024, 1024) = onnx::Conv[dilations=[1, 1], group=1, kernel_shape=[3, 3], pads=[1, 1, 1, 1], strides=[1, 1]](%1888, %conv_last.weight, %conv_last.bias), scope: RRDBNet/Conv2d[conv_last]
  return (%output1)

